mlruns/271458266826723899/models/m-aaf83c0cdaa641a39739863726fdfa3f/artifacts/data/model.pth (torch, 78489 bytes, 32 tensors)

weight f4 [16, 1, 3, 3]
0.14325692 0.39592463 -0.57351935 -0.09671131 -0.08542198 0.15506433 -0.22775742 0.042924322
0.14827752 -0.35306907 0.03726427 0.23366776 0.2864783 -0.34138262 -0.23780039 0.117384575
0.005824948 -0.33300894 0.13971046 0.12834193 0.27235535 0.22934598 0.13329281 0.3058328
0.16681422 0.26504156 -0.04737008 0.3224935 0.21614778 -0.015683545 -0.4524955 -0.4331029
-0.0020310679 0.013395849 0.27901122 -0.031254508 -0.25652495 0.12051516 0.32773858 0.08872018
-0.17376724 0.22517864 -0.44513032 0.07557607 0.1820162 -0.3012536 0.055137392 0.3299893
-0.18885669 0.0977016 0.153975 0.26383147 0.012360899 -0.22197883 -0.021268887 -0.24722487
-0.3265556 0.3667171 -0.08702732 -0.16715437 -0.19794112 0.3848659 0.20003748 -0.47842985
0.24255407 -0.13004754 -0.09339036 0.103039324 -0.33909407 0.23893614 -0.07898419 0.015208966
-0.11497671 -0.29852387 0.017842136 -0.16719547 0.015094761 0.17926596 -0.4362292 -0.05099001
0.24322814 0.12289945 0.13760994 0.1192176 -0.23773757 0.2679273 0.24055669 -0.41725683
-0.38655478 -0.2741201 -0.31123224 -0.18091817 -0.10250783 -0.11234625 0.33533853 -0.17881633
-0.25090134 -0.16165872 0.07768729 0.18366179 0.04045803 -0.20631509 -0.07201574 -0.436908
-0.08419438 -0.45814928 0.21334513 0.26327002 0.3569522 -0.08373334 -0.21488962 0.17838773
-0.23898914 -0.21407188 0.25694355 -0.028293729 -0.19362724 -0.2793239 -0.30872846 -0.101103656
0.12984735 0.29919305 -0.018583687 -0.03152333 0.12664904 0.3311185 -0.40849355 -0.012535982
-0.08219046 -0.1345804 0.39029533 0.29169536 0.43441546 -0.16035382 -0.48152298 0.18155411
0.27754062 -0.37128955 0.02228132 -0.073068 -0.1871236 -0.2978561 -0.332557 -0.17450652
00000000: f1b1 123e a2b6 ca3e 2ad2 12bf 9410 c6bd
00000010: b8f1 aebd 2fc9 1e3e 3e39 69be 6ad1 2f3d
00000020: 10d6 173e 78c5 b4be 6ba2 183d 9a46 6f3e
00000030: 49ad 923e b4c9 aebe f281 73be 5367 f03d
00000040: 35df be3b 2680 aabe 4210 0f3e 116c 033e
00000050: 2972 8b3e acd9 6a3e e97d 083e 1e96 9c3e
00000060: 59d1 2a3e 87b3 873e 2107 42bd de1d a53e
00000070: d855 5d3e c77a 80bc 7dad e7be aabf ddbe
00000080: aa1b 05bb 437a 5b3c 8fda 8e3e ba04 00bd
00000090: 3d57 83be a7d0 f63d 5acd a73e edb2 b53d
000000a0: 0af0 31be 3b95 663e 1fe8 e3be a0c7 9a3d
000000b0: 7462 3a3e e93d 9abe bfd7 613d 5cf4 a83e
000000c0: a663 41be c717 c83d 9fab 1d3e eb14 873e
000000d0: 5e85 4a3c 6b4e 63be 173c aebc 8428 7dbe
000000e0: 4c32 a7be 58c2 bb3e 613b b2bd 842a 2bbe
000000f0: 14b1 4abe 250d c53e a0d6 4c3e c2f4 f4be
00000100: 1860 783e 2f2b 05be 7243 bfbd 4806 d33d
00000110: bd9d adbe adab 743e 77c2 a1bd 072f 793c
00000120: e978 ebbd 1fd8 98be ac29 923c 4a35 2bbe
00000130: 0450 773c 7f91 373e 6f59 dfbe e7da 50bd
00000140: cc10 793e b5b2 fb3d 9fe9 0c3e 5b28 f43d
00000150: 7a71 73be c42d 893e 7e54 763e b0a2 d5be
00000160: 82ea c5be 7859 8cbe d559 9fbe 9d42 39be
00000170: a0ef d1bd ca15 e6bd 7eb1 ab3e a11b 37be
00000180: 2476 80be dd89 25be 841a 9f3d d611 3c3e
00000190: 52b7 253d 4344 53be fd7c 93bd 68b2 dfbe
000001a0: 1a6e acbd 8b92 eabe 2577 5a3e 54cb 863e
000001b0: 70c2 b63e 637c abbd 060c 5cbe 46ab 363e
000001c0: 92b9 74be a935 5bbe 1b8e 833e 40c8 e7bc
000001d0: 3846 46be 8b03 8fbe a811 9ebe 6f0f cfbd
000001e0: b4f6 043e d52f 993e d13c 98bc 9b1e 01bd
000001f0: 49b0 013e 5d88 a93e 1126 d1be b863 4dbc
00000200: 7953 a8bd 72cf 09be cad4 c73e 1859 953e
00000210: b46b de3e cb33 24be 2e8a f6be 52e9 393e
00000220: ce19 8e3e aa19 bebe 5187 b63c ada4 95bd
00000230: 549d 3fbe 9880 98be e944 aabe d6b1 32be

weight f4 [16]
0.99299604 0.9689355 0.82781166 1.0670146 1.082616 1.0097561 1.0021878 0.9452604
0.96379477 1.0539143 0.96079415 1.0183055 1.0434282 1.0163641 1.0469682 0.9743096
00000000: fd34 7e3f 280c 783f 77eb 533f ef93 883f
00000010: 2993 8a3f b03f 813f b147 803f 96fc 713f
00000020: 41bb 763f aae6 863f 9bf6 753f d657 823f
00000030: 0e8f 853f 3818 823f 0e03 863f 5b6c 793f

bias f4 [16]
-0.021641891 0.039761286 0.07065837 -0.013949876 0.017431656 -0.01838885 -0.07076465 -0.009315256
0.11247355 0.021231381 -0.0012627889 -0.007845989 0.113909885 -0.025820624 -0.066629745 0.050179303
00000000: 564a b1bc bbdc 223d 56b5 903d 058e 64bc
00000010: d5cc 8e3c 37a4 96bc 0fed 90bd 049f 18bc
00000020: 8858 e63d 6fed ad3c 2a84 a5ba 778c 00bc
00000030: 9649 e93d c685 d3bc 2d75 88bd d088 4d3d

running_mean f4 [16]
0.09151084 0.2056161 0.5719597 0.090764135 0.16742793 0.14088975 0.13012978 0.17227979
0.24581961 0.21796955 0.26059985 0.21281376 0.1818169 0.16967638 0.1338884 0.32658443
00000000: 096a bb3d 078d 523e f36b 123f 8ce2 b93d
00000010: 3a72 2b3e 6745 103e be40 053e 1d6a 303e
00000020: 23b8 7b3e 6933 5f3e 586d 853e daeb 593e
00000030: 362e 3a3e a5bf 2d3e 0a1a 093e 1336 a73e

running_var f4 [16]
0.037836257 0.023244705 1.3400806 0.044224165 0.19499904 0.12923591 0.09553257 0.016988313
0.061293177 0.093321234 0.029297596 0.03430878 0.1471926 0.19041088 0.073018566 0.054326918
00000000: 31fa 1a3d ae6b be3c c387 ab3f 6624 353d
00000010: d4ad 473e 6b56 043e 94a6 c33d 132b 8b3c
00000020: 8e0e 7b3d 341f bf3d 8301 f03c 5d87 0c3d
00000030: a8b9 163e 12fb 423e c28a 953d e785 5e3d

weight f4 [32, 16, 3, 3]
-0.035141718 0.068394296 0.0387709 -0.080784425 -0.101377465 0.019654524 -0.04457926 -0.12832893
-0.04546331 0.03224571 -0.10754945 0.01362204 -0.038908876 -0.14109461 0.04495841 -0.06175474
-0.039739083 0.057285354 -0.069432005 -0.011133724 -0.008751122 -0.04344573 0.06523671 0.014914152
-0.08589083 0.022843357 0.0069015417 -0.004128971 0.035533816 0.04929115 0.076519795 -0.001758199
-0.08545286 -0.027542599 -0.029049614 -0.100871116 -0.017025955 0.10075774 -0.08917639 0.048936386
0.053534638 0.03536575 0.020762902 -0.0050175423 -0.036748674 0.0050548147 0.068351656 0.021072228
-0.078585945 0.111093536 0.06465584 -0.029120635 -0.04906104 -0.03277825 0.04225725 0.012667195
-0.08332086 -0.024970686 -0.06795657 -0.045391843 -0.06699876 -0.115943246 0.018653853 -0.03783348
-0.027758285 0.012040421 -0.07183799 -0.08088059 0.08664819 -0.0789431 0.0228983 0.07330106
-0.090993844 -0.038684726 -0.048527498 -0.012940252 -0.04077588 -0.028938556 0.063092634 0.044805236
0.06481566 0.046163924 0.043637782 0.074192196 0.0053342185 -0.05489535 -0.044495814 -0.03861058
-0.030438397 0.010965535 -0.09095774 -0.07024694 -0.11402922 -0.016212624 0.019489376 0.017136388
-0.034116846 -0.04971251 -0.047158323 -0.032747444 -0.06922804 -0.010561358 -0.078372225 -0.07360708
0.014136273 0.04805134 0.039062582 -0.07348305 -0.06701026 -0.07854116 -0.052265912 0.086394355
-0.1187581 -0.034388497 0.05684162 -0.07566196 0.1491728 -0.044006806 -0.024078928 -0.0733603
0.0498308 -0.056229867 -0.016306795 0.004290984 -0.0870777 -0.14397645 -0.080846764 -0.0067262477
-0.011439819 -0.04712142 0.015198277 0.008752484 -0.06796583 -0.0006197377 0.04696167 -0.026451327
-0.04137547 -0.0906048 0.07657012 0.009134285 -0.065458804 0.08267433 -0.07513291 0.025921354
-0.051421035 -0.0053566457 0.16461606 0.028833365 -0.04947944 0.1516725 -0.077874124 0.091999196
0.053936385 -0.057891075 -0.014261894 -0.059731644 -0.07744797 -0.023981921 -0.11337942 0.054648984
-0.0046191453 -0.017277038 -0.027448917 0.036096014 -0.030224595 0.036633357 0.011103083 0.05514223
-0.0066084154 -0.09203711 -0.09098655 0.12005728 0.08256708 -0.10462316 0.027715135 0.044102363
-0.016375389 -0.032917887 0.06040728 0.003216524 0.017387697 0.012428615 -0.026964769 -0.123396344
0.114330746 -0.068618074 -0.061334368 0.040288355 0.046332076 -0.017238624 0.05929509 -0.043222863
-0.08078072 -0.004732134 0.041664775 -0.0077509643 -0.047849532 -0.02968164 0.05556378 -0.14294584
0.0071063093 0.07247332 -0.04849931 -0.033705536 -0.04857632 -0.049201615 -0.04830331 -0.047830362
0.034540404 0.02713776 0.008985762 -0.033676825 -0.049159028 0.053145044 -0.072298825 -0.08712338
-0.07254474 -0.11262294 -0.05937552 -0.030305233 -0.008204701 0.0071636955 0.015460921 0.02906158
-0.0039681233 0.032455985 0.106066056 -0.029263593 -0.07497107 -0.054378316 0.033795215 0.039415497
-0.07143447 0.02220876 -0.059991635 0.00950322 0.055153906 -0.02281988 0.00045851737 0.046285518
0.09939145 0.013111704 -0.017702363 -0.0013622907 -0.10353872 0.0049379305 0.048806123 -0.040165737
0.04267477 0.05063668 0.16013277 -0.029342964 0.020969182 0.010651254 -0.032363296 -0.07455643
00000000: c3f0 0fbd 4f12 8c3d 3cce 1e3d 4e72 a5bd
00000010: fd9e cfbd 8602 a13c be98 36bd a968 03be
00000020: bc37 3abd 1414 043d e342 dcbd fa2e 5f3c
00000030: ea5e 1fbd 1b7b 10be 4f26 383d 8af2 7cbd
00000040: 73c5 22bd 0ca4 6a3d 5e32 8ebd 396a 36bc
00000050: de60 0fbc 26f4 31bd d39a 853d 7d5a 743c
00000060: 88e7 afbd fe21 bb3c 5426 e23b 524c 87bb
00000070: e88b 113d 84e5 493d 69b6 9c3d 5e73 e6ba
00000080: e901 afbd 04a1 e1bc 75f9 edbc 8495 cebd
00000090: 047a 8bbc 135a ce3d 1ca2 b6bd 8571 483d
000000a0: 2347 5b3d addb 103d f616 aa3c 326a a4bb
000000b0: c785 16bd dca2 a53b f4fb 8b3d aa9f ac3c
000000c0: abf1 a0bd 0285 e33d 486a 843d 668e eebc
000000d0: 3bf4 48bd 7c42 06bd f015 2d3d 118a 4f3c
000000e0: 21a4 aabd 538f ccbc d02c 8bbd ccec 39bd
000000f0: a536 89bd a773 edbd f7cf 983c 47f7 1abd
00000100: 5865 e3bc 3045 453c cc1f 93bd b9a4 a5bd
00000110: 9b74 b13d ecac a1bd 3795 bb3c de1e 963d
00000120: fb5a babd e073 1ebd c5c4 46bd 5a03 54bc
00000130: 9c04 27bd 8d10 edbc b636 813d b285 373d
00000140: 13be 843d 6216 3d3d 88bd 323d 14f2 973d
00000150: abca ae3b f2d9 60bd 3e41 36bd 2126 1ebd
00000160: f259 f9bc caa8 333c 0d48 babd a1dd 8fbd
00000170: 2788 e9bd 56d0 84bc 2fa8 9f3c 9c61 8c3c
00000180: 1bbe 0bbd 589f 4bbd 1629 41bd 2f22 06bd
00000190: 6ec7 8dbd 8c09 2dbc 9e81 a0bd 4fbf 96bd
000001a0: d49b 673c 7bd1 443d 1600 203d 487e 96bd
000001b0: ad3c 89bd 30da a0bd c814 56bd 86ef b03d
000001c0: 7237 f3bd f4da 0cbd c2d2 683d a8f4 9abd
000001d0: c1c0 183e 7b40 34bd 2c41 c5bc ed3d 96bd
000001e0: 621b 4c3d 4a51 66bd d495 85bc 629b 8c3b
000001f0: cb55 b2bd 906e 13be fd92 a5bd db67 dcbb
00000200: 146e 3bbc 6402 41bd 3202 793c 9466 0f3c
00000210: ab31 8bbd e575 22ba e15a 403d 74b0 d8bc
00000220: 5379 29bd 028f b9bd ccd0 9c3d f8a7 153c
00000230: 440f 86bd 2951 a93d 48df 99bd 0559 d43c
00000240: dd9e 52bd cd86 afbb 1d91 283e f333 ec3c
00000250: f4aa 4abd 0950 1b3e 787c 9fbd 136a bc3d
00000260: 66ec 5c3d 311f 6dbd b8aa 69bc 2ba9 74bd
00000270: 0b9d 9ebd bc75 c4bc 7833 e8bd 9dd7 5f3d
00000280: 335c 97bb 9388 8dbc 8ddc e0bc 6ad9 133d
00000290: 9299 f7bc dc0c 163d b5e9 353c d2dc 613d
000002a0: 688b d8bb f47d bcbd 2857 babd 97e0 f53d
000002b0: ee18 a93d ab44 d6bd da0a e33c aea4 343d
000002c0: ae25 86bc e8d4 06bd a06d 773d 51cc 523b
000002d0: a570 8e3c 64a1 4b3c 38e5 dcbc 39b7 fcbd
000002e0: 3d26 ea3d a287 8cbd bf39 7bbd 6705 253d
000002f0: b4c6 3d3d 0438 8dbc 69df 723d 750a 31bd
00000300: 5d70 a5bd 0410 9bbb afa8 2a3d cdfb fdbb
00000310: dffd 43bd e926 f3bc d996 633d 6560 12be
00000320: 0bdc e83b e46c 943d 36a7 46bd d10e 0abd
00000330: f7f7 46bd a287 49bd b1d9 45bd c5e9 43bd
00000340: 3d7a 0d3d 0250 de3c 0439 133c b6f0 09bd
00000350: fa5a 49bd 9eae 593d 6811 94bd be6d b2bd
00000360: 5692 94bd dba6 e6bd bf33 73bd ae42 f8bc
00000370: 036d 06bc 6fbd ea3b ce4f 7d3c 8d12 ee3c
00000380: 0807 82bb 91f0 043d 2939 d93d 34ba efbc
00000390: 6f8a 99bd ccbb 5ebd da6c 0a3d 2572 213d
000003a0: 3c4c 92bd 25ef b53c cab9 75bd 65b3 1b3c
000003b0: 10e9 613d c2f0 babc 2965 f039 e295 3d3d
000003c0: bf8d cb3d 79d2 563c 8c04 91bc e48e b2ba
000003d0: 1c0c d4bd 5dce a13b eee8 473d d484 24bd
000003e0: bdcb 2e3d 6868 4f3d d8f9 233e a860 f0bc
000003f0: 90c7 ab3c 9982 2e3c 608f 04bd 0bb1 98bd

weight f4 [32]
0.9960243 0.9721469 0.97263336 0.99122727 0.9976819 0.960112 0.98232436 0.9780181
0.97521317 1.0012894 1.0159302 1.0328822 0.9792895 1.0156125 0.9875438 0.99733865
1.0421658 0.9568354 1.042919 0.9994997 1.053669 0.9908878 1.0334138 1.0030289
1.0232632 0.97862375 0.99039876 1.0037686 0.9919693 1.0063494 1.0112463 1.0241393
00000000: 73fb 7e3f 9fde 783f 80fe 783f 12c1 7d3f
00000010: 1568 7f3f e6c9 753f 9c79 7b3f 655f 7a3f
00000020: 92a7 793f 402a 803f 000a 823f 7c35 843f
00000030: b7b2 7a3f 97ff 813f accf 7c3f 9651 7f3f
00000040: b065 853f 2af3 743f 5f7e 853f 36df 7f3f
00000050: a0de 863f d3aa 7d3f e746 843f 4063 803f
00000060: 4afa 823f 1687 7a3f c68a 7d3f 7d7b 803f
00000070: b3f1 7d3f 0fd0 803f 8570 813f ff16 833f

bias f4 [32]
-0.040444475 0.006275137 -0.013554846 -0.0030484977 0.012938461 -0.0073216264 -0.02232781 -0.008080473
-0.0022717724 -0.023577744 0.00067364273 0.010710469 -0.029218713 0.007895028 -0.012600842 -0.016121719
-0.021481702 -0.02661188 0.01633417 -0.0062957094 -0.027507557 -0.026959876 -0.014664646 -0.021783546
-0.024150698 -0.010269501 0.012408648 0.027179567 0.009020626 -0.02575643 -0.010666758 0.004647758
00000000: 1ba9 25bd aa9f cd3b 2515 5ebc 4ec9 47bb
00000010: d7fb 533c 41ea efbb d0e8 b6bc f663 04bc
00000020: 04e2 14bb 1d26 c1bc 6697 303a f77a 2f3c
00000030: 155c efbc 265a 013c c373 4ebc b211 84bc
00000040: 65fa afbc 2801 dabc 3dcf 853c 3d4c cebb
00000050: 8757 e1bc f5da dcbc fc43 70bc 6873 b2bc
00000060: afd7 c5bc 6941 28bc a44d 4b3c afa7 de3c
00000070: 3fcb 133c 26ff d2bc a0c3 2ebc 384c 983b

running_mean f4 [32]
0.33825827 0.22347574 0.26260144 0.26284027 0.39811397 0.4978505 0.30605286 0.32816914
0.52987933 0.34443185 0.35307613 0.41870245 0.35858586 0.41667315 0.5018994 0.4180207
0.2226259 0.51069933 0.41880193 0.31861272 0.45984808 0.21074757 0.39600897 0.34112027
0.38149545 0.28726828 0.4784171 0.63168854 0.31611302 0.4511439 0.2998622 0.5851417
00000000: 3030 ad3e d3d6 643e b273 863e 0093 863e
00000010: 98d5 cb3e 43e6 fe3e f6b2 9c3e c905 a83e
00000020: 2ca6 073f 5f59 b03e 65c6 b43e 2b60 d63e
00000030: 9198 b73e 2f56 d53e 7b7c 003f cf06 d63e
00000040: 0bf8 633e 31bd 023f 356d d63e 3521 a33e
00000050: 3571 eb3e 36ce 573e b0c1 ca3e 51a7 ae3e
00000060: 5f53 c33e d414 933e 16f3 f43e 57b6 213f
00000070: 91d9 a13e 55fc e63e 8a87 993e d9cb 153f

running_var f4 [32]
0.46292338 0.29162228 0.31670883 0.37207842 0.2709932 0.33938488 0.487403 0.46969095
0.5573464 0.8795244 0.4991357 0.37113082 0.5661617 0.51985705 0.89692444 0.2736044
0.3723418 0.8330757 0.56247526 0.63216513 0.8890063 0.3153479 0.5250367 0.52972895
0.58062756 0.44610396 0.5439085 0.33684886 0.43737763 0.49655342 0.4964003 0.33186263
00000000: 4b04 ed3e 844f 953e a927 a23e 1081 be3e
00000010: 9fbf 8a3e dbc3 ad3e e38c f93e 557b f03e
00000020: 41ae 0e3f 8328 613f b78e ff3e dc04 be3e
00000030: f9ef 103f 5a15 053f d79c 653f e015 8c3e
00000040: 96a3 be3e 7344 553f 61fe 0f3f 93d5 213f
00000050: eb95 633f 4875 a13e ce68 063f 519c 073f
00000060: 02a4 143f bd67 e43e 963d 0b3f 7477 ac3e
00000070: f6ef df3e 403c fe3e 2e28 fe3e e6e9 a93e

weight f4 [10, 32, 1, 1]
-0.026939379 -0.13018247 0.14073652 0.0055645765 0.08403706 0.030701479 0.08618995 0.18422142
0.062920086 0.13006602 -0.06384639 0.21785744 0.06985474 -0.043291155 -0.002706869 0.060113803
0.24601947 0.082587615 -0.18660183 0.16557142 -0.0727352 0.010149739 0.042950388 0.15910093
0.2300759 0.035488006 -0.10746114 -0.17757265 -0.014486017 0.1321805 0.046316985 0.21762078
-0.0081737 0.14707413 0.029185442 0.08735278 0.07099758 -0.11359415 -0.14254464 0.010202824
0.22151949 -0.093415394 0.23790222 0.3109861 -0.084884204 0.09317668 0.014608422 -0.14195691
-0.108502604 -0.0115395095 -0.0853855 0.111189276 0.08420439 0.06642586 -0.119441904 -0.069457516
-0.17411199 0.018844705 0.086335704 -0.107005745 -0.04278939 0.007093196 -0.119058214 0.124258555
0.06667499 0.14566812 -0.014406569 -0.028565375 -0.020861868 -0.062892824 -0.2143743 -0.20102534
0.04877165 0.056566823 -0.15556699 -0.094264895 0.06500946 -0.060083844 0.17790838 0.087943144
0.22663656 0.14741376 -0.03615217 0.26196456 -0.12755571 0.22532766 -0.15421613 0.17085446
-0.21016371 -0.14761621 -0.19453822 -0.034746855 -0.18011114 0.06481733 -0.17612988 0.058487408
-0.120039776 -0.03746427 -0.22777227 0.14971638 -0.118964456 -0.05209237 0.028093945 0.11927522
0.08934026 -0.09973238 -0.020278482 0.03464026 0.20883425 -0.12940453 -0.13821074 0.063134804
-0.09347305 0.15029323 -0.06315391 -0.10264077 0.033152092 0.14697869 0.28560486 0.17096364
-0.0023902045 -0.05167195 0.10019836 -0.056946132 -0.087789476 0.26307675 -0.06570432 -0.08674522
0.15922056 -0.013090824 -0.0042250487 0.035162345 -0.07816511 0.08097473 0.059031133 0.013901227
0.14563908 0.21291299 0.14543691 -0.017316567 0.19422081 -0.14474924 0.09075337 -0.09375318
-0.050471168 -0.008330103 -0.15264067 0.04262362 0.32806978 -0.02577864 0.0033911183 -0.026264545
-0.13594732 0.14980437 0.29382482 0.17057905 0.04844676 0.010634371 -0.1471467 -0.18818356
0.24921173 0.17421585 0.10119037 0.011369213 -0.065882474 0.06538195 0.14808536 0.1314667
-0.0770914 0.28717688 -0.04838914 -0.13450621 -0.059804212 -0.044349838 -0.02093122 0.14864103
0.15375407 0.10125962 -0.10845726 0.08417328 0.17353465 0.0914789 -0.088927194 -0.08398711
-0.08332048 0.07369888 -0.04403984 -0.14830372 -0.13535644 -0.18554194 0.05073634 -0.1978592
-0.05841045 -0.048617065 0.0005346303 -0.1655263 0.30286556 0.07511322 0.045609728 -0.022746703
-0.2766552 -0.0013013346 0.1495515 -0.15132357 0.10295227 -0.042018957 -0.1010246 -0.072435565
0.08472457 0.067422055 0.066065274 0.13555126 -0.016493035 0.26877448 -0.1614934 0.044899184
0.27595037 0.120327756 0.09918851 -0.21051177 0.1405454 -0.07922019 0.17786835 -0.12632565
0.039934285 -0.044770826 -0.056770768 0.14843477 -0.15252982 -0.20042539 -0.15804365 -0.03101544
-0.049073447 -0.15467684 0.010351585 0.025194192 -0.10884845 0.33854327 0.15372342 0.27220425
0.20568605 -0.015650382 0.26941174 -0.029456832 0.026686937 0.0493872 0.08498679 0.15922908
-0.05141912 -0.054262787 -0.08044034 -0.24593334 0.1624547 0.0313934 0.23892231 0.2057981
00000000: f9af dcbc 8e4e 05be 3c1d 103e 0d57 b63b
00000010: 9f1b ac3d ab81 fb3c 5b84 b03d 8aa4 3c3e
00000020: 3fdc 803d 0730 053e e5c1 82bd 0516 5f3e
00000030: 0010 8f3d 1152 31bd ba65 31bb e439 763d
00000040: 87ec 7b3e b223 a93d 8d14 3fbe 8e8b 293e
00000050: 31f6 94bd 174b 263c bfec 2f3d 5beb 223e
00000060: 0499 6b3e df5b 113d 9614 dcbd 9bd5 35be
00000070: c256 6dbc 535a 073e e1b6 3d3d fbd7 5e3e
00000080: fcea 05bc 9a9a 163e 4f16 ef3c 04e6 b23d
00000090: 2e67 913d 0da4 e8bd 39f7 11be bf29 273c
000000a0: 01d6 623e 9250 bfbd a49c 733e 9239 9f3e
000000b0: c5d7 adbd 6ad3 be3d 2a58 6f3c 275d 11be
000000c0: 9d36 debd 3610 3dbc 98de aebd 34b7 e33d
000000d0: 5a73 ac3d 480a 883d f59d f4bd be3f 8ebd
000000e0: 6a4a 32be 3660 9a3c c6d0 b03d d425 dbbd
000000f0: ed43 2fbd 0a6e e83b cbd4 f3bd 457b fe3d
00000100: e68c 883d 062a 153e 8809 6cbc ef01 eabc
00000110: 82e6 aabc f4cd 80bd f084 5bbe 96d9 4dbe
00000120: c8c4 473d 9db2 673d f44c 1fbe f40d c1bd
00000130: ae23 853d 7a1a 76bd 9d2d 363e 891b b43d
00000140: 6a13 683e a2f3 163e 4c14 14bd 3820 863e
00000150: f79d 02be 4bbc 663e d5ea 1dbe 79f4 2e3e
00000160: 2835 57be b428 17be 0735 47be b852 0ebd
00000170: 0e6f 38be f3be 843d 645b 34be 7e90 6f3d
00000180: 6ad7 f5bd 2274 19bd 223d 69be 404f 193e
00000190: a3a3 f3bd cf5e 55bd 4625 e63c 9146 f43d
000001a0: 07f8 b63d 7d40 ccbd 0f1f a6bc f2e2 0d3d
000001b0: a5d8 553e 9f82 04be 1e87 0dbe d24c 813d
000001c0: cc6e bfbd 78e6 193e d656 81bd 5335 d2bd
000001d0: 7dca 073d 9581 163e cd3a 923e 1811 2f3e
000001e0: faa4 1cbb f7a5 53bd cc34 cd3d 5940 69bd
000001f0: f8ca b3bd ffb1 863e fd8f 86bd 7aa7 b1bd
00000200: b70a 233e e57a 56bc 4772 8abb 6406 103d
00000210: 0715 a0bd 14d6 a53d a1ca 713d f9c1 633c
00000220: 6922 153e dd05 5a3e 6aed 143e 79db 8dbc
00000230: d2e1 463e 2539 14be e7dc b93d ab01 c0bd
00000240: dbba 4ebd fc7a 08bc d64d 1cbe 1b96 2e3d
00000250: c3f8 a73e ba2d d3bc 863d 5e3b be28 d7bc
00000260: c635 0bbe 5166 193e 3570 963e 46ac 2e3e
00000270: 1c70 463d c93b 2e3c a0ad 16be 31b3 40be
00000280: 5c31 7f3e a465 323e e63c cf3d f045 3a3c
00000290: 64ed 86bd f9e6 853d b0a3 173e 359f 063e
000002a0: 19e2 9dbd d908 933e b133 46bd ffbb 09be
000002b0: 43f5 74bd 2da8 35bd f377 abbc 5b35 183e
000002c0: b571 1d3e 3461 cf3d d71e debd 0a63 ac3d
000002d0: 11b3 313e 4a59 bb3d 761f b6bd 6f01 acbd
000002e0: eea3 aabd 70ef 963d 1f63 34bd eedc 17be
000002f0: e19a 0abe b5fe 3dbe e9d0 4f3d 9a9b 4abe
00000300: cc3f 6fbd b022 47bd 6f26 0c3a ba7f 29be
00000310: 3211 9b3e f6d4 993d 44d1 3a3d 4b57 babc
00000320: c0a5 8dbe 8b91 aaba 0724 193e 91f4 1abe
00000330: a4d8 d23d 121c 2cbd fce5 cebd 1959 94bd
00000340: 1384 ad3d 9314 8a3d 3b4d 873d f3cd 0a3e
00000350: 671c 87bc cf9c 893e 875e 25be 35e8 373d
00000360: 5e49 8d3e 666e f63d 5823 cb3d 6690 57be
00000370: 22eb 0f3e 323e a2bd 1f23 363e 835b 01be
00000380: 2292 233d 9d61 37bd 7788 68bd 49ff 173e
00000390: c730 1cbe 503c 4dbe 32d6 21be 1814 febc
000003a0: 3d01 49bd 9b63 1ebe b299 293c 0d64 ce3c
000003b0: f0eb debd 8b55 ad3e ac69 1d3e 5b5e 8b3e
000003c0: 5d9f 523e 3b35 80bc 56f0 893e 744f f1bc
000003d0: 909e da3c 3c4a 4a3d 8e0d ae3d f30c 233e
000003e0: db9c 52bd a842 5ebd e8bd a4bd f3d5 7bbe
000003f0: 865a 263e 5e96 003d 0da8 743e bdbc 523e

weight f4 [16, 10, 3, 3]
0.12209642 -0.07952231 0.106334515 0.22545406 -0.036474686 -0.09333816 0.15579489 -0.041191008
-0.04122986 0.017845392 -0.042590044 -0.042654525 -0.070111476 -0.042255737 -0.030612782 -0.080426455
0.03286152 -0.016350904 0.072515525 -0.05849085 0.047020122 0.074245766 -0.120971575 -0.020088151
0.13511038 0.0070162546 0.11833088 0.117197245 0.005520634 0.10713951 0.16985029 0.024467371
0.13217954 0.24740668 0.014762317 0.064389706 -0.14434291 -0.0980587 -0.03725956 0.06894585
0.026911601 -0.00789594 0.019794839 0.022777554 -0.05176998 0.010429964 0.06324249 0.179932
-0.04874778 -0.028726848 0.13079016 0.09391309 -0.054086477 0.25575978 -0.09293618 -0.00020130635
0.046661012 -0.08200859 -0.04147915 0.15571418 -0.037228737 0.078207664 0.2667894 0.06542565
0.039150406 0.13374291 -0.03824737 -0.104193866 -0.18435822 -0.11942121 -0.08531786 -0.047786236
0.039383538 -0.01620775 -0.051982343 -0.02798647 -0.026480919 -0.07347184 -0.08352387 -0.097900726
0.09568524 0.09090488 0.10086715 0.15344927 0.06836804 0.03846445 0.20224284 0.14088544
-0.00251644 -0.053615157 0.16878597 0.15422875 0.23068179 -0.021496521 0.06413463 -0.098091744
-0.03743857 0.001370314 0.053185157 -0.059988994 0.061419923 -0.038745806 0.043435454 0.03770576
-0.022745859 -0.04174843 -0.058164816 0.10485793 0.10149672 0.22031447 0.19785637 0.036135484
-0.041781712 0.06803668 0.08019938 0.15612133 -0.054539632 0.04818773 -0.0040055625 0.032573223
-0.040907275 -0.07256783 -0.044661406 0.019880794 -0.0020491814 0.022517586 0.043369558 0.004835263
-0.23922272 0.09279771 -0.12731516 -0.12649722 0.028439542 -0.0318831 -0.02576075 0.26614755
-0.012660919 0.058186203 0.12645534 0.057953376 -0.025965063 0.10395989 0.0035028856 -0.026079824
0.076822065 -0.10278289 0.10522984 -0.04946354 -0.113393016 -0.043280132 -0.0007991772 0.036152225
-0.031913217 -0.007546479 0.027517278 0.18154392 -0.074670814 0.036510188 0.04451315 -0.1085159
0.07700111 0.04063083 0.020237265 0.008606166 0.09774458 0.020382062 0.079701714 0.109748565
-0.008655233 0.023637954 0.16781478 -0.098853335 0.054926895 -0.05346005 -0.049301643 -0.013443965
0.033807933 0.09090715 -0.13778317 -0.016192675 0.02419701 -0.0006399302 0.031915076 -0.12759385
0.0376647 -0.0012408204 0.020324439 -0.0012763626 0.07779652 0.13347241 0.103024766 0.12432978
0.0476385 0.085998796 0.028013363 -0.13289635 -0.14124168 -0.042318955 0.01794042 0.054958723
-0.014252346 -0.0079096565 0.03174454 0.10392007 0.089191034 0.11094544 0.14170828 0.18009934
0.05557085 -0.0003997848 -0.01405665 0.032562487 -0.12701903 0.027148822 0.036592647 0.015783016
0.06776093 0.10921227 0.20270355 -0.052288715 -0.07252494 -0.09228796 -0.22551844 -0.17506057
-0.18768103 0.082411535 0.014554143 0.14497098 0.00071488414 0.06371072 0.06795237 -0.10811979
-0.048179697 0.021675022 0.004375899 0.2304324 0.2069397 -0.16555339 -0.031466875 -0.033597484
-0.27720118 -0.02625103 -0.0021205 0.0020755597 0.0215049 0.05040282 -0.14159141 0.0030148253
0.038478233 0.11026083 0.13315728 -0.015270573 -0.046284363 0.053243965 0.16946396 -0.06381007
00000000: b00d fa3d 98dc a2bd e9c5 d93d 6edd 663e
00000010: 7b66 15bd 1428 bfbd b288 1f3e e7b7 28bd
00000020: a4e0 28bd 8030 923c e672 2ebd 83b6 2ebd
00000030: 9b96 8fbd 5a14 2dbd a8c7 fabc a0b6 a4bd
00000040: cd99 063d 55f2 85bc 0583 943d 1a94 6fbd
00000050: 2c98 403d 2a0e 983d f2bf f7bd e88f a4bc
00000060: 605a 0a3e 9ce8 e53b 7657 f23d 1c05 f03d
00000070: 6fe6 b43b f66b db3d 3ced 2d3e cc6f c83c
00000080: 135a 073e 2d58 7d3e a5dd 713c c0de 833d
00000090: a1ce 13be 00d3 c8bd 7b9d 18bd 7b33 8d3d
000000a0: b875 dc3c f95d 01bc c928 a23c fe97 ba3c
000000b0: c20c 54bd 71e2 2a3c 4785 813d 1840 383e
000000c0: c1ab 47bd 9154 ebbc dbed 053e 8255 c03d
000000d0: c889 5dbd f2f2 823e 5355 bebd c315 53b9
000000e0: 9e1f 3f3d 1ff4 a7bd 0be6 29bd 8a73 1f3e
000000f0: 297d 18bd 572b a03d 9f98 883e e2fd 853d
00000100: 2d5c 203d e7f3 083e 46a9 1cbd 9863 d5bd
00000110: 67c8 3cbe 1b93 f4bd 21bb aebd 80bb 43bd
00000120: a250 213d 1ec6 84bc 70eb 54bd e243 e5bc
00000130: 83ee d8bc 6778 96bd 900e abbd 2d80 c8bd
00000140: a0f6 c33d 562c ba3d 7093 ce3d ce21 1d3e
00000150: 8b04 8c3d e68c 1d3d bf18 4f3e 4644 103e
00000160: dcea 24bb 919b 5bbd 3bd6 2c3e 24ee 1d3e
00000170: d937 6c3e 7919 b0bc 0459 833d 53e4 c8bd
00000180: 3059 19bd 1c9c b33a aed8 593d 05b7 75bd
00000190: 7593 7b3d ecb3 1ebd 60e9 313d 5b71 1a3d
000001a0: 8655 babc 6700 2bbd 3b3e 6ebd c1bf d63d
000001b0: 83dd cf3d 1e9a 613e dc9a 4a3e cd02 143d
000001c0: 4d23 2bbd d156 8b3d 933f a43d 45de 1f3e
000001d0: f364 5fbd 7f60 453d 1841 83bb 806b 053d
000001e0: 638e 27bd 719e 94bd e1ee 36bd 0cdd a23c
000001f0: 8f4b 06bb cd76 b83c 47a4 313d 2071 9e3b
00000200: cdf6 74be ba0c be3d e85e 02be 7d88 01be
00000210: 0bfa e83c da97 02bd 3508 d3bc 7e44 883e
00000220: be6f 4fbc a854 6e3d 827d 013e 8560 6d3d
00000230: afb4 d4bc ece8 d43d ab90 653b 5ba5 d5bc
00000240: e354 9d3d d67f d2bd be82 d73d 489a 4abd
00000250: 993a e8bd 8246 31bd e07f 51ba 5b14 143d
00000260: 6fb7 02bd 7448 f7bb ea6b e13c a6e6 393e
00000270: 03ed 98bd b58b 153d 6c53 363d 963d debd
00000280: c2b2 9d3d 836c 263d 9fc8 a53c e000 0d3c
00000290: 4f2e c83d 48f8 a63c a73a a33d dbc3 e03d
000002a0: aece 0dbc 62a4 c13c a3d7 2b3e 9e73 cabd
000002b0: 06fb 603d edf8 5abd 85f0 49bd 1444 5cbc
000002c0: 307a 0a3d 872d ba3d 0817 0dbe 80a6 84bc
000002d0: cf38 c63c fdc0 27ba 62b9 023d f6a7 02be
000002e0: 4d46 1a3d 06a3 a2ba 707f a63c 9f4b a7ba
000002f0: c853 9f3d feac 083e a6fe d23d 9da0 fe3d
00000300: 9620 433d 2320 b03d 487c e53c fb15 08be
00000310: a9a1 10be a456 2dbd caf7 923c 661c 613d
00000320: ac82 69bc 8197 01bc 9006 023d 0cd4 d43d
00000330: caa9 b63d 5d37 e33d fa1b 113e f66b 383e
00000340: 429e 633d 359a d1b9 dd4d 66bc 3e60 053d
00000350: 4711 02be 3567 de3c 2ce2 153d 624b 813c
00000360: 3ec6 8a3d afaa df3d 8591 4f3e b12c 56bd
00000370: f587 94bd 7801 bdbd 4eee 66be 1443 33be
00000380: 752f 40be 61c7 a83d 8074 6e3c 4673 143e
00000390: 1067 3b3a c47a 823d 9d2a 8b3d e96d ddbd
000003a0: 1358 45bd d18f b13c b463 8f3b 79f6 6b3e
000003b0: 00e8 533e d486 29be 69e3 00bd 849d 09bd
000003c0: 50ed 8dbe 660c d7bc 16f8 0abb 1d06 083b
000003d0: 0b2b b03c 3073 4e3d 57fd 10be 6094 453b
000003e0: 5a9b 1d3d 6ed0 e13d 625a 083e 6d31 7abc
000003f0: ac94 3dbd 5816 5a3d f687 2d3e dbae 82bd

weight f4 [16]
0.96413445 0.93506324 1.0067623 0.984914 1.0239366 0.9978267 1.0040345 1.0630333
0.97972 0.9853716 0.95517343 0.9755887 1.0512301 1.1256357 0.8974154 1.006073
00000000: 84d1 763f 4e60 6f3f 96dd 803f 5323 7c3f
00000010: 5b10 833f 9271 7f3f 3484 803f 7a11 883f
00000020: eece 7a3f 5041 7c3f 3f86 743f 2ec0 793f
00000030: b58e 863f d514 903f 04bd 653f 00c7 803f

bias f4 [16]
0.0037472825 -0.13333118 0.015254908 -0.0208751 0.09328698 0.11082251 0.13755131 0.016558275
0.15314074 -0.050486326 -0.03538331 0.005783283 0.06387694 0.20816965 -0.013081652 0.0169562
00000000: f894 753b f887 08be b9ef 793c 4202 abbc
00000010: 3f0d bf3d eaf6 e23d 40da 0c3e 38a5 873c
00000020: edd0 1c3e c0ca 4ebd 17ee 10bd b281 bd3b
00000030: ead1 823d 6d2a 553e 6d54 56bc bbe7 8a3c

running_mean f4 [16]
1.4326537 1.3639339 1.0753397 0.6109652 0.29998243 0.46742716 0.35679495 0.31218183
0.6079327 0.14586397 0.37334025 0.63841426 0.3589378 0.51344025 0.64056134 0.49685827
00000000: 3261 b73f 6395 ae3f bba4 893f 3768 1c3f
00000010: 4c97 993e 9d52 ef3e d4ad b63e 4cd6 9f3e
00000020: 7aa1 1b3f 5d5d 153e 7426 bf3e 1e6f 233f
00000030: b2c6 b73e d270 033f d4fb 233f 3564 fe3e

running_var f4 [16]
2.0441797 2.56649 2.0691426 0.82158077 0.36603254 0.7053491 0.6078381 0.5415543
0.86847144 0.18590026 0.61494046 0.7574246 0.58679146 1.0806861 0.88948447 0.6177939
00000000: d7d3 0240 5f41 2440 d56c 0440 1e53 523f
00000010: 9e68 bb3e c291 343f 479b 1b3f 4da3 0a3f
00000020: 2554 5e3f a35c 3e3e bd6c 1d3f 94e6 413f
00000030: f737 163f ec53 8a3f 41b5 633f be27 1e3f

weight f4 [16, 16, 3, 3]
-0.0987428 -0.04010273 0.0011464457 -0.04197222 -0.0116424365 0.07623345 -0.18898405 -0.06421163
-0.004076614 0.05902561 0.052032564 0.16977493 0.0014495677 -0.028635591 -0.016264891 -0.043447196
-0.05015955 -0.07772515 0.020756757 0.10116993 0.21183394 0.04798518 -0.03330216 0.048700217
0.09021099 0.001690338 0.05016122 0.04005051 0.038308725 0.08946663 0.005178103 -0.08715278
-0.01369443 0.01615833 0.05873795 -0.017763482 0.071788214 -0.021742744 0.20144594 0.028457189
0.0034331332 0.15513398 -0.014675825 0.08523589 0.120708354 0.03786096 0.037626665 0.0696179
0.043476146 0.04439715 0.05044494 0.02159501 -0.024711495 -0.02450763 0.15096892 0.07019638
-0.044066656 0.16727886 -0.015064433 -0.078447066 0.061143797 -0.04040625 -0.09289798 -0.17428419
-0.10851265 -0.013345944 -0.11891324 -0.02733056 0.095302336 -0.13400841 -0.02208193 0.09745744
-0.02434466 -0.021537146 -0.13025226 0.063350335 -0.06926694 -0.15690304 0.12863025 0.08291371
-0.015909167 -0.06759015 -0.06479908 -0.0544602 -0.08286356 -0.059721928 -0.048710164 -0.085474655
-0.0058514993 0.039232917 0.18076609 0.037438285 -0.0022641271 -0.059470505 0.07018105 -0.046669256
0.023356188 0.06503997 0.13056079 -0.0016230859 -0.0077711632 -0.09452545 0.060423173 -0.011574024
-0.10821233 0.004376574 -0.1447524 -0.09269844 -0.13507526 -0.024699524 -0.01287981 -0.04092586
0.009746029 0.011898665 0.018511983 -0.044556875 0.060967743 -0.002394113 0.06560087 0.030702723
0.008328092 -0.005447372 -0.00065481634 0.027150754 0.0139939515 -0.062125538 0.14041838 0.048183125
-0.045395933 0.10514929 -0.01758284 0.07354652 0.029704042 0.0069836485 0.023450796 0.034070738
0.06342571 -0.018834393 0.12777172 0.014529581 -0.006203486 0.07643592 -0.025735192 -0.09093984
0.1297008 -0.012278703 -0.080543086 0.05862508 -0.03800896 -0.057497952 0.053076953 0.03906929
-0.055513557 0.06930613 -0.05526524 0.07598842 0.0018163314 0.019214392 0.04004832 0.03549881
0.0904176 0.045878008 0.060398843 0.04707284 0.18592447 -0.08307286 -0.023605991 0.07530698
-0.07058161 -0.0009832026 -0.06711076 0.027326874 0.10739991 0.07562748 -0.014429014 0.010375975
0.035638686 0.05873646 -0.07364324 -0.23771693 -0.16884595 -0.05306897 0.13310659 -0.15919508
-0.036747374 0.11679028 -0.060902476 0.015666138 0.04375197 0.11567006 0.091985635 0.17316954
-0.0014915066 0.05330881 0.10100977 -0.07526162 0.04346971 0.054774847 0.0097349305 0.024399018
0.06902192 -0.05865236 0.118845865 0.030936915 0.1250411 -0.041279983 -0.022312988 -0.07538781
-0.0012186397 0.051696155 -0.08873358 0.032326017 0.06922414 -0.10741552 -0.0550939 0.041999783
0.08639058 0.05700375 0.044999626 0.030672302 -0.047428105 -0.0110123465 0.0019843993 0.0015261926
-0.044285446 -0.1313974 -0.119469814 0.07025561 -0.07050493 -0.09153436 0.040803317 -0.08396271
-0.03576721 -0.06324468 0.0986709 0.06825012 -0.008668182 -0.007019223 0.010798579 -0.07948222
0.010980874 -0.034295604 -0.04025821 0.0102770245 -0.10009314 -0.21892145 0.07764725 -0.025213704
-0.10291559 0.05735694 -0.02319551 -0.009036185 -0.037110046 -0.04891836 0.16370282 -0.10516998
00000000: aa39 cabd c342 24bd 5644 963a 10eb 2bbd
00000010: ebbf 3ebc 4820 9c3d 0985 41be 6381 83bd
00000020: 1e95 85bb d7c4 713d 1920 553d 7bd9 2d3e
00000030: 6cff bd3a 3095 eabc f33d 85bc b0f5 31bd
00000040: 1a74 4dbd 5d2e 9fbd 130a aa3c 2e32 cf3d
00000050: ffea 583e 1c8c 443d d967 08bd e179 473d
00000060: 8ac0 b83d 558e dd3a da75 4d3d 010c 243d
00000070: 9ce9 1c3d 483a b73d 14ad a93b 287d b2bd
00000080: 9a5e 60bc 795e 843c 3497 703d b984 91bc
00000090: b305 933d d71d b2bc d847 4e3e 0d1f e93c
000000a0: 6bfe 603b 71db 1e3e df72 70bc 2790 ae3d
000000b0: f135 f73d 1814 1b3d 6b1e 1a3d d493 8e3d
000000c0: 0b14 323d c9d9 353d 5a9f 4e3d 05e8 b03c
000000d0: c36f cabc 3ac4 c8bc 9997 1a3e 1fc3 8f3d
000000e0: 3d7f 34bd 264b 2b3e d0d0 76bc dba8 a0bd
000000f0: eb71 7a3d 0681 25bd 4c41 bebd 8e77 32be
00000100: e13b debd f2a8 5abc c988 f3bd 57e4 dfbc
00000110: df2d c33d 8039 09be 2ae5 b4bc c497 c73d
00000120: 746e c7bc ab6e b0bc d960 05be d2bd 813d
00000130: d3db 8dbd 31ab 20be a6b7 033e aace a93d
00000140: f153 82bc b46c 8abd 61b5 84bd a911 5fbd
00000150: 5fb4 a9bd fb9e 74bd 4f84 47bd 560d afbd
00000160: efbd bfbb b2b2 203d bf1a 393e e358 193d
00000170: c061 14bb 5897 73bd 15bb 8f3d 4328 3fbd
00000180: 7a55 bf3c ad33 853d bab1 053e babd d4ba
00000190: 3ea5 febb 8f96 c1bd 4a7e 773d faa0 3dbc
000001a0: 6d9e ddbd 5d69 8f3b f939 14be aed8 bdbd
000001b0: 2b51 0abe a856 cabc d705 53bc e0a1 27bd
000001c0: cfad 1f3c 9ef2 423c 71a6 973c 4581 36bd
000001d0: 50b9 793d 8de6 1cbb c059 863d 4784 fb3c
000001e0: 8d72 083c de7f b2bb fba7 2bba 426b de3c
000001f0: e346 653c 5977 7ebd d6c9 0f3e ab5b 453d
00000200: 16f1 39bd 8358 d73d e309 90bc 8f9f 963d
00000210: e455 f33c 17d7 e43b e21b c03c c28d 0b3d
00000220: 57e5 813d 964a 9abc 97d6 023e 7b0d 6e3c
00000230: 9d46 cbbb 708a 9c3d 9cd2 d2bc ab3e babd
00000240: 49d0 043e 9d2c 49bc c6f3 a4bd da20 703d
00000250: 49af 1bbd f982 6bbd 3867 593d 1f07 203d
00000260: 2f62 63bd 5ff0 8d3d ce5d 62bd d19f 9b3d
00000270: f811 ee3a 8067 9d3c b509 243d 3367 113d
00000280: dd2c b93d 94ea 3b3d c764 773d 73cf 403d
00000290: fc62 3e3e 1b22 aabd 5a61 c1bc 8c3a 9a3d
000002a0: 178d 90bd cede 80ba 5e71 89bd 9cdc df3c
000002b0: 7cf4 db3d 95e2 9a3d ac67 6cbc feff 293c
000002c0: dff9 113d a495 703d 44d2 96bd 116c 73be
000002d0: f4e5 2cbe d95e 59bd 184d 083e 0904 23be
000002e0: 6a84 16bd be2f ef3d e074 79bd 4656 803c
000002f0: 4435 333d 6de4 ec3d f762 bc3d 5b53 313e
00000300: a87e c3ba 575a 5a3d 36de ce3d c422 9abd
00000310: 4b0d 323d 975b 603d 427f 1f3c 73e0 c73c
00000320: 5d5b 8d3d 753d 70bd 7665 f33d 6a6f fd3c
00000330: c60a 003e 3315 29bd bac9 b6bc ed64 9abd
00000340: c3ba 9fba 59bf 533d f4b9 b5bd 4968 043d
00000350: 63c5 8d3d abfc dbbd 24aa 61bd f707 2c3d
00000360: 8bed b03d c47c 693d 8751 383d 7b44 fb3c
00000370: f943 42bd 216d 34bc b20c 023b 870a c83a
00000380: a864 35bd 0a8d 06be 97ac f4bd 2ce2 8f3d
00000390: e464 90bd 5e76 bbbd 6121 273d a4f4 abbd
000003a0: a380 12bd 6d86 81bd f813 ca3d b8c6 8b3d
000003b0: fe04 0ebc 8301 e6bb 86ec 303c 93c7 a2bd
000003c0: 20e9 333c 8c79 0cbd cbe5 24bd f760 283c
000003d0: a2fd ccbd f22c 60be 8505 9f3d f88c cebc
000003e0: 69c5 d2bd 1cef 6a3d 8304 bebc 820c 14bc
000003f0: b400 18bd 9e5e 48bd b6a1 273e 5c63 d7bd

weight f4 [16]
0.9978392 0.9546716 1.0269188 1.0060915 0.88707834 0.91918415 1.0082065 0.9854412
1.0730486 1.0548605 1.0172153 0.92989886 1.0329349 1.0503162 0.9859666 1.0318733
00000000: 6472 7f3f 5c65 743f 1372 833f 9bc7 803f
00000010: 9117 633f a74f 6b3f e90c 813f e045 7c3f
00000020: a859 893f ab05 873f 1c34 823f da0d 6e3f
00000030: 3637 843f c370 863f 4f68 7c3f 6d14 843f

bias f4 [16]
0.16611652 0.01785698 -0.04112203 0.12694474 0.00027858422 -0.02504282 0.10380404 0.032487694
-0.05012651 0.08983375 0.035338305 0.09096817 0.20387815 0.04665647 -0.07901816 0.082597174
00000000: 731a 2a3e cd48 923c 936f 28bd cdfd 013e
00000010: f10e 9239 9a26 cdbc 3697 d43d d111 053d
00000020: 7551 4dbd c2fa b73d e6be 103d 854d ba3d
00000030: 6fc5 503e db1a 3f3d 46d4 a1bd b528 a93d

running_mean f4 [16]
0.5888925 0.61118144 0.33304164 0.40774155 0.6934424 0.5555063 0.55272514 0.5929689
0.6319767 0.5028072 0.47769856 0.47517413 0.77801865 0.44154477 0.36664632 0.6372871
00000000: a9c1 163f 6376 1c3f 6f84 aa3e 80c3 d03e
00000010: 7185 313f a935 0e3f 657f 0d3f cfcc 173f
00000020: 3ac9 213f f9b7 003f e894 f43e 064a f33e
00000030: 3b2c 473f 2812 e23e 11b9 bb3e 3f25 233f

running_var f4 [16]
0.85419345 0.69271207 0.3313362 0.48435935 0.92130303 0.5917684 0.6608147 0.7003766
0.9974297 0.62444615 0.53568894 0.54882646 1.1864715 0.6386783 0.46866733 0.9563234
00000000: 6cac 5a3f 9455 313f e6a4 a93e f3fd f73e
00000010: 84da 6b3f 227e 173f 272b 293f e14b 333f
00000020: 8e57 7f3f b4db 1f3f e922 093f e47f 0c3f
00000030: 4cde 973f 6c80 233f 2af5 ef3e 9cd1 743f

weight f4 [16, 16, 3, 3]
0.0013623604 -0.017340181 -0.03944393 0.009075958 0.04441288 0.0059901327 0.075826585 -0.03872176
-0.09770264 -0.0034535462 -0.027489316 -0.15949759 -0.03190294 -0.04658821 -0.09627581 -0.06328764
-0.030535623 -0.114997506 -0.054164056 -0.00795377 -0.11234134 -0.041167714 -0.06374504 -0.102898635
0.058989543 -0.0022639032 -0.15151235 -0.15245214 -0.092299774 0.031147027 0.049256347 0.027748207
-0.007713972 -0.013719683 0.035250835 0.1147314 -0.101946495 0.033368602 0.08991293 -0.005250201
0.100292206 0.02979254 -0.045441784 -0.018641349 0.00022134845 0.06777459 -0.021710908 0.006795055
0.0073980754 0.03401183 0.03182168 0.037043676 0.024816446 0.046437174 0.029462328 0.0030671244
-0.05131202 0.10349581 0.06834723 0.04443181 0.03127735 0.08641214 -0.024354657 0.11493885
-0.08096365 -0.11175687 0.07631342 0.00281319 -0.02850412 0.015087161 -0.11140324 0.16321355
0.061842106 -0.031458598 -0.09176025 0.047940686 0.033898473 -0.014622905 -0.039319865 -0.08913683
-0.17702854 -0.058399785 0.010731356 0.057280492 0.085543536 0.04556568 0.019966137 0.13731058
0.027335392 0.12706082 -0.10576239 -0.096663564 -0.13061397 0.08066108 -0.029781219 0.015498035
0.030850872 0.037555587 -0.0073667783 0.010406301 0.11314948 0.07888111 -0.11990915 0.0077483146
-0.03809993 -0.02177057 0.023084285 0.07942759 0.08571358 0.015989373 -0.010296454 0.06482573
0.015383777 0.0037887343 0.0066194404 -0.053705312 -0.0048210486 0.23972201 0.124531634 0.107901365
0.022911385 -0.02403941 -0.0072734435 -0.09621599 -0.012520848 0.0076632514 -0.06442847 -0.03551754
0.16847633 -0.031633236 0.04034565 0.1356057 0.004438728 0.07085685 0.19228 -0.02064185
-0.01585232 0.012585193 -0.039612148 0.0074294484 0.01793744 -0.02772236 0.018510807 -0.13094375
0.13948622 0.05320289 0.05223855 0.043303017 -0.0027340478 0.07425347 -0.03627819 -0.03896695
-0.010154146 0.14920825 0.06453951 0.033006337 -0.025012083 0.053818557 0.109386005 0.019749781
-0.05866318 0.034037028 0.096022926 0.06645592 -0.024575096 0.051902402 0.07267783 -0.04220707
-0.12792075 -0.05210797 0.06916269 0.1118492 0.047647603 -0.10315766 0.1436821 0.0025154387
-0.070034154 0.148616 0.11083021 0.0011647084 0.16486298 0.110789575 0.056703944 0.031963173
0.016259706 0.0061256867 0.04254165 0.081252344 0.054285448 -0.10385525 0.022221606 0.058032203
0.014819084 0.03599072 0.029748676 0.120194 0.08569636 0.058877964 0.1222778 0.04320624
0.08699087 0.029418217 -0.0071910364 -0.019555602 -0.022721216 -0.05788879 0.007754664 0.042324588
0.12316227 0.033302248 -0.0037826719 -0.05743562 -0.09028682 -0.06444846 -0.104213156 -0.14525108
0.03825907 0.03098037 0.0021385653 0.06322097 0.002244428 -0.058312036 -0.02661089 0.029880762
-0.079932466 -0.015836908 -0.007406567 0.038354278 -0.12780531 -0.058669496 -0.061906576 0.02003231
-0.032737184 0.022860944 0.09260661 -0.07058474 -0.12171589 0.060942203 -0.008643795 -0.13576154
0.034374468 -0.111630015 -0.15498812 0.0006934406 0.00027864784 0.016199064 0.026961084 0.013195033
-0.021998202 -0.032250855 -0.10570332 -0.0061662397 0.18218055 0.041139767 0.05725339 0.093127556
00000000: 3b91 b23a ff0c 8ebc f58f 21bd 54b3 143c
00000010: 48ea 353d e048 c43b f84a 9b3d b59a 1ebd
00000020: 5218 c8bd e454 62bb 4631 e1bc 5653 23be
00000030: a8ac 02bd 47d3 3ebd 402c c5bd f39c 81bd
00000040: d825 fabc d083 ebbd 21db 5dbd 8850 02bc
00000050: 3713 e6bd 7a9f 28bd c28c 82bd 85bc d2bd
00000060: 059f 713d fe5d 14bb 0e26 1bbe 6a1c 1cbe
00000070: aa07 bdbd 0d28 ff3c 06c1 493d 3550 e33c
00000080: 7dc5 fcbb 85c8 60bc 2e63 103d 4cf8 ea3d
00000090: 53c9 d0bd 84ad 083d 4524 b83d e109 acbb
000000a0: 0066 cd3d 7c0f f43c 2a21 3abd beb5 98bc
000000b0: c619 6839 67cd 8a3d 13db b1bc 0da9 de3b
000000c0: 8e6b f23b fd4f 0b3d 7357 023d 1cbb 173d
000000d0: dc4b cb3c e834 3e3d fb5a f13c cf01 493b
000000e0: 8d2c 52bd 9cf5 d33d a2f9 8b3d 21fe 353d
000000f0: ae1c 003d d9f8 b03d 6b83 c7bc 0f65 eb3d
00000100: 45d0 a5bd c9e0 e4bd 364a 9c3d 7f5d 383b
00000110: 7981 e9bc 2430 773c 6227 e4bd 7421 273e
00000120: 264e 7d3d bbda 00bd ccec bbbd 745d 443d
00000130: 20d9 0a3d e994 6fbc de0d 21bd 5f8d b6bd
00000140: f846 35be 9d34 6fbd 92d2 2f3c f39e 6a3d
00000150: 7331 af3d 14a3 3a3d 0690 a33c 259b 0c3e
00000160: 79ee df3c 3b1c 023e f499 d8bd 8cf7 c5bd
00000170: abbf 05be a331 a53d bef7 f3bc 78eb 7d3c
00000180: f8ba fc3c e3d3 193d 0465 f1bb 317f 2a3c
00000190: eaba e73d 6b8c a13d ee92 f5bd 93e5 fd3b
000001a0: ac0e 1cbd 3258 b2bc 411b bd3c efaa a23d
000001b0: 9a8a af3d 25fc 823c 75b2 28bc 5ac3 843d
000001c0: 3d0c 7c3c 6a4c 783b e4e7 d83b 1afa 5bbd
000001d0: e3f9 9dbb b079 753e 710a ff3d 64fb dc3d
000001e0: a8b0 bb3c 4cee c4bc 1156 eebb e40c c5bd
000001f0: 3e24 4dbc 031c fb3b 13f3 83bd d77a 11bd
00000200: 0f85 2c3e da91 01bd 7b41 253d 38dc 0a3e
00000210: c072 913b 651d 913d 0ce5 443e 1919 a9bc
00000220: b9dc 81bc 2032 4e3c 5940 22bd bb72 f33b
00000230: 8af1 923c 011a e3bc faa3 973c 1e16 06be
00000240: 7ad5 0e3e 46eb 593d 17f8 553d 815e 313d
00000250: b62d 33bb 3412 983d 7098 14bd cf9b 1fbd
00000260: 935d 26bc 0cca 183e 4a2d 843d a731 073d
00000270: 24e6 ccbc d970 5c3d c505 e03d 4bca a13c
00000280: cd48 70bd 696a 0b3d aba7 c43d 0b1a 883d
00000290: b651 c9bc 9d97 543d 1dd8 943d 52e1 2cbd
000002a0: a8fd 02be 2b6f 55bd 2ba5 8d3d 3211 e53d
000002b0: 222a 433d 5344 d3bd 6721 133e 0fda 243b
000002c0: 116e 8fbd cb2e 183e f3fa e23d 21a9 983a
000002d0: d7d1 283e a5e5 e23d 6542 683d d1eb 023d
000002e0: 1333 853c fcb9 c83b 2740 2e3d a167 a63d
000002f0: 6b5a 5e3d 10b2 d4bd 160a b63c 2db3 6d3d
00000300: becb 723c 016b 133d 7fb3 f33c 4628 f63d
00000310: 9381 af3d 052a 713d c96c fa3d 07f9 303d
00000320: 4528 b23d 79fe f03c c9a2 ebbb 1233 a0bc
00000330: d821 babc cc1c 6dbd d61a fe3b 8c5c 2d3d
00000340: 803c fc3d f067 083d b4e6 77bb 9d41 6bbd
00000350: 4ce8 b8bd 8efd 83bd b56d d5bd b3bc 14be
00000360: 8bb5 1c3d 8bca fd3c 2c27 0c3b ff79 813d
00000370: 4117 133b 9ad8 6ebd 15ff d9bc 80c8 f43c
00000380: a2b3 a3bd 67bc 81bc cab2 f2bb 6019 1d3d
00000390: 65df 02be 6d4f 70bd c091 7dbd cd1a a43c
000003a0: 6d17 06bd e046 bb3c 89a8 bd3d bb8e 90bd
000003b0: 2e46 f9bd 889e 793d b49e 0dbc 1305 0bbe
000003c0: 3ecc 0c3d 479e e4bd 35b5 1ebe 03c8 353a
000003d0: 7b17 9239 e6b3 843c 7edd dc3c fb2f 583c
000003e0: 9335 b4bc 7919 04bd fb7a d8bd 2b0e cabb
000003f0: 8a8d 3a3e 2c82 283d 8882 6a3d a9b9 be3d

weight f4 [16]
0.9701761 0.9463444 1.018404 1.0593362 0.9649484 1.019542 0.9695925 0.91310793
1.0003844 0.9700253 0.95054805 1.0570211 0.935345 1.0086684 0.9911736 0.96414185
00000000: 765d 783f a043 723f 105b 823f 5498 873f
00000010: dc06 773f 5a80 823f 3737 783f 71c1 693f
00000020: 990c 803f 9453 783f 1e57 733f 784c 873f
00000030: c572 6f3f 0c1c 813f 8ebd 7d3f 00d2 763f

bias f4 [16]
-0.037912194 0.11020083 0.061200686 -0.018004797 -0.17462014 -0.16605105 0.14294097 -0.114914
-0.23325495 0.13693763 -0.3091779 -0.25413087 -0.2985385 0.121024035 -0.32700813 0.25208563
00000000: d149 1bbd f9b0 e13d 92ad 7a3d cc7e 93bc
00000010: 9fcf 32be 4909 2abe 1e5f 123e 0858 ebbd
00000020: 63da 6ebe 6139 0c3e 914c 9ebe 711d 82be
00000030: 0ada 98be 73db f73d 9c6d a7be 5e11 813e

running_mean f4 [16]
0.6163545 0.87112045 0.48356065 0.5146998 0.34440893 0.46243322 0.50564724 0.34893584
0.8496299 0.63373655 0.33446014 0.46241364 0.34552366 0.5814092 0.48686323 0.40467167
00000000: 69c9 1d3f c001 5f3f 4395 f73e 5ec3 033f
00000010: 5e56 b03e 0cc4 ec3e 1972 013f b8a7 b23e
00000020: 5881 593f 8f3c 223f 5c3e ab3e 7bc1 ec3e
00000030: 7ae8 b03e 3cd7 143f 2346 f93e 2031 cf3e

running_var f4 [16]
0.94778794 1.222197 0.59145314 0.8034712 0.3642481 0.68679976 0.67699295 0.40174162
1.0212655 1.0112749 0.39009634 0.6900801 0.35308135 0.70154023 0.6803806 0.47616875
00000000: 3ba2 723f f470 9c3f 7969 173f 4ab0 4d3f
00000010: ba7e ba3e 1cd2 2f3f 694f 2d3f 14b1 cd3e
00000020: d4b8 823f 7571 813f b5ba c73e 17a9 303f
00000030: 14c7 b43e 2498 333f 6c2d 2e3f 64cc f33e
