mlruns/271458266826723899/models/m-d115b9b9e3774176adb373c2bd9b3400/artifacts/data/model.pth (torch, 47877 bytes, 35 tensors)

weight f4 [10, 1, 3, 3]
-0.5043 -0.38974118 -0.40215218 0.03268725 0.3131957 -0.42406753 0.07881765 0.14261329
0.059081685 -0.46400654 -0.094667435 0.10761408 -0.3315523 -0.019339163 0.45749986 -0.055893984
0.17947748 0.43404993 0.058331054 0.09506734 -0.24820402 0.14228909 0.100760065 -0.30178908
-0.28805816 -0.360329 -0.17869899 -0.021141779 0.28274372 0.54821616 -0.3271798 0.004837337
0.23518442 -0.42256576 -0.3775523 0.31837696 -0.08394458 0.044302676 -0.3289986 0.0026865655
-0.31245616 0.03933359 -0.41403928 0.054930456 0.22355106 -0.3036836 0.049356293 0.14326751
-0.3323222 0.124325916 0.089507565 -0.1850193 -0.27190042 -0.41848508 0.33507305 -0.118985206
-0.09927513 -0.337639 0.2078931 -0.29723135 -0.31012994 0.10437086 -0.077123895 0.48681656
0.07819578 0.46465132 0.1706187 0.031140637 -0.0775447 -0.16158116 -0.21653776 -0.084225185
0.32037058 0.2250235 0.12086077 -0.15832013 0.2429791 -0.122477725 -0.5951901 -0.29590687
-0.12559913 0.16017807 -0.09979054 -0.27582577 -0.12808602 -0.5690489 0.14193706 0.074805155
0.23544842 0.5084544
00000000: ce19 01bf 288c c7be e4e6 cdbe 11e3 053d
00000010: 305b a03e 611f d9be 266b a13d 3809 123e
00000020: a3ff 713d 4492 edbe 00e1 c1bd c564 dc3d
00000030: 39c1 a9be 2a6d 9ebc 6c3d ea3e 17f1 64bd
00000040: f2c8 373e cb3b de3e 8bec 6e3d aab2 c23d
00000050: 3229 7ebe 3bb4 113e 4b5b ce3d 1984 9abe
00000060: 5c7c 93be 0b7d b8be defc 36be 8631 adbc
00000070: c9c3 903e e557 0c3f 1c84 a7be 8682 9e3b
00000080: 2fd4 703e 8a5a d8be 894e c1be 4e02 a33e
00000090: 23eb abbd b976 353d 8172 a8be 1711 303b
000000a0: 41fa 9fbe 421c 213d f5fc d3be c2fe 603d
000000b0: 92ea 643e 6b7c 9bbe d329 4a3d b8b4 123e
000000c0: 2326 aabe 969e fe3d be4f b73d b375 3dbe
000000d0: 8836 8bbe ad43 d6be b28e ab3e 84ae f3bd
000000e0: c250 cbbd 05df acbe eee1 543e b52e 98be
000000f0: 5ac9 9ebe 64c0 d53d 22f3 9dbd 0540 f93e
00000100: 1c25 a03d c7e6 ed3e abb6 2e3e a61a ff3c
00000110: c1cf 9ebd 8875 25be 13bc 5dbe 417e acbd
00000120: 9d07 a43e 8f6c 663e da85 f73d ac1e 22be
00000130: 83cf 783e 9ad5 fabd 615e 18bf 1b81 97be
00000140: 0f9d 00be b805 243e fc5e ccbd 0939 8dbe
00000150: fb28 03be 30ad 11bf f357 113e 7233 993d
00000160: 6419 713e 112a 023f

weight f4 [10]
1.2650388 0.8459207 1.1994193 0.7858149 1.1950603 1.2844366 0.93838936 0.5785263
0.96725017 0.80805576
00000000: cbec a13f 428e 583f 9286 993f 2a2b 493f
00000010: bcf7 983f 6b68 a43f 493a 703f 4d1a 143f
00000020: b59d 773f bedc 4e3f

bias f4 [10]
-0.022050215 0.037200246 0.103674084 0.08488666 0.053074285 0.025577096 -0.14961292 -0.16593376
0.038869448 -0.055244885
00000000: a7a2 b4bc 495f 183d 1453 d43d 0fd9 ad3d
00000010: 6c64 593d 0f87 d13c 2134 19be 8aea 29be
00000020: 9235 1f3d 7648 62bd

running_mean f4 [10]
-0.0675609 0.015961379 -0.062664986 0.014715263 -0.05095821 -0.069189444 -0.036292788 0.04353232
-0.024537645 0.00046494047
00000000: 5e5d 8abd 70c1 823c 8056 80bd 4918 713c
00000010: 8eb9 50bd 32b3 8dbd bfa7 14bd f24e 323d
00000020: 2c03 c9bc 41c3 f339

running_var f4 [10]
1.2546133 1.1056935 0.9685729 0.91888934 0.6604034 0.99060273 0.3428212 0.7789819
0.6692504 0.42166716
00000000: 2b97 a03f 5d87 8d3f 65f4 773f 553c 6b3f
00000010: 3210 293f 2498 7d3f 4386 af3e 5c6b 473f
00000020: ff53 2b3f c2e4 d73e

weight f4 [10, 10, 3, 3]
-0.07612887 -0.026607046 0.15685394 -0.11916041 -0.08410811 0.099288225 -0.04550915 -0.12615241
0.059618857 -0.08141148 -0.080840275 -0.22465327 -0.09760722 0.03542418 -0.062110335 0.043013286
0.09755626 0.1821262 -0.018735869 -0.18267252 -0.09125526 0.021216266 -0.08516629 -0.062042035
-0.056285422 0.018950356 0.09626228 0.18893732 -0.16341147 -0.13832034 0.08390213 0.051377926
-0.04690341 0.119965 0.027703227 0.20417695 -0.033310436 -0.1515022 -0.12036363 0.13251056
-0.10167959 -0.06485241 -0.045379575 -0.029351665 -0.100385696 -0.02539255 -0.096015126 0.11330986
0.00346456 -0.04164072 -0.04948648 -0.12680462 -0.0060837497 0.027024472 0.02136168 0.023848526
-0.10780709 -0.07604257 0.089803174 0.06372872 -0.07066232 0.07668961 0.105011165 0.08090922
-0.099998266 -0.19934984 0.19240135 -0.034946367 0.07885862 -0.008151404 0.04246052 -0.009125114
0.12998615 -0.055722773 -0.17485277 0.025911678 -0.083444476 -0.06804766 -0.018059075 -0.09776905
-0.22076347 -0.21189761 -0.100615926 -0.06180436 -0.069410704 -0.10159976 -0.20974977 0.002022208
-0.08999898 -0.058052763 0.020075211 -0.0703883 0.032559346 0.00018404263 -0.08139126 -0.09470741
0.009887176 0.06981211 -0.100081265 0.061221555 0.09493746 0.14893535 0.038672652 0.15923771
0.17189528 -0.256754 -0.1612031 -0.1331946 -0.12978302 -0.073125504 0.0011851912 0.046606436
0.10842445 0.016371593 0.0663518 0.16992076 0.09366461 -0.11014274 -0.040034905 -0.051330056
0.16617313 0.13939513 0.0030910438 0.2513951 -0.046271134 -0.035815973 0.07980254 -0.007860989
0.005761664 0.11436553 0.067699395 -0.051991142 0.05162032 -0.02788826 0.0422434 0.24017854
-0.091566205 -0.061810847 0.061071645 0.043542616 -0.076499134 0.38364747 0.17462818 0.36669758
-0.045632422 -0.021828601 -0.046175085 -0.0044400548 -0.06691259 -0.001507756 0.030170498 0.0899701
-0.028272694 -0.21823746 -0.042114906 0.032754768 -0.21303937 -0.003931092 0.019510005 -0.23938729
-0.11427896 -0.068692476 -0.20037434 -0.094095446 -0.008657718 -0.11304774 -0.031442717 0.0026348385
-0.056131184 -0.011974959 0.14177653 -0.1642223 -0.10033361 0.1747383 -0.1396477 0.05173324
0.17005818 -0.17755459 -0.25253552 -0.20212393 0.42234156 0.22517367 0.2977543 0.098913714
0.024899969 0.0877717 -0.03907517 -0.07966047 -0.09686384 -0.20831493 -0.34651446 -0.32471132
0.07437832 -0.023626007 -0.36776122 0.21244383 0.19769268 -0.1232262 -0.14411819 -0.053854503
0.009207787 -0.13621841 -0.1317811 -0.0139642395 -0.28526276 -0.26326492 -0.017190052 -0.09599984
-0.10648053 0.14495714 -0.1589038 -0.111353986 0.16206299 0.12393164 0.14276464 0.027143862
0.037460737 0.0015638479 0.029836696 -0.08214395 -0.0014444762 -0.123376556 0.092044525 -0.051963214
0.00029027948 -0.020196082 0.04100008 -0.11633997 -0.07704413 0.09341026 0.072891474 -0.22076865
0.027758472 0.17242971 -0.021967784 -0.029497433 0.100677595 0.015970098 -0.027037723 -0.04845298
0.08807616 0.14971775 0.011840078 -0.037085734 -0.04304861 -0.04588931 0.078520015 -0.13797663
-0.16932788 0.15468869 0.04563199 -0.10817767 -0.03726294 0.08576634 0.08915545 -0.044507794
00000000: 74e9 9bbd 05f7 d9bc 529e 203e 5f0a f4bd
00000010: df40 acbd a057 cb3d cd67 3abd 192e 01be
00000020: e732 743d 10bb a6bd 968f a5bd 820b 66be
00000030: 4be6 c7bd f218 113d 6867 7ebd b32e 303d
00000040: 94cb c73d 4a7f 3a3e f77b 99bc 810e 3bbe
00000050: 0ae4 babd bccd ad3c aa6b aebd ca1f 7ebd
00000060: 8b8b 66bd c73d 9b3c 2925 c53d c978 413e
00000070: 5655 27be d9a3 0dbe e1d4 ab3d a971 523d
00000080: ca1d 40bd 36b0 f53d e1f1 e23c c313 513e
00000090: 8670 08bd 6523 1bbe 3581 f6bd d9b0 073e
000000a0: 643d d0bd 57d1 84bd efdf 39bd e772 f0bc
000000b0: 0497 cdbd 0904 d0bc 94a3 c4bd 000f e83d
000000c0: ac0d 633b 768f 2abd 56b2 4abd 12d9 01be
000000d0: 315a c7bb 6d62 dd3c b1fe ae3c fc5d c33c
000000e0: f7c9 dcbd 35bc 9bbd baea b73d 3484 823d
000000f0: 68b7 90bd 710f 9d3d 1810 d73d bcb3 a53d
00000100: e4cb ccbd 5d22 4cbe dc04 453e ec23 0fbd
00000110: a180 a13d 778d 05bc 15eb 2d3d 8181 15bc
00000120: 171b 053e 903d 64bd 9b0c 33be ba44 d43c
00000130: f0e4 aabd 925c 8bbd a0f0 93bc 243b c8bd
00000140: d20f 62be b0fb 58be b90f cebd 9226 7dbd
00000150: 3327 8ebd 8913 d0bd a5c8 56be 0587 043b
00000160: 6351 b8bd bcc8 6dbd c574 a43c be27 90bd
00000170: f35c 053d 91fb 4039 76b0 a6bd f5f5 c1bd
00000180: d2fd 213c a7f9 8e3d 68f7 ccbd 74c3 7a3d
00000190: 926e c23d 8282 183e 3767 1e3d 360f 233e
000001a0: 5105 303e 4375 83be 6d12 25be 2a64 08be
000001b0: d7e5 04be d3c2 95bd 6b58 9b3a 64e6 3e3d
000001c0: a30d de3d b81d 863c 74e3 873d b5ff 2d3e
000001d0: 3bd3 bf3d 8492 e1bd a4fb 23bd 773f 52bd
000001e0: 4a29 2a3e 99bd 0e3e 1c93 4a3b dcb6 803e
000001f0: cd86 3dbd c5b3 12bd 846f a33d 61cb 00bc
00000200: 57cc bc3b 7a38 ea3d fba5 8a3d aaf4 54bd
00000210: d46f 533d ec75 e4bc 6a07 2d3d 5df1 753e
00000220: 1087 bbbd 5f2d 7dbd 4326 7a3d be59 323d
00000230: 94ab 9cbd 716d c43e bbd1 323e c9bf bb3e
00000240: 10e9 3abd e5d1 b2bc 1622 3dbd e17d 91bb
00000250: 7809 89bd e59f c5ba 1f28 f73c 3e42 b83d
00000260: 239c e7bc a479 5fbe ae80 2cbd dd29 063d
00000270: fe26 5abe 64d0 80bb 72d3 9f3c f121 75be
00000280: 160b eabd a4ae 8cbd ee2e 4dbe 1db5 c0bd
00000290: 1ad9 0dbc 9385 e7bd 14ca 00bd 41ad 2c3b
000002a0: d0e9 65bd 9e32 44bc de2d 113e e429 28be
000002b0: b57b cdbd 99ee 323e cfff 0ebe 3ce6 533d
000002c0: bb23 2e3e dfd0 35be 564c 81be 93f9 4ebe
000002d0: 273d d83e ed93 663e 4073 983e 4693 ca3d
000002e0: 05fb cb3c a6c1 b33d 490d 20bd 0725 a3bd
000002f0: 8d60 c6bd 8250 55be 586a b1be 9040 a6be
00000300: a953 983d 548b c1bc 334b bcbe e08a 593e
00000310: f36f 4a3e 055e fcbd b893 13be 8a96 5cbd
00000320: 42dc 163c d77c 0bbe a0f1 06be 44ca 64bc
00000330: f60d 92be a9ca 86be 27d2 8cbc 909b c4bd
00000340: 7712 dabd a56f 143e aeb7 22be 8f0d e4bd
00000350: d7f3 253e dfcf fd3d e530 123e ce5c de3c
00000360: 6e70 193d 07fa cc3a 166c f43c 163b a8bd
00000370: 9454 bdba d9ac fcbd d781 bc3d 61d7 54bd
00000380: a730 9839 4172 a5bc b3ef 273d a643 eebd
00000390: 50c9 9dbd e14d bf3d 2048 953d 2d11 62be
000003a0: bc65 e33c 6a91 303e c8f5 b3bc 9aa4 f1bc
000003b0: 0e30 ce3d b9d3 823c 377e ddbc a276 46bd
000003c0: 4661 b43d 9c4f 193e e3fc 413c 36e7 17bd
000003d0: bd53 30bd 6ef6 3bbd 1acf a03d bf49 0dbe
000003e0: 4a64 2dbe b666 1e3e 9ce8 3a3d 418c ddbd
000003f0: 06a1 18bd 43a6 af3d 2297 b63d ce4d 36bd

weight f4 [10]
0.84251 1.1750581 1.2069739 1.1308094 0.83776754 0.8906975 1.0374243 0.7750294
0.9618249 1.1189932
00000000: bcae 573f 4e68 963f 1f7e 9a3f 5dbe 903f
00000010: ef77 563f c004 643f 52ca 843f 5468 463f
00000020: 283a 763f 2b3b 8f3f

bias f4 [10]
-0.15603848 0.07396066 -0.007811928 0.06400461 0.11075553 0.01247125 0.14072806 -0.035698477
0.10055625 0.012323683
00000000: 8dc8 1fbe b078 973d 34fb ffbb d914 833d
00000010: ccd3 e23d 3754 4c3c 041b 103e 9138 12bd
00000020: 6ff0 cd3d 46e9 493c

running_mean f4 [10]
-0.8754887 0.35224783 -0.5695805 0.18480502 0.7437542 -0.0028701886 0.050932415 -1.6813042
-0.25970888 -0.124828644
00000000: 0720 60bf d459 b43e 07d0 11bf 873d 3d3e
00000010: ad66 3e3f c619 3cbb 829e 503d fa34 d7bf
00000020: 90f8 84be 29a6 ffbd

running_var f4 [10]
0.22239752 0.62093866 0.43963933 0.36726907 0.49140722 0.536136 0.6055128 0.301674
0.54317963 0.6187097
00000000: 2dbc 633e d6f5 1e3f 6818 e13e b10a bc3e
00000010: ba99 fb3e 3540 093f e302 1b3f 0475 9a3e
00000020: d20d 0b3f c263 1e3f

weight f4 [20, 10, 3, 3]
0.123557776 -0.10484192 -0.19402361 0.060389813 0.14025173 0.124704875 -0.097270474 0.056931954
0.2431712 0.018809298 0.006659289 0.008086698 -0.031806737 -0.0076652486 0.036010817 -0.13261175
0.058886692 -0.00044036852 -0.027882446 -0.04711821 -0.030670559 -0.013393491 -0.05430769 0.047619574
-0.00627428 -0.006649676 0.028752305 -0.04289892 -0.040267166 0.00766676 0.063596524 0.06849369
0.106387295 0.04015746 0.04900003 0.09098542 -0.09031398 -0.003577458 -0.16141483 -0.10102961
-0.03849638 -0.14022635 -0.27203652 -0.22272915 -0.17090905 0.061831944 0.020280307 0.13086034
-0.07729652 0.027772643 -0.0293499 -0.07846742 0.045535713 0.06815587 -0.021299634 -0.021645349
0.08573148 0.07221089 0.13034858 -0.0023649766 -0.030764122 0.13386483 0.01752362 0.08934437
0.0042897267 0.07909046 0.036456503 0.071887515 -0.015337613 -0.12922731 -0.081508994 0.083350524
0.11635856 0.07306351 0.16007712 -0.014001174 0.0067973905 0.123943344 -0.07110267 -0.00095590774
0.12032788 0.100267395 -0.14124092 0.02600941 -0.006468287 -0.06004336 -0.08840371 -0.07034307
-0.079752825 -0.044676382 -0.10373218 -0.046530277 0.14795983 -0.14660123 -0.073729314 0.0948924
0.000661357 -0.095358625 0.1547415 -0.21189198 -0.009361453 -0.045455765 0.06825837 -0.019460158
-0.019838987 -0.06643764 -0.08867875 -0.057055406 -0.16370791 -0.14844388 -0.11781932 -0.08514468
-0.073993415 -0.06784883 -0.020450998 0.010178197 -0.052031823 0.057615366 -0.012924108 -0.119465604
0.05916597 0.019866407 -0.038991082 -0.070831746 0.048379723 0.04488694 -0.08522798 0.002306958
-0.025555236 -0.073924996 0.010307962 -0.07032772 -0.12226842 -0.16577512 -0.19182666 0.16295779
-0.015709506 -0.044960346 0.0756933 -0.01894701 0.03878967 -0.03191907 0.06491787 -0.003335048
0.045006745 0.0087988265 -0.18205641 -0.01173433 -0.039635133 -0.07750999 -0.2303972 0.014774658
-0.019220665 0.044663835 0.019694144 0.18574779 -0.18470693 0.022712506 0.08158099 -0.14458808
-0.10167533 0.09725931 0.08577316 0.0048265834 -0.11509636 0.1316162 0.061725978 -0.039622154
0.047421325 0.08874825 -0.12680808 0.1537012 0.10372782 -0.054364797 0.01652119 0.06402641
0.0038862042 -0.03955736 -0.041301 0.10151842 -0.0740971 -0.11399945 -0.044495907 -0.12064732
-0.11810145 -0.07106577 0.01810924 0.119845964 0.0344482 0.19131084 0.091328286 -0.09418058
0.03616781 0.08951081 0.0460674 0.050237235 -0.11111777 -0.13167292 0.18079025 0.048452217
0.08801353 0.052104317 0.07057399 0.008779372 0.025436006 0.09030589 0.008296127 0.024442725
0.029380772 0.11036464 0.20357883 0.1137959 0.037517976 0.1399105 0.096421346 -0.042524178
-0.032975942 -0.047496468 0.02625031 0.09246271 0.07558413 0.017529245 0.09829195 0.04385969
0.017613016 -0.09037366 0.007854181 -0.017181609 -0.06577874 -0.038025048 -0.12781955 0.02312987
0.0065558827 -0.03304887 0.14108928 0.011013298 0.12299609 0.026271384 0.026655737 0.015529469
0.028508022 0.101769514 -0.11107296 -0.1626411 -0.03838884 -0.020542972 -0.04284893 0.10984476
0.0060428893 0.006198389 0.07840786 -0.022146735 0.050047096 0.01009349 -0.015203032 -0.0063948114
00000000: dc0b fd3d 5cb7 d6bd 20ae 46be 4f5b 773d
00000010: 269e 0f3e 4565 ff3d be35 c7bd 7b31 693d
00000020: df01 793e f515 9a3c 2a36 da3b 127e 043c
00000030: c847 02bd c42c fbbb 1480 133d 60cb 07be
00000040: 2c33 713d 43e1 e6b9 ba69 e4bc 06ff 40bd
00000050: d340 fbbc 5f70 5bbc be71 5ebd be0c 433d
00000060: 7a98 cdbb 86e5 d9bb f489 eb3c c7b6 2fbd
00000070: 2fef 24bd 7239 fb3b e53e 823d 6b46 8c3d
00000080: 95e1 d93d 267c 243d 41b4 483d 9056 ba3d
00000090: 89f6 b8bd c973 6abb ee49 25be 9de8 cebd
000000a0: 61ae 1dbd 7f97 0fbe 5f48 8bbe 1c13 64be
000000b0: c802 2fbe 7e43 7d3d e322 a63c 4100 063e
000000c0: a34d 9ebd 7483 e33c 346f f0bc 87b3 a0bd
000000d0: a883 3a3d 4e95 8b3d 927c aebc 9651 b1bc
000000e0: fc93 af3d 4ee3 933d 197a 053e b9fd 1abb
000000f0: 0a05 fcbc dd13 093e b28d 8f3c 2efa b63d
00000100: d690 8c3b 2efa a13d 6a53 153d c339 933d
00000110: 9d4a 7bbc 2a54 04be 30ee a6bd aeb3 aa3d
00000120: 664d ee3d 52a2 953d 42eb 233e 2e65 65bc
00000130: a5bc de3b 02d6 fd3d 479e 91bd e295 7aba
00000140: 776e f63d fe58 cd3d 76a1 10be b011 d53c
00000150: edf3 d3bb 07f0 75bd 010d b5bd 0710 90bd
00000160: 7355 a3bd 95fe 36bd 8a71 d4bd 8896 3ebd
00000170: c882 173e a21e 16be 65ff 96bd f256 c23d
00000180: eb5e 2d3a 624b c3bd 8e74 1e3e 36fa 58be
00000190: c860 19bc d32f 3abd 0bcb 8b3d e96a 9fbc
000001a0: 5f85 a2bc 7510 88bd 349d b5bd eeb2 69bd
000001b0: 0ca3 27be ac01 18be 414b f1bd 5660 aebd
000001c0: dc89 97bd 54f4 8abd da88 a7bc 74c2 263c
000001d0: 521f 55bd 17fe 6b3d a3bf 53bc 62aa f4bd
000001e0: 0458 723d e0be a23c 1db5 1fbd 3c10 91bd
000001f0: d129 463d 5edb 373d 028c aebd 5530 173b
00000200: 3759 d1bc fd65 97bd bae2 283c fb07 90bd
00000210: de67 fabd f4c0 29be 356e 44be 68de 263e
00000220: 39b1 80bc 5728 38bd 1705 9b3d c336 9bbc
00000230: ebe1 1e3d 92bd 02bd a9f3 843d d290 5abb
00000240: fe58 383d f428 103c ff6c 3abe 5941 40bc
00000250: 7358 22bd 8fbd 9ebd 3eed 6bbe 6811 723c
00000260: a874 9dbc 6df1 363d 9d55 a13c ab34 3e3e
00000270: d023 3dbe 940f ba3c ef13 a73d e60e 14be
00000280: 283b d0bd e42f c73d d7a9 af3d 5128 9e3b
00000290: a4b7 ebbd 66c6 063e 61d4 7c3d d74a 22bd
000002a0: dd3c 423d a4c1 b53d fad9 01be d963 1d3e
000002b0: 406f d43d 9fad 5ebd 7257 873c 4720 833d
000002c0: b0af 7e3b e606 22bd 3d2b 29bd e4e8 cf3d
000002d0: 38c0 97bd 8b78 e9bd 5741 36bd f115 f7bd
000002e0: 2cdf f1bd ee8a 91bd d459 943c cd71 f53d
000002f0: 8e19 0d3d fde6 433e 530a bb3d bfe1 c0bd
00000300: b324 143d 7251 b73d 2cb1 3c3d 8fc5 4d3d
00000310: b791 e3bd 44d5 06be 1421 393e d575 463d
00000320: 7040 b43d 566b 553d 1989 903d 5bd7 0f3c
00000330: 2c5f d03c 4bf2 b83d 7bec 073c 1c3c c83c
00000340: f2af f03c db06 e23d f876 503e d30d e93d
00000350: 73ac 193d b344 0f3e 8e78 c53d d52d 2ebd
00000360: c811 07bd a88b 42bd e40a d73c 175d bd3d
00000370: dacb 9a3d 7e99 8f3c 4a4d c93d 38a6 333d
00000380: 2c49 903c d315 b9bd d3ae 003c 72c0 8cbc
00000390: 01b7 86bd 27c0 1bbd 21e3 02be da7a bd3c
000003a0: bbd2 d63b 405e 07bd b579 103e 1f71 343c
000003b0: 60e5 fb3d 1637 d73c 225d da3c 506f 7e3c
000003c0: a889 e93c 896c d03d 387a e3bd 638b 26be
000003d0: 9e3d 1dbd bc49 a8bc 5c82 2fbd 4af6 e03d
000003e0: 6e03 c63b db1b cb3b 4d94 a03d 126d b5bc
000003f0: 2ffe 4c3d 2a5f 253c 2316 79bc 918b d1bb

weight f4 [20]
0.9005364 0.89393115 0.9573799 0.9274763 1.0075849 0.95552444 0.9840842 0.97098744
1.0396901 0.97662157 0.9004341 1.0567448 0.9687783 0.9831511 0.9584218 1.0957819
0.9917288 1.05225 1.0857323 0.98735183
00000000: 8e89 663f acd8 643f d916 753f 166f 6d3f
00000010: 8bf8 803f 409d 743f f1ec 7b3f a292 783f
00000020: 9114 853f df03 7a3f d982 663f 6a43 873f
00000030: db01 783f caaf 7b3f 225b 753f 9542 8c3f
00000040: f0e1 7d3f 21b0 863f 47f9 8a3f 17c3 7c3f

bias f4 [20]
-0.2087148 -0.053226545 -0.05716461 -0.2814134 -0.082754724 -0.2515239 -0.21687764 -0.30700505
-0.18688177 -0.007966124 -0.12312388 -0.12102417 -0.05221017 0.0013271215 -0.07166055 -0.24486959
-0.19699793 -0.07244424 -0.3710927 -0.121213205
00000000: 55b9 55be 1404 5abd 7025 6abd 6b15 90be
00000010: 4f7b a9bd bec7 80be 2c15 5ebe c42f 9dbe
00000020: ef5d 3fbe 5984 02bc 5f28 fcbd 85db f7bd
00000030: 55da 55bd cff2 ad3a c4c2 92bd 18bf 7abe
00000040: d3b9 49be a55d 94bd ddff bdbe a13e f8bd

running_mean f4 [20]
0.05731803 -0.7721671 0.64868 -0.49070236 -0.032835852 0.0135447895 0.20999464 -0.45359167
0.03117257 -0.25823998 0.067001976 -0.47031674 -0.5130893 -0.11446335 -0.005549678 -0.7263462
-0.7847072 0.061044168 -0.24239542 -0.38483745
00000000: 50c6 6a3d beac 45bf e40f 263f 573d fbbe
00000010: e37e 06bd f7ea 5d3c d608 573e 2b3d e8be
00000020: 9e5d ff3c 0838 84be 5538 893d 5bcd f0be
00000030: d259 03bf c36b eabd 13da b5bb d3f1 39bf
00000040: 92e2 48bf 7309 7a3d 8136 78be 6a09 c5be

running_var f4 [20]
0.5241337 0.30464455 0.52929777 0.30948177 0.29147637 0.40941164 0.49795482 0.5359448
0.49951336 0.39810812 0.34173343 0.45718592 0.46060625 0.7509285 0.3799042 0.52653146
0.40605173 0.42265385 0.5266714 0.40809754
00000000: a02d 063f 5ffa 9b3e 0f80 073f 6574 9e3e
00000010: 643c 953e 679e d13e eff3 fe3e ae33 093f
00000020: 37c0 ff3e d4d4 cb3e aff7 ae3e 4614 ea3e
00000030: 95d4 eb3e da3c 403f ce82 c23e c4ca 063f
00000040: 03e6 cf3e 1666 d83e f0d3 063f 29f2 d03e

weight f4 [10, 20, 1, 1]
-0.11684967 0.10096626 0.0035374437 0.23808199 -0.34013802 -0.0077567534 0.2808476 -0.17208414
0.26643303 -0.3174893 -0.11636115 0.077645905 0.17855427 0.043762714 -0.0041152076 -0.3570267
0.060538203 0.22134091 -0.10576791 0.054575562 -0.011473952 0.07386751 -0.14224212 -0.033389825
0.20081872 -0.055388283 0.14947674 -0.011907002 0.038994145 -0.0611182 0.08174025 -0.20163101
-0.27521607 -0.29236063 -0.1932173 -0.124912165 -0.2900903 -0.22942509 -0.1918858 -0.102670915
-0.123950645 0.2004666 -0.08392012 0.14163786 -0.03838654 0.34442466 0.011625401 0.18136877
-0.1718787 0.14221783 0.07480353 -0.33527908 -0.09902166 -0.0671365 -0.067474864 0.0686627
0.24188691 -0.2884677 -0.2988025 -0.0808807 -0.025427291 -0.09218748 0.16677274 -0.06010024
-0.086493924 -0.22760442 0.11357065 0.077074006 0.11797089 0.026588287 0.13464715 -0.1761484
-0.12783985 -0.05693608 -0.13504915 -0.28187546 -0.113854624 -0.4341771 0.13469866 0.017550582
-0.024280792 -0.116424434 -0.13661337 0.0803459 0.11525453 0.029592559 0.020715376 0.25807124
0.06667341 0.07163192 0.13201247 0.18818279 0.11224022 -0.12903145 -0.37199298 -0.04269498
-0.34837624 -0.10379158 -0.1657263 -0.19059251 -0.27131563 -0.31199482 0.1591442 0.056862716
-0.110376135 -0.109350696 0.27992946 0.058744017 0.14705044 -0.066907674 -0.066465154 -0.05667752
0.1950319 -0.31868216 0.115276724 0.21493681 -0.19631082 0.1145088 -0.008439085 -0.025253233
0.17822586 -0.006825996 0.21196061 0.18037848 -0.28311515 -0.16537945 0.12813054 0.36779147
0.36476573 -0.07207159 -0.33925226 -0.090934426 0.042438608 -0.02958954 -0.26949584 0.2340417
-0.050921958 0.24917808 -0.21054022 -0.057173442 -0.171785 -0.15458663 -0.05511612 0.12340248
-0.078106724 -0.16293736 0.06353375 -0.0769195 -0.18585546 0.007719927 -0.006335814 -0.24241187
0.24656934 0.27484253 -0.06651028 0.4793678 0.32670903 0.05372388 0.00096132775 -0.115787916
0.27871776 0.15071945 -0.29322678 0.23869333 0.18594007 0.24548727 -0.21614881 0.3659294
0.08820591 0.20527045 -0.07233757 -0.096069776 0.1846024 -0.026605336 -0.2762901 -0.043920804
0.04369095 -0.014242783 0.47301835 0.1363232 0.015847577 0.035604037 -0.03572426 0.2731228
-0.010912738 0.18341129 0.2044905 0.09703804 0.123130195 -0.046633486 0.24173121 0.39381626
-0.13823265 0.09945674 -0.049992513 0.0252216 0.19404066 0.19959854 0.17220914 0.47185767
00000000: e14e efbd 66c7 ce3d 75d4 673b c4cb 733e
00000010: 9226 aebe 5d2c febb 42cb 8f3e d336 30be
00000020: e969 883e f58d a2be c14e eebd d104 9f3d
00000030: eed6 363e 8840 333d ddd8 86bb 34cc b6be
00000040: e8f6 773d 31a7 623e d99c d8bd a08a 5f3d
00000050: 3efd 3bbc d947 973d eba7 11be c5c3 08bd
00000060: 6ca3 4d3e d3de 62bd 6e10 193e 9615 43bc
00000070: 53b8 1f3d 1457 7abd 6f67 a73d 5c78 4ebe
00000080: 1fe9 8cbe 4bb0 95be c2da 45be f3d1 ffbd
00000090: b786 94be 69ee 6abe b67d 44be 2145 d2bd
000000a0: d6d9 fdbd 1e47 4d3e 50de abbd 8409 113e
000000b0: 343b 1dbd 6e58 b03e 7778 3e3c bcb8 393e
000000c0: f800 30be 8da1 113e 9832 993d b3a9 abbe
000000d0: decb cabd dc7e 89bd 4330 8abd 089f 8c3d
000000e0: 34b1 773e 0ab2 93be a4fc 98be c8a4 a5bd
000000f0: e54c d0bc cacc bcbd 79c6 2a3e ab2b 76bd
00000100: ba23 b1bd 2211 69be bb97 e83d fad8 9d3d
00000110: b99a f13d aecf d93c f1e0 093e 3f60 34be
00000120: 73e8 02be cf35 69bd 534a 0abe fb51 90be
00000130: 9d2c e9bd 764c debe 72ee 093e 3dc6 8f3c
00000140: 83e8 c6bc ef6f eebd 60e4 0bbe 648c a43d
00000150: 910a ec3d 186c f23c 4bb3 a93c ea21 843e
00000160: 128c 883d c2b3 923d 472e 073e fdb2 403e
00000170: 33de e53d d220 04be dd75 bebe eee0 2ebd
00000180: 5f5e b2be ae90 d4bd 28b4 29be af2a 43be
00000190: e2e9 8abe c9bd 9fbe b2f6 223e e1e8 683d
000001a0: e20c e2bd 42f3 dfbd ea52 8f3e 919d 703d
000001b0: 6494 163e e406 89bd e21e 88bd b026 68bd
000001c0: 71b6 473e 4f2a a3be 3416 ec3d 6518 5c3e
000001d0: b405 49be 9783 ea3d 1744 0abc dedf cebc
000001e0: d780 363e 9bac dfbb 340c 593e 23b5 383e
000001f0: 78f4 90be 3b59 29be a734 033e 2a4f bc3e
00000200: 93c2 ba3e 459a 93bd 79b2 adbe d43b babd
00000210: 1bd4 2d3d c365 f2bc 5cfb 89be a1a8 6f3e
00000220: 8b93 50bd 8a28 7f3e db97 57be b32e 6abd
00000230: 68e8 2fbe f54b 1ebe 71c1 61bd 70ba fc3d
00000240: 6bf6 9fbd 0dd9 26be fc1d 823d f987 9dbd
00000250: e550 3ebe 71f7 fc3b a99c cfbb d13a 78be
00000260: ac7c 7c3e 29b8 8c3e 8b36 88bd b26f f53e
00000270: 6846 a73e 920d 5c3d 9d01 7c3a 3722 edbd
00000280: 18b4 8e3e 3356 1a3e d221 96be 066c 743e
00000290: 1367 3e3e 0461 7b3e 1d56 5dbe 195b bb3e
000002a0: 4da5 b43d 6b32 523e b825 94bd 3bc0 c4bd
000002b0: 6908 3d3e 6ff3 d9bc e575 8dbe 4de6 33bd
000002c0: 48f5 323d 905a 69bc 762f f23e 4f98 0b3e
000002d0: c7d2 813c 8ad5 113d 9a53 12bd c0d6 8b3e
000002e0: 57cb 32bc 2bd0 3b3e f565 513e e1bb c63d
000002f0: af2b fc3d c102 3fbd 6388 773e 49a2 c93e
00000300: dc8c 0dbe faaf cb3d f3c4 4cbd 879d ce3c
00000310: 98b2 463e 8f63 4c3e 9857 303e 5497 f13e

weight f4 [10]
1.0560877 1.1626824 0.84812397 1.1439307 1.0383093 1.070041 0.96613467 0.8790541
0.91611385 0.80664307
00000000: e22d 873f c7d2 943f a71e 593f 526c 923f
00000010: 52e7 843f 1af7 883f 9a54 773f b109 613f
00000020: 7086 6a3f 2980 4e3f

bias f4 [10]
-0.024600178 -0.06352633 0.06668824 0.026652848 0.16325852 0.18585396 0.16225842 0.19913106
0.004804614 0.39705732
00000000: 5086 c9bc 181a 82bd d893 883d 1357 da3c
00000010: 3e2d 273e 8050 3e3e 1227 263e 03e9 4b3e
00000020: 0670 9d3b 194b cb3e

running_mean f4 [10]
0.01598865 -1.0010995 -0.15919049 -0.64588434 -0.40023014 -0.15169701 0.060963567 0.20869587
0.64811397 1.2777379
00000000: a1fa 823c 0724 80bf d502 23be ad58 25bf
00000010: f7ea ccbe 7656 1bbe efb4 793d 5fb4 553e
00000020: ccea 253f ea8c a33f

running_var f4 [10]
0.77550846 0.9584372 0.786416 0.68555903 0.56730807 0.82937187 0.7189821 0.74922174
0.6972415 1.0173522
00000000: b987 463f 245c 753f 8f52 493f cc80 2f3f
00000010: 1a3b 113f b751 543f 360f 383f ffcc 3f3f
00000020: 6b7e 323f 9938 823f

weight f4 [10, 10, 3, 3]
0.2812615 0.06281387 0.2633896 -0.046864793 -0.048287723 0.11384475 -0.24315825 -0.14447875
-0.15913074 -0.034805294 0.13999607 0.3188938 0.019445818 0.13102427 0.24315804 0.04953466
-0.0077227047 0.07839027 0.09303947 0.14662717 -0.061096407 0.059118204 0.048905037 -0.033895347
-0.058706418 0.002917676 0.015577557 0.207527 0.09558621 0.031139206 -0.0024651901 -0.032158118
-0.07603928 -0.039797176 -0.06041599 0.04880831 -0.048925556 -0.02790583 -0.07014201 0.041857164
-0.05666894 -0.055996124 -0.064188994 -0.037084207 0.11760975 0.17324705 0.06934801 0.22539292
-0.0053226384 0.0009155339 0.05586381 -0.18589573 -0.16604689 -0.085113585 0.0680914 -0.061685104
-0.19785853 0.105816476 -0.03506744 0.1012319 -0.18351208 -0.009024002 0.07718309 -0.078976944
-0.14397869 -0.15971953 0.008750288 0.011504484 -0.038507786 0.17947264 0.10169569 0.18266584
-0.08569405 -0.029728416 -0.07645093 -0.26594585 -0.10642259 -0.015150977 -0.17294414 0.06975251
0.028370155 0.1007196 -0.08016228 0.20018664 0.03852276 -0.034995917 -0.0069777225 -0.12716861
-0.09697988 -0.07560786 0.21965681 -0.018440446 0.07923953 0.03895679 0.035314497 0.18442084
0.078065895 0.12073142 0.18557486 0.12833858 0.035633147 0.033535253 0.028000662 -0.011468512
-0.008454563 0.05337033 0.016037315 0.09690784 0.01726739 0.023090351 0.16122271 -0.038112696
0.020979187 0.080136016 -0.043229178 -0.011757866 0.01888524 0.01992565 -0.017148908 0.09591528
0.009259778 0.0045806114 0.07443832 0.036669716 0.2072582 0.12097201 -0.00881249 0.0017348
0.13384764 -0.026135655 -0.06480527 -0.042003408 -0.0033848656 -0.05517495 -0.02428084 0.207968
0.059460927 -0.024125086 -0.036649186 -0.053523675 -0.07908465 -0.039532214 -0.07868047 -0.20654209
-0.17700924 -0.14058563 -0.209236 -0.04040392 -0.07314804 -0.15724275 0.008385453 -0.06414909
-0.23110633 0.024064131 0.058317866 -0.080273785 0.09753492 0.03835311 -0.12416241 0.15259464
0.020574378 -0.1359775 -0.06097894 -0.081634216 -0.08064856 -0.039852276 -0.054276552 -0.02682174
-0.066733845 0.017060935 -0.06013574 -0.3455348 -0.037574522 -0.2052085 -0.14625902 0.051936455
-0.09950308 -0.107979 0.036859795 -0.10153739 -0.00014042816 -0.0020945414 0.24714367 0.045972962
0.04030065 0.225697 -0.006726088 0.013048381 0.117302895 0.03011765 0.1857153 0.20707579
0.06142381 0.08626091 0.019336112 0.11267214 -0.039846655 -0.29979444 -0.0085851485 0.03293237
0.2681115 0.051555708 0.038454525 0.14945288 -0.19960578 0.09547355 0.1759848 -0.24416454
-0.08837286 0.013096292 -0.096908115 -0.003820907 -0.12523647 0.0072368816 -0.029332284 -0.3753255
-0.21194297 -0.16577058 -0.1383096 -0.12716003 -0.06783287 -0.11890001 0.09774129 0.18497449
0.23894745 -0.1268861 -0.06482863 0.07075872 0.034100115 -0.022761796 0.014025364 -0.021263119
-0.030242316 0.0797918 -0.14065053 0.045290455 -0.1991807 -0.18309982 -0.024461498 -0.27257627
-0.25354624 -0.17381236 -0.32960305 -0.017221395 0.013797409 0.017054657 0.029953867 0.022495354
-0.07492607 0.17424598 0.17087992 0.008781045 0.045463353 0.029738799 0.019812323 0.0122765675
00000000: 8201 903e 8fa4 803d 00db 863e 4cf5 3fbd
00000010: 59c9 45bd 7027 e93d 7afe 78be 3df2 13be
00000020: 2bf3 22be ff8f 0ebd 215b 0f3e 0c46 a33e
00000030: d64c 9f3c 3a2b 063e 6cfe 783e dbe4 4a3d
00000040: be0e fdbb 148b a03d 7a8b be3d 6f25 163e
00000050: 3a40 7abd ee25 723d a650 483d d9d5 0abd
00000060: 2476 70bd 7b36 3f3b 0239 7f3c f581 543e
00000070: b4c2 c33d a617 ff3c 078f 21bb 3bb8 03bd
00000080: 7bba 9bbd 5d02 23bd c276 77bd 39eb 473d
00000090: 2a66 48bd c49a e4bc 9da6 8fbd 6b72 2b3d
000000a0: b11d 68bd 315c 65bd 8575 83bd 9ce5 17bd
000000b0: 61dd f03d ad67 313e 5406 8e3d 67cd 663e
000000c0: 8769 aebb 7100 703a 73d1 643d 735b 3ebe
000000d0: 3208 2abe 0850 aebd 8173 8b3d 85a9 7cbd
000000e0: 6d9b 4abe 4fb6 d83d e0a2 0fbd ac52 cf3d
000000f0: 97ea 3bbe 68d9 13bc 2b12 9e3d aabe a1bd
00000100: 266f 13be 848d 23be 5e5d 0f3c 4e7d 3c3c
00000110: 57ba 1dbd adc7 373e d445 d03d c10c 3b3e
00000120: 5d80 afbd 0289 f3bc 4e92 9cbd 0e2a 88be
00000130: 16f4 d9bd ce3b 78bc 4518 31be 67da 8e3d
00000140: 8768 e83c 1446 ce3d 1f2c a4bd bafd 4c3e
00000150: 0bca 1d3d e157 0fbd 61a5 e4bb 7d38 02be
00000160: 639d c6bd 4bd8 9abd b7ed 603e 6b10 97bc
00000170: 5648 a23d 2891 1f3d efa5 103d d1d8 3c3e
00000180: 03e1 9f3d 0942 f73d 5607 3e3e 306b 033e
00000190: 10f4 113d 435c 093d a561 e53c 6de6 3bbc
000001a0: 0285 0abc d99a 5a3d b060 833c 9e77 c63d
000001b0: 5774 8d3c fa27 bd3c 9117 253e 0f1c 1cbd
000001c0: 8bdc ab3c 5a1e a43d 1411 31bd 10a4 40bc
000001d0: 38b5 9a3c 1e3b a33c de7b 8cbc 3b6f c43d
000001e0: 53b6 173c f418 963b 1e73 983d fc32 163d
000001f0: 7e3b 543e 2cc0 f73d 4362 10bc 3b62 e33a
00000200: 5b0f 093e 711a d6bc a0b8 84bd c40b 2cbd
00000210: 9fd4 5dbb 21ff 61bd 9de8 c6bc 90f5 543e
00000220: 4d8d 733d f9a1 c5bc 751d 16bd a43b 5bbd
00000230: 22f7 a1bd 88ec 21bd 3a23 a1bd c57f 53be
00000240: e941 35be aef5 0fbe f641 56be 957e 25bd
00000250: a4ce 95bd 3e04 21be 2463 093c 9960 83bd
00000260: 23a7 6cbe 2422 c53c b7de 6e3d 9566 a4bd
00000270: 63c0 c73d 2718 1d3d dd48 febd c541 1c3e
00000280: 998b a83c b03d 0bbe 0ec5 79bd d72f a7bd
00000290: 122b a5bd 243c 23bd 1751 5ebd 44b9 dbbc
000002a0: c1ab 88bd 60c3 8b3c e550 76bd f0e9 b0be
000002b0: bee7 19bd 2d22 52be edc4 15be 52bb 543d
000002c0: 45c8 cbbd 1824 ddbd 4cfa 163d d6f2 cfbd
000002d0: e63f 13b9 9344 09bb 3b13 7d3e 254e 3c3d
000002e0: 4b12 253d 1d1d 673e 8466 dcbb e0c8 553c
000002f0: 803c f03d 4ab9 f63c 272c 3e3e ad0b 543e
00000300: 8897 7b3d 8fa9 b03d c466 9e3c a7c0 e63d
00000310: 3f36 23bd a87e 99be b9a8 0cbc 18e4 063d
00000320: e945 893e 142c 533d 7e82 1d3d 2d0a 193e
00000330: 7565 4cbe a387 c33d 5c35 343e 4506 7abe
00000340: d4fc b4bd d491 563c c377 c6bd 2f68 7abb
00000350: fd3d 00be 5d23 ed3b 424a f0bc aa2a c0be
00000360: 9407 59be c3bf 29be 08a1 0dbe 3d36 02be
00000370: f6eb 8abd d981 f3bd 962c c83d f469 3d3e
00000380: a4ae 743e 6eee 01be dfc4 84bd f3e9 903d
00000390: 90ac 0b3d f276 babc a4ca 653c fe2f aebc
000003a0: bcbe f7bc e269 a33d b106 10be 7c82 393d
000003b0: 07f6 4bbe 857e 3bbe 7b63 c8bc 1e8f 8bbe
000003c0: d0d0 81be defb 31be bbc1 a8be e213 8dbc
000003d0: 870e 623c 35b6 8b3c d061 f53c 2d48 b83c
000003e0: d772 99bd 8a6d 323e 25fb 2e3e 5fde 0f3c
000003f0: c837 3a3d c89e f33c 744d a23c a823 493c

weight f4 [10]
1.0859125 1.0054598 0.8313159 0.8376025 1.0746847 1.1034482 0.90717334 1.0794618
1.1420372 0.7250809
00000000: 2eff 8a3f e8b2 803f 1ed1 543f 1e6d 563f
00000010: 458f 893f ca3d 8d3f 833c 683f ce2b 8a3f
00000020: 462e 923f e79e 393f

bias f4 [10]
0.014135497 0.15698653 0.30379048 0.25816604 -0.13218936 0.2734592 0.20139815 0.03963976
-0.2356446 0.2933612
00000000: 9298 673c 14c1 203e 6d8a 9b3e 572e 843e
00000010: a65c 07be d802 8c3e 513b 4e3e 4d5d 223d
00000020: d14c 71be 7033 963e

running_mean f4 [10]
-0.023606228 -0.45681798 -0.4914693 0.7973479 -1.5309318 -0.5722456 -0.704658 -0.9099647
-1.33651 -0.14013033
00000000: d961 c1bc 0ce4 e9be dda1 fbbe fe1e 4c3f
00000010: 93f5 c3bf b07e 12bf 7764 34bf 72f3 68bf
00000020: c212 abbf 537e 0fbe

running_var f4 [10]
1.0523999 0.63427895 0.6283163 0.7784381 0.97284204 1.125057 1.2431965 0.88920987
0.88139236 0.73493445
00000000: 0ab5 863f 1b60 223f 56d9 203f b847 473f
00000010: 2d0c 793f de01 903f 1021 9f3f 42a3 633f
00000020: eea2 613f aa24 3c3f

weight f4 [20, 10, 3, 3]
-0.15478861 -0.15240622 -0.32405844 -0.053339045 -0.047847506 -0.07652945 0.008883675 0.027994664
-0.050032176 0.22669613 0.11058999 -0.11927256 -0.00634906 0.074187696 -0.09234462 -0.032457378
0.09308765 0.0769384 -0.21478428 -0.10739927 -0.20930102 -0.0011728294 0.0071604364 -0.14039868
-0.11768527 -0.123352274 -0.35770425 -0.13613316 -0.045987874 -0.055157866 0.023106135 0.01971903
0.010113274 0.07476782 0.06821643 -0.083249256 -0.1924062 -0.11034671 -0.24267991 -0.07036394
-0.023238657 -0.13485506 -0.113294125 -0.107131466 -0.14961907 -0.06209697 -0.071258694 -0.05084982
-0.06995973 -0.027866285 -0.062049337 -0.0854409 -0.06434275 -0.001040088 -0.018263523 0.041597847
0.05234663 -0.01587903 0.08799286 0.08685611 -0.13242722 -0.04480797 -0.18114695 0.0051111025
0.056855734 0.18284841 0.0045467755 0.005884626 0.0148706315 -0.04003249 0.0043882704 -0.1308148
-0.13971035 -0.094832376 -0.25014842 -0.06493823 0.029199636 0.15486944 -0.05889515 0.06196825
0.042182438 -0.086130306 0.03516842 0.05757434 -0.05629688 -0.032806125 -0.061888434 -0.037837643
-0.074281946 -0.19504379 0.18323451 0.005788203 0.2050215 0.120529234 -0.06367715 0.13376333
0.23729736 0.083886504 0.15975152 -0.025004784 0.051420163 0.13822338 0.08943043 0.13299918
0.09394977 -0.16982533 -0.117919266 -0.29417446 -0.06911573 0.05219068 0.092811845 -0.03612116
0.0063710185 0.070981696 -0.11497638 -0.013862475 0.010305407 -0.05551888 -0.021841174 -0.023165789
0.05189128 0.03397683 -0.046858203 -0.0053279474 -0.027849112 -0.15966645 0.10329761 0.09637107
0.32709906 -0.05225623 -0.09744763 0.0063184435 -0.046526123 -0.078221954 0.028115187 -0.005147118
-0.024887118 0.021068146 -0.0064277635 0.028419364 -0.10673652 -0.11768278 -0.15064342 -0.38417614
-0.12288749 -0.1357862 -0.045878552 0.12828201 0.026885225 0.21886598 0.20846613 0.029599657
0.006011687 -0.21236299 -0.09142374 -0.0313073 -0.1356702 -0.034129206 -0.027972065 -0.11612081
0.06770008 0.2958076 -0.063379034 0.01721294 0.121273115 0.03963373 -0.015067796 0.043802965
-0.06560016 -0.098101854 -0.076550476 -0.008351121 0.044265643 -0.05592935 0.022252169 0.011936221
0.08525321 0.005684286 -0.0032503265 0.11309004 0.0039049909 0.019442428 -0.119404584 -0.011690702
0.027694693 -0.1250136 0.017692897 0.008929795 -0.1047382 0.08391563 0.04954965 0.08303972
-0.06683425 -0.043702047 -0.0058005084 -0.06399755 -0.05288652 -0.04642914 0.021323655 0.002242251
0.08184075 0.06713528 0.0336724 0.086572506 0.044203088 -0.007774277 -0.011206826 -0.049963385
-0.057661064 -0.087952964 0.034402326 0.04674922 0.013581872 0.010245907 0.011721074 -0.022879582
0.03058963 -0.011187026 -0.0072852294 0.091851816 0.09382812 -0.0035738791 0.021523692 0.006532702
-0.0867449 -0.048602972 0.010338428 0.06325934 -0.07500249 0.0055095395 0.13268434 -0.051931635
0.028488893 -0.025635634 0.067349 0.12031602 0.058717865 -0.045339048 -0.08409841 -0.04945457
-0.22727597 -0.1558786 -0.32154232 0.17533043 0.1333997 0.20189919 0.13287412 0.028069366
0.021634053 0.1909433 0.07072363 0.09973222 -0.08859304 -0.02043249 -0.0069343126 -0.12339188
00000000: e880 1ebe 6010 1cbe fdea a5be 0b7a 5abd
00000010: bffb 43bd 79bb 9cbd d58c 113c 1155 e53c
00000020: 8aee 4cbd 0823 683e 017d e23d 2c45 f4bd
00000030: c70b d0bb b8ef 973d 2d1f bdbd 07f2 04bd
00000040: bda4 be3d e191 9d3d 69f0 5bbe 26f4 dbbd
00000050: 0253 56be a0b9 99ba 18a2 ea3b acc4 0fbe
00000060: fa04 f1bd 1ea0 fcbd 0325 b7be 7e66 0bbe
00000070: c85d 3cbd 37ed 61bd 1449 bd3c ce89 a13c
00000080: 25b2 253c df1f 993d 0eb5 8b3d 967e aabd
00000090: 2206 45be 75fd e1bd 1581 78be f81a 90bd
000000a0: ff5e bebc 7217 0abe c006 e8bd be67 dbbd
000000b0: be35 19be 6459 7ebd 14f0 91bd e747 50bd
000000c0: 0c47 8fbd d647 e4bc 7227 7ebd a3fb aebd
000000d0: 22c6 83bd 9053 88ba 629d 95bc 8162 2a3d
000000e0: 6b69 563d bd14 82bc 9a35 b43d 9ee1 b13d
000000f0: 009b 07be 9088 37bd 967e 39be 097b a73b
00000100: 8fe1 683d 9d3c 3b3e 1efd 943b d2d3 c03b
00000110: f3a3 733c 1cf9 23bd 7bcb 8f3b 51f4 05be
00000120: 3b10 0fbe 7a37 c2bd 7413 80be 56fe 84bd
00000130: 1334 ef3c 1896 1e3e 0a3c 71bd 6bd2 7d3d
00000140: 7ec7 2c3d 1665 b0bd c30c 103d 12d3 6b3d
00000150: 8f97 66bd b75f 06bd ba7e 7dbd a5fb 1abd
00000160: 2221 98bd 8fb9 47be d4a1 3b3e f7aa bd3b
00000170: 28f1 513e 08d8 f63d 2a69 82bd 41f9 083e
00000180: 14fe 723e b0cc ab3d e795 233e d5d6 ccbc
00000190: f39d 523d 6e8a 0d3e 4d27 b73d f030 083e
000001a0: bd68 c03d b1e6 2dbe a87f f1bd 099e 96be
000001b0: 8c8c 8dbd e5c5 553d 2314 be3d c8f3 13bd
000001c0: fac3 d03b da5e 913d bc78 ebbd 6f1f 63bc
000001d0: 03d8 283c c467 63bd 43ec b2bc 2ec6 bdbc
000001e0: f38b 543d 4a2b 0b3d 63ee 3fbd 1096 aebb
000001f0: d223 e4bc 9a7f 23be b38d d33d 325e c53d
00000200: 8779 a73e a10a 56bd 9f92 c7bd f20a cf3b
00000210: 2d92 3ebd d532 a0bd d251 e63c 28a9 a8bb
00000220: 12e0 cbbc 1b97 ac3c fd9f d2bb bacf e83c
00000230: ad98 dabd ab03 f1bd 4542 1abe bcb2 c4be
00000240: 70ac fbbd 8a0b 0bbe 26eb 3bbd 5c5c 033e
00000250: 673e dc3c 671e 603e 2578 553e fb7a f23c
00000260: b0fd c43b af75 59be 5f3c bbbd 153c 00bd
00000270: 21ed 0abe 11cb 0bbd ac25 e5bc bfd0 edbd
00000280: 57a6 8a3d 1874 973e decc 81bd 2702 8d3c
00000290: 0a5e f83d fa56 223d ebde 76bc bd6a 333d
000002a0: 6059 86bd a0e9 c8bd 7fc6 9cbd 24d3 08bc
000002b0: e44f 353d 2d16 65bd 2e4a b63c 2490 433c
000002c0: 3c99 ae3d 3f43 ba3b 6e03 55bb c09b e73d
000002d0: e0ea 7f3b ba45 9f3c 648a f4bd 5c8a 3fbc
000002e0: fbdf e23c 9103 00be b2f0 903c 464e 123c
000002f0: fb80 d6bd f5db ab3d 93f4 4a3d bb10 aa3d
00000300: 65e0 88bd eb00 33bd 3112 bebb 2611 83bd
00000310: 899f 58bd 7b2c 3ebd f2ae ae3c bbf2 123b
00000320: 209c a73d 397e 893d 12ec 093d ed4c b13d
00000330: 4c0e 353d 5dbf febb d69c 37bc 68a6 4cbd
00000340: 022e 6cbd af20 b4bd 74e9 0c3d 1c7c 3f3d
00000350: 8086 5e3c 73de 273c bf09 403c f66d bbbc
00000360: 1b97 fa3c ca49 37bc efb8 eebb ce1c bc3d
00000370: f528 c03d be37 6abb 7452 b03c 4710 d63b
00000380: 4fa7 b1bd e913 47bd 8362 293c 1d8e 813d
00000390: e89a 99bd 5e89 b43b 67de 073e 44b6 54bd
000003a0: 8a61 e93c d201 d2bc 46ee 893d 3f68 f63d
000003b0: 2582 703d 70b5 39bd ca3b acbd e090 4abd
000003c0: 08bb 68be a49e 1fbe 32a1 a4be d289 333e
000003d0: ee99 083e a9be 4e3e 2710 083e baf1 e53c
000003e0: e639 b13c a486 433e 8dd7 903d 6840 cc3d
000003f0: 4570 b5bd 0a62 a7bc 3b39 e3bb e2b4 fcbd

weight f4 [20]
0.8888369 0.887381 0.8562593 0.82815087 0.8773623 0.82555866 0.86588144 0.9205533
0.7766189 0.8647386 0.8196439 0.89927703 0.8137694 0.8478575 0.8295931 0.8024735
0.74440813 0.8713252 0.8154734 0.83332705
00000000: d18a 633f 672b 633f cf33 5b3f b201 543f
00000010: d19a 603f d057 533f 68aa 5d3f 62a9 6b3f
00000020: 7fd0 463f 825f 5d3f 2fd4 513f 0537 663f
00000030: 3153 503f 300d 593f 3760 543f e76e 4d3f
00000040: 8891 3e3f 2b0f 5f3f ddc2 503f ec54 553f

bias f4 [20]
-0.6818751 -0.5873067 -0.46306255 -0.40268993 -0.60315806 -0.6704872 -0.27230567 -0.34346953
-0.6459253 -0.6003086 -0.38120332 -0.3519472 -0.5635082 -0.55351657 -0.60944754 -0.6422127
-0.70501 -0.24891837 -0.60788786 -0.5630969
00000000: 5e8f 2ebf bb59 16bf 8916 edbe 602d cebe
00000010: 9168 1abf 0da5 2bbf a66b 8bbe 3ddb afbe
00000020: 5c5b 25bf d3ad 19bf 152d c3be 6c32 b4be
00000030: 1342 10bf 43b3 0dbf c104 1cbf 0d68 24bf
00000040: 897b 34bf 75e4 7ebe 8a9e 1bbf 1e27 10bf

running_mean f4 [20]
-2.0475516 0.056132335 -0.20081562 -0.8535598 -0.3353104 0.21559817 0.4331699 -0.87057114
-0.25985208 -0.32957518 -0.07026643 0.05183219 -0.90335536 0.118883714 -0.7158559 -0.87431383
-0.16300505 0.12933917 0.12433416 -0.08534145
00000000: 160b 03c0 05eb 653d 9ca2 4dbe e582 5abf
00000010: cead abbe c4c5 5c3e 72c8 dd3e c0dd 5ebf
00000020: 550b 85be 14be a8be d9e7 8fbd fe4d 543d
00000030: 4c42 67bf 4e79 f33d 5542 37bf 08d3 5fbf
00000040: ccea 26be 7d71 043e e8a2 fe3d 80c7 aebd

running_var f4 [20]
0.46871322 0.30016607 0.22589335 0.30396762 0.4109797 0.21226686 0.46509337 0.30749694
0.20562619 0.2570642 0.18129773 0.18872407 0.23821309 0.2214465 0.23116171 0.26687595
0.24994098 0.34564427 0.3117879 0.2319492
00000000: 2efb ef3e 5eaf 993e 9650 673e a5a1 9b3e
00000010: ee6b d23e 7c5c 593e b820 ee3e 3d70 9d3e
00000020: ac8f 523e eb9d 833e 1da6 393e e240 413e
00000030: 22ee 733e dfc2 623e a8b5 6c3e f7a3 883e
00000040: 87f0 7f3e 49f8 b03e aaa2 9f3e 1784 6d3e

weight f4 [10, 20, 1, 1]
-0.024041621 -0.021278804 -0.02262454 -0.0053265444 -0.024594303 -0.012231287 -0.013035659 -0.0147888055
-0.08250316 -0.015549328 -0.006948733 -0.0153191285 0.41079226 -0.023050334 -0.02798555 -0.02487287
0.52085173 -0.0063364897 0.05373236 -0.016185734 -0.033911478 0.096872464 -0.007669445 -0.020712491
-0.054583192 -0.073613465 0.15327267 -0.013453798 -0.028316574 -0.032705206 -0.04008939 -0.014938863
-0.020254841 -0.042774968 -0.039273098 -0.021659939 -0.06952692 0.1056127 -0.10833167 0.39524102
-0.046894345 0.5471362 -0.015082425 -0.028895957 -0.061097287 -0.095656015 -0.0681734 -0.08866481
-0.032260474 0.01670489 0.34002733 -0.03707189 -0.08254331 -0.056671236 -0.04803626 -0.058609065
-0.116805285 -0.04796422 -0.04890903 0.023482094 -0.1860758 -0.0029857936 -0.030605659 -0.025023023
-0.0664787 -0.0729079 -0.022413127 0.39114016 -0.043262705 0.5082555 -0.037210792 0.039401874
-0.05207398 -0.012680192 -0.05028313 -0.00024710115 0.0029295771 -0.021512391 -0.038839955 -0.011334552
-0.0062781842 -0.0124803865 0.43419126 -0.03211437 0.26432937 -0.007031721 -0.035173856 -0.03212638
-0.027676601 -0.033625796 -0.064694844 -0.006807132 -0.025416952 0.44385692 -0.06546324 0.022099111
-0.05951724 0.023732752 -0.09333341 -0.041717056 0.6713121 -0.046888754 -0.024926566 -0.02604058
-0.018615322 -0.0012087836 -0.03651132 0.1757439 0.042668473 -0.12854339 -0.016558746 -0.034704823
-0.04507143 -0.012248767 -0.031692993 -0.023941513 -0.017918918 -0.041582283 -0.042024657 -0.008119267
-0.025296574 0.003383846 -0.032355506 -0.017789867 -0.008421053 -0.0030767287 -0.035488438 -0.01706774
0.4554454 -0.0023241166 -0.0040641804 -0.0077773286 -0.014261719 0.0042179814 -0.019595778 -0.01497633
-0.0033930931 0.066794306 0.48765948 -0.045986407 0.009557539 -0.1067516 0.027712533 -0.007258603
-0.09283502 0.5797834 0.06180349 -0.077442035 -0.011019947 -0.014772003 0.12510836 0.3661747
0.011899163 -0.043788325 -0.0162234 0.017094234 -0.044206113 -0.06919503 -0.025039302 -0.034482677
-0.111386046 -2.4989673e-05 -0.045421176 0.37337488 -0.08613145 -0.033978533 -0.023404503 -0.033563603
-0.0010349464 -0.018563474 -0.053036656 -0.026623856 -0.039171237 0.028998066 0.0018998524 0.51239634
-0.0333526 -0.03493157 -0.07588704 -0.018459033 -0.032027494 -0.04115702 -0.04577718 -0.035890754
0.49744245 -0.009366534 0.0048892274 -0.02451123 -0.07196245 -0.019737525 -0.039692868 -0.04331404
0.027476452 -0.037713956 0.47940302 -0.106501885 -0.036979288 -0.023726426 0.002379014 -0.063402526
00000000: eff2 c4bc e350 aebc 1957 b9bc 4b8a aebb
00000010: fe79 c9bc bc65 48bc 8493 55bc bf4c 72bc
00000020: 6bf7 a8bd 9cc2 7ebc 32b2 e3bb 15fd 7abc
00000030: 5d53 d23e 0ed4 bcbc f441 e5bc 30c2 cbbc
00000040: 8a56 053f 54a2 cfbb 7716 5c3d f297 84bc
00000050: c3e6 0abd 1265 c63d f84f fbbb 3ead a9bc
00000060: a092 5fbd a8c2 96bd 83f3 1c3e 526d 5cbc
00000070: 29f8 e7bc e5f5 05bd c634 24bd 22c2 74bc
00000080: 7bed a5bc ce34 2fbd d4dc 20bd 2f70 b1bc
00000090: 2164 8ebd 794b d83d ffdc ddbd 085d ca3e
000000a0: 4914 40bd 1e11 0c3f 471c 77bc 37b7 ecbc
000000b0: 2641 7abd 4de7 c3bd 7f9e 8bbd e595 b5bd
000000c0: 8f23 04bd b2d8 883c 1018 ae3e b2d8 17bd
000000d0: 780c a9bd 1920 68bd abc1 44bd 0f10 70bd
000000e0: 9c37 efbd 2176 44bd d654 48bd 855d c03c
000000f0: a88a 3ebe 4ead 43bb b8b8 fabc 15fd ccbc
00000100: fc25 88bd bd50 95bd bc9b b7bc 8643 c83e
00000110: 3c34 31bd 081d 023f 586a 18bd dc63 213d
00000120: 874b 55bd 94c0 4fbc aff5 4dbd 5b8d 81b9
00000130: 26fe 3f3b c13a b0bc a516 1fbd 8fb4 39bc
00000140: 3ab9 cdbb 897a 4cbc 514e de3e 5c8a 03bd
00000150: 2e56 873e 5a6a e6bb 7612 10bd f396 03bd
00000160: 0aba e2bc 34bb 09bd bb7e 84bd 5d0e dfbb
00000170: 3637 d0bc 3741 e33e 9711 86bd 3209 b53c
00000180: 59c8 73bd 306b c23c 9625 bfbd 81df 2abd
00000190: 1cdb 2b3f 6c0e 40bd cc32 ccbc 0e53 d5bc
000001a0: 297f 98bc 0c70 9eba e58c 15bd 35f6 333e
000001b0: 23c5 2e3d e1a0 03be 35a6 87bc a526 0ebd
000001c0: d29c 38bd 0daf 48bc 83d0 01bd fe20 c4bc
000001d0: b2ca 92bc 2f52 2abd 0c22 2cbd ad06 05bc
000001e0: c33a cfbc 84c3 5d3b 3587 04bd 0ebc 91bc
000001f0: 75f8 09bc f1a2 49bb 535c 11bd a5d1 8bbc
00000200: 2430 e93e 3550 18bb d12c 85bb f6d8 febb
00000210: fca9 69bc fe36 8a3b 5387 a0bc 485f 75bc
00000220: a85e 5ebb 74cb 883d 81ae f93e 3e5c 3cbd
00000230: 3997 1c3c 95a0 dabd 6505 e33c 93d9 edbb
00000240: 4920 bebd af6c 143f a825 7d3d ee99 9ebd
00000250: 028d 34bc 4506 72bc 681c 003e 407b bb3e
00000260: b5f4 423c 635b 33bd f0e6 84bc 3509 8c3c
00000270: 7811 35bd 20b6 8dbd 391f cdbc b53d 0dbd
00000280: 5e1e e4bd eaa0 d1b7 8e0b 3abd fe2a bf3e
00000290: b065 b0bd 132d 0bbd cdba bfbc fd79 09bd
000002a0: 0aa7 87ba 6d12 98bc f73c 59bd 461a dabc
000002b0: 0572 20bd 5a8d ed3c 7804 f93a 682c 033f
000002c0: bc9c 08bd 6814 0fbd aa6a 9bbd 6637 97bc
000002d0: 432f 03bd 4394 28bd da80 3bbd 2f02 13bd
000002e0: c7b0 fe3e 1776 19bc d035 a03b c6cb c8bc
000002f0: 0d61 93bd 97b0 a1bc fd94 22bd 106a 31bd
00000300: 4c16 e13c f379 1abd 5074 f53e a91d dabd
00000310: 9877 17bd ec5d c2bc 3be9 1b3b 2fd9 81bd

weight f4 [10]
4.673953 4.0921416 4.9582453 4.8712254 4.7261925 4.7660775 4.686345 4.8271365
4.7373333 4.8659616
00000000: 0691 9540 d3f2 8240 f2a9 9e40 14e1 9b40
00000010: f83c 9740 b583 9840 8af6 9540 e777 9a40
00000020: 3c98 9740 f5b5 9b40

bias f4 [10]
1.3072131 1.1693165 1.7125974 1.5685498 1.379307 1.5316498 1.5039554 1.6261531
1.4735287 1.7776351
00000000: c252 a73f 2aac 953f 6436 db3f 3dc6 c83f
00000010: 228d b03f 1a0d c43f 9c81 c03f c925 d03f
00000020: 979c bc3f 8c89 e33f

running_mean f4 [10]
0.038844384 0.051733542 0.0052548875 0.07430561 0.09691668 0.028090332 0.07115277 0.09559072
0.022501566 0.034843463
00000000: 4a1b 1f3d 8de6 533d 3131 ac3b 8a2d 983d
00000010: 417c c63d b21d e63c 8bb8 913d 11c5 c33d
00000020: 3455 b83c 05b8 0e3d

running_var f4 [10]
0.044334963 0.046221558 0.098286115 0.109427094 0.1291465 0.06730699 0.056821465 0.10869186
0.08251608 0.0690228
00000000: 9498 353d d152 3d3d 3b4a c93d 501b e03d
00000010: fb3e 043e 3fd8 893d a0bd 683d d799 de3d
00000020: 31fe a83d d35b 8d3d
