mlruns/271458266826723899/models/m-16ab2b4534ec46e6a25e3af8e7cb97d0/artifacts/data/model.pth (torch, 67392 bytes, 36 tensors)

weight f4 [10, 1, 3, 3]
000000 57 9a fe bd 1c 1f 0a 3e 65 03 0b 3d 4b 1d f9 bd
       -0.12431782 0.1348843 0.033938784 -0.1216379
000010 46 9d 65 3e f8 31 7b be 0f 7e 93 be dc 7f 96 bc
       0.22423276 -0.2453078 -0.28807113 -0.018371515
000020 46 2a b6 bd 2c 3e 19 3d 2d 8e 20 3c 1a bb 6a 3e
       -0.08894782 0.037412807 0.009799522 0.22922936
000030 a1 00 d3 3c 49 8b ff bc 71 a2 15 3e cf 90 aa be
       0.025757136 -0.031194346 0.14612748 -0.33313605
000040 9f d3 de 3d 9f 5d d5 3d e9 18 52 be 6d 55 8b be
       0.10880207 0.104182474 -0.20517315 -0.27213612
000050 3e bc 2c be 65 15 c1 3e 23 83 6b be b3 d6 cd 3d
       -0.16868684 0.37711635 -0.22999243 0.10050716
000060 8d b2 29 be 84 f8 d7 3e eb e6 a7 3d 5b db 6f 3e
       -0.16572018 0.4218179 0.08198341 0.23423521
000070 16 c3 63 3e 8c 5f 65 3e e2 95 ae bd ee c4 84 3e
       0.22242388 0.2239973 -0.08524682 0.25931495
000080 39 6b a4 3e dc 8f 88 bd b5 d4 bd be 10 99 b2 be
       0.32113054 -0.06668064 -0.37076345 -0.34882402
000090 67 10 c9 bd cc 30 9f 3e e4 d0 9f 3e ed cd 8f 3e
       -0.098175816 0.31091917 0.31214058 0.28086796
0000a0 9d d0 86 bd 22 4b d2 be 5a 89 9a 3d ef 52 96 be
       -0.065827586 -0.41072947 0.07545729 -0.29360148
0000b0 9e e0 21 3b 4b 50 1c be 66 c7 a0 bd 80 7f 19 3e
       0.0024700533 -0.15265004 -0.07850532 0.14990044
0000c0 e8 da 65 3e 84 fa 08 be 9f c1 df 3d 98 c8 71 bd
       0.22446787 -0.13376814 0.10925602 -0.05902919
0000d0 63 ef 8a 3c d6 68 99 3e 78 46 97 be b2 83 de bd
       0.016959852 0.29962796 -0.2954595 -0.10864963
0000e0 f0 3c ca bd 57 ce 98 3e 37 b3 9c 3e 58 df 25 be
       -0.09874904 0.29844925 0.3060548 -0.1619848
0000f0 1f e7 90 3e 84 3b 15 3e 16 2b a9 bd 87 c9 6d 3e
       0.2830133 0.14573485 -0.08260171 0.23221408
000100 fe 70 97 3d 2a d9 85 be 63 86 4e be da ad 6d 3e
       0.073945984 -0.26142246 -0.20168452 0.2321085
000110 ff 18 86 3d 6f 06 9a 3e 9f 2d b9 3e 03 3d 8d 3e
       0.065477364 0.30083033 0.3616762 0.2758561
000120 99 e5 22 3d f2 c2 8a be 65 d1 2b 3e 44 ff 8e 3e
       0.039769743 -0.27101856 0.16779096 0.27929127
000130 09 63 1e be ab cc 37 3e 35 92 b1 3e f3 06 8d 3e
       -0.15467466 0.17949168 0.3468186 0.27544364
000140 d9 e8 8b be 66 b6 af 3e f7 19 8e bd 94 ba 2a be
       -0.27326086 0.34318846 -0.06938546 -0.16672736
000150 22 dd 59 3e b0 a7 db be 85 1c 4c 3e 17 5e 22 3e
       0.21275762 -0.42901373 0.19932754 0.15856205
000160 23 13 41 3d 78 98 b3 be
       0.04713739 -0.35077262

weight f4 [10]
000000 df cb 85 3f 88 36 6e 3f 0a bd 86 3f 5c 95 8a 3f
       1.0452842 0.9305196 1.052644 1.0826831
000010 b5 6a 8c 3f 20 6e 66 3f e8 e7 80 3f 80 e2 61 3f
       1.0970064 0.9001179 1.0070772 0.88236237
000020 e6 0e 6d 3f e2 4a 86 3f
       0.9260086 1.0491602

bias f4 [10]
000000 cb 91 24 3c 31 9d 0b 3d b0 30 aa 3b 81 f2 bf 3d
       0.010044525 0.034085456 0.0051937923 0.09372426
000010 3e d4 60 3d dd 9d 0d 3d e8 df 4e 3d 4a 24 56 bc
       0.05488991 0.03457438 0.050506502 -0.013070175
000020 c4 b4 5e 3d 07 04 6d 3d
       0.05437161 0.05786517

running_mean f4 [10]
000000 7d 74 fc bc 41 60 95 3c 11 ed 34 bb be 6f c1 3c
       -0.030817265 0.018234374 -0.0027607123 0.023612853
000010 dd 7f d1 3b ad c0 be 3c 97 1f 9a 3c 11 d3 8a 3d
       0.0063934163 0.023285234 0.018813891 0.06778539
000020 49 0d 19 3d 36 b5 67 bb
       0.037366185 -0.0035355813

running_var f4 [10]
000000 40 91 53 3e 0c d4 44 3e 6d 71 6b 3e 04 04 14 3f
       0.20660877 0.19221514 0.22992487 0.5781863
000010 ca 67 84 3e d0 e3 3d 3e 44 6b b6 3e 78 7e 84 3f
       0.25860435 0.18543935 0.35628712 1.0351095
000020 75 d9 d4 3e e4 be 88 3e
       0.41572157 0.26708138

weight f4 [10, 10, 3, 3]
000000 1e a3 58 3d 33 32 3f 3d a7 25 be bd f2 55 33 3e
       0.052889936 0.046678733 -0.09284525 0.17513254
000010 ca 43 ab 3d ea 58 26 3d 6f 0e 21 3e eb 49 09 3e
       0.08362539 0.04061214 0.15728162 0.13407104
000020 3b 06 52 3c 05 80 d5 3d 46 b6 f8 3c e1 31 d8 3d
       0.012818868 0.104248084 0.030360352 0.10556389
000030 9c fc 6a bc 16 e7 9b bd 6d 52 1a 3e f7 22 22 be
       -0.014342453 -0.076124355 0.15070505 -0.1583365
000040 41 57 1a 3d d8 57 45 3c ba 7f 9b bd 5f 9c 80 bd
       0.037680868 0.012044869 -0.07592721 -0.062798254
000050 bd 92 45 bd c8 6b 39 bd d3 3b 88 3d 8f 4a a2 bd
       -0.048235644 -0.045268804 0.066520356 -0.07924377
000060 df 46 fd 3d 49 ae 40 bc 20 90 8a 3d 6d 4c b6 3d
       0.12367033 -0.011760303 0.06765771 0.08901296
000070 cb 74 7d 3e c4 4e 15 3e f3 71 8c 3d d3 96 f5 3d
       0.24751584 0.14580828 0.068576716 0.11991658
000080 44 e4 31 bd 87 8e 6e bd 98 82 28 be e3 24 8f bd
       -0.04343058 -0.058241393 -0.16456068 -0.069894575
000090 a3 cd b1 3d c1 48 13 3e d3 9d 41 3d 2c 96 9d 3d
       0.086818 0.14383222 0.047269654 0.07694659
0000a0 21 f1 da 3d 9f 4e 49 3d f9 73 3b bd 65 c8 05 3e
       0.10690523 0.049147245 -0.045764897 0.13064726
0000b0 43 07 08 3e aa c7 da bd 95 9a 56 3d 54 03 01 3d
       0.1328402 -0.10682614 0.052393515 0.031497315
0000c0 bd 0e 16 bc c3 83 dd bd 53 68 00 bd 4f ea cc bd
       -0.009158787 -0.10816147 -0.03134949 -0.10005628
0000d0 ec 79 c9 3c ed 4b 93 3d 1c ae 11 3e 03 9b 01 3e
       0.02459427 0.07192216 0.14226574 0.12656789
0000e0 98 af 62 3d 83 ac be bd 4e f3 24 be 25 c7 cb bd
       0.05534324 -0.09310248 -0.16108438 -0.09950093
0000f0 14 a9 89 bd cb 42 3f be 92 43 05 3d 95 a6 78 3d
       -0.06721702 -0.18677823 0.032535143 0.06070574
000100 01 9f 9c 3d 51 35 6d 3d fc d8 96 3d 29 61 30 bd
       0.07647515 0.057912175 0.07365605 -0.04306141
000110 eb 79 bb bc 63 d9 f9 bb b1 f7 ed bc 1f 4e d2 bd
       -0.022885283 -0.0076247915 -0.029048773 -0.10268807
000120 86 7e bb 3d 90 e3 86 bc dc f7 52 3d 8e f8 85 bd
       0.09154992 -0.016465932 0.05150591 -0.06541549
000130 1c e9 f7 bd c3 d0 bd bd 9c 8a 12 3d 88 19 00 3c
       -0.12105009 -0.09268334 0.03577672 0.007818587
000140 c7 83 33 3d f8 3d 22 39 41 af 61 3d d1 3f 66 bd
       0.043826845 0.00015472609 0.055098776 -0.056213204
000150 c5 80 48 3d 85 48 f8 3c 68 a1 61 bd 6a e7 de 3a
       0.04895093 0.030308018 -0.05508557 0.0017006223
000160 63 6c 68 3b ae 30 c9 bc 94 38 81 3d f2 ba ec bd
       0.0035464994 -0.024559345 0.063096195 -0.115590945
000170 71 1e b6 bd 00 7b 7a bd 80 24 90 bd e2 b1 d0 3d
       -0.08892525 -0.06115246 -0.07038212 0.101901785
000180 1e e1 61 bd 31 b1 58 bd b0 16 8a 3d dd 4b bb bd
       -0.05514633 -0.052903358 0.067426085 -0.09145329
000190 31 e0 78 bc cb 5e 29 bd 0b 31 26 bd d0 ae dc 3c
       -0.01519017 -0.041350167 -0.040574115 0.026938826
0001a0 ca 67 12 bd bf cc dd 3c ac d9 03 3e c6 10 94 3d
       -0.035743512 0.02707517 0.12876004 0.07229762
0001b0 a1 35 0f be 0e 01 3c 3e 0e e8 2f 3e 0a a8 9e 3d
       -0.13985302 0.18359777 0.17178366 0.07746895
0001c0 8d 41 6b 3d ed fd 15 3e f2 b9 db 3c 6b 2b 73 3d
       0.05743556 0.14647646 0.026822064 0.05936758
0001d0 27 4b 92 3d a6 3d d6 bd bc 69 df bd d8 e8 1f bd
       0.071432404 -0.10460977 -0.10908839 -0.039040416
0001e0 6f 15 8e 3d 99 80 97 3d eb 2d 24 be 6b 7f 64 3e
       0.06937682 0.07397575 -0.16033141 0.22314231
0001f0 24 58 70 3e 10 74 8b 3e a4 ea d1 bd 4d b7 96 bd
       0.23471123 0.27236986 -0.10249832 -0.073591806
000200 cf 0b 36 3d 00 31 46 be 65 ef 25 be 71 fe 1f 3d
       0.044444855 -0.1935463 -0.16204603 0.039061014
000210 ec d9 56 3d 4f a6 b0 bc 8b 0b 05 3e f3 2f 1d 3c
       0.05245392 -0.021563677 0.12992685 0.0095939515
000220 41 6e 6b 3d b1 e9 b3 bc 2d 6b 5e bd 0f 36 d6 3b
       0.057478193 -0.021962019 -0.05430143 0.006537206
000230 c4 fb da bc ab 6c ab bd 4b 4a 64 ba 73 9d ae 3d
       -0.02673138 -0.08370336 -0.000870858 0.08526125
000240 b0 bf f2 3c 3d 0c 62 bd 21 3b 28 be 51 d8 68 bd
       0.02963242 -0.055187453 -0.16428806 -0.05684692
000250 c9 73 ee bc 47 b0 35 3d b9 3b 72 3d 15 ad 4f bd
       -0.029107945 0.044357564 0.059138987 -0.050702173
000260 14 b2 f2 bb 2e d1 16 3d ac 62 ed 3d 78 c5 92 3c
       -0.0074064825 0.036820583 0.11591086 0.017916426
000270 d7 1c 5d bd fb c8 73 3d d8 86 93 3d a3 bb a8 bc
       -0.053982582 0.05951784 0.07203454 -0.020597285
000280 b3 44 31 be 9c 80 66 3d 39 30 88 bc 87 a5 1e bd
       -0.17311363 0.056274995 -0.016624557 -0.038732078
000290 b5 71 0c 3e c0 ef d0 bd 9d 4f 7a 3d dd 65 a8 3d
       0.13715251 -0.10201979 0.06111108 0.08222554
0002a0 83 2d 4c bd 97 89 ad bd 2d 65 b8 bd bb 42 7a bd
       -0.04984809 -0.08473509 -0.09003673 -0.061098795
0002b0 98 29 b6 3d 86 0f 9f bd 7e 89 2e 3d 3c 3b 9a bc
       0.08894652 -0.07766633 0.04261159 -0.018827073
0002c0 d2 2a 6e be d6 0a f6 bc 45 ce 42 3d 1d 46 24 bd
       -0.23258522 -0.030034464 0.047559995 -0.040105928
0002d0 1e 61 d1 bd 1c d2 26 3d c3 be c7 3d 75 35 61 3d
       -0.10223602 0.04072772 0.09753182 0.05498262
0002e0 5a 7e 8e bd 4f 66 bc 3d 91 59 a3 3d 7f f6 cb 3d
       -0.069576934 0.09199201 0.07976068 0.09959125
0002f0 64 93 bc 3d 90 67 6c 3d 8e 8e 06 3c 81 a5 74 3d
       0.092078 0.057715952 0.008212699 0.05972815
000300 15 94 4a bd d7 95 05 be 67 ae 04 3b dc d1 b2 3d
       -0.04945763 -0.1304544 0.0020245553 0.08731434
000310 4e fa 1a 3c c5 85 8e bd 4d c3 e3 bd 1b e5 36 3d
       0.009459091 -0.06959108 -0.11121235 0.044652086
000320 04 df 1d 3c 6c 23 b0 bd 09 e0 34 be c8 4c 3e 3d
       0.009635691 -0.08600506 -0.17663588 0.046459943
000330 c7 39 ea 3d 4f be 2f 3d d1 cd c2 bc 82 79 8a 3d
       0.114368014 0.0429061 -0.023779782 0.06761457
000340 0a e8 83 bd 32 e7 e8 bc 6a ba f9 bb 91 e8 da 3d
       -0.06440742 -0.028430555 -0.0076210992 0.1068889
000350 80 e4 de 3c db 44 b2 3a 4b d3 35 bd 11 be ea bc
       0.027208567 0.0013600843 -0.044390958 -0.028655084
000360 8c 28 7c bd 1b 04 3e 3d cc 5e a2 3d 80 49 c2 3d
       -0.061562106 0.046390634 0.07928237 0.09486675
000370 a3 8b be bc 61 d3 75 3c cf 32 87 3d 69 49 b7 3d
       -0.023259943 0.01500401 0.06601488 0.08949549
000380 1d fd 59 bd d9 33 6f 3d 36 65 05 3d d8 ad eb bd
       -0.053219903 0.058399055 0.032567225 -0.115077674
000390 d5 57 9c 3d d2 79 04 be 76 9b 16 be ff b8 e0 bc
       0.0763394 -0.12937096 -0.14707741 -0.027431963
0003a0 7b 6a 91 3d 83 72 2e be c5 7b 49 3d 37 3a ce 3d
       0.07100388 -0.1703587 0.0491903 0.10069697
0003b0 9b 9f ed 3d c1 d5 c0 3d 13 6e 9f 3d 0f 49 af 3c
       0.11602708 0.0941577 0.07784667 0.021397142
0003c0 32 90 27 3e 0b bf 99 bd 6f 8e 0f 3d cf f6 94 3c
       0.163636 -0.07507142 0.035047945 0.018184094
0003d0 3e 49 1c 3e c6 5a 40 bc 9d fb a0 3d bf 5f 75 bd
       0.15262315 -0.011740392 0.078604914 -0.059905764
0003e0 7f 10 b8 bd d8 ab 5c 3d a3 bc 7e 3c 6c df 94 3c
       -0.089875214 0.05387482 0.015547904 0.018172942
0003f0 77 e4 ec 3a a7 fa 10 bd cc 2e c1 3c 70 13 53 3e
       0.0018073459 -0.03539529 0.023581885 0.20612884

weight f4 [10]
000000 4d ba 75 3f 38 fc 86 3f 5e a1 80 3f 1c 1d 7f 3f
       0.959874 1.0545721 1.0049245 0.9965379
000010 4c 0f 7a 3f 07 df 84 3f a1 77 7c 3f 52 49 65 3f
       0.9767959 1.0380563 0.9862004 0.89565
000020 d8 66 85 3f f5 cd 85 3f
       1.042201 1.0453478

bias f4 [10]
000000 98 94 5a bd e4 7b ae 3d 07 88 58 3a d9 bb b7 bc
       -0.053364366 0.08519724 0.0008260016 -0.02242844
000010 aa 20 07 bd b2 6d dd bd 20 07 73 3d a8 1c 1d 3d
       -0.032990135 -0.10811938 0.059332967 0.038357407
000020 04 59 9c bc a0 a3 01 bc
       -0.019085415 -0.007912546

running_mean f4 [10]
000000 d3 83 ff 3e be 0c d4 3c bb 69 15 3f ab 1a d9 be
       0.4990526 0.025884982 0.58364457 -0.4240316
000010 8e ec 1b 3e 7d cd 4e be 89 09 f8 3e 85 2e 80 3e
       0.15226957 -0.20195575 0.48444775 0.25035492
000020 db 33 f2 be 9d e5 b5 be
       -0.47305188 -0.35526744

running_var f4 [10]
000000 59 04 be 3f e9 23 a5 3f b2 2b 8d 3f 77 9a 38 3f
       1.4845077 1.2901584 1.102896 0.72110695
000010 59 03 61 3f 9f 6f 59 3f 4b f4 7a 3f 3b 11 86 3f
       0.87895733 0.84935945 0.9802901 1.0474008
000020 07 85 08 3f 1a 57 2c 3f
       0.53327984 0.67320406

weight f4 [20, 10, 3, 3]
000000 d1 a0 83 bc 76 43 c9 3d d0 f8 b8 bd c4 64 07 3e
       -0.016067894 0.0982732 -0.09031832 0.13222033
000010 53 da 0b be e7 33 6d bd 75 b6 26 3d db 6d 03 be
       -0.13657503 -0.057910826 0.04070135 -0.12834875
000020 27 59 cd bd 8c 4c 06 be 69 2d fa bc 78 85 ac bb
       -0.1002677 -0.13115138 -0.030539231 -0.005264934
000030 63 87 98 bc c1 fa 06 3e 86 f6 b1 3c 62 8f a2 3d
       -0.018619245 0.13181593 0.021723997 0.07937504
000040 16 f4 97 bb 83 7e 15 be 8d f3 3d bd a4 8a 84 3a
       -0.0046372516 -0.14599042 -0.046374846 0.0010112119
000050 b6 15 b6 bd 58 03 4e bd 71 2d 1b be 23 2f 8b 3d
       -0.0889086 -0.050296158 -0.15154053 0.067961
000060 c8 72 72 3e f2 80 78 bd f3 56 47 3d 92 ca a3 bd
       0.23676598 -0.060669847 0.048666906 -0.079976216
000070 c1 7c b6 3c 91 8d 51 3c 93 6c a7 bc 75 4f e5 3c
       0.022276284 0.0127901 -0.020437514 0.02799199
000080 a4 d0 b0 bd 1f e4 96 bd 2e 85 a6 bd d9 3b 01 bd
       -0.08633545 -0.073677294 -0.08130871 -0.031551216
000090 47 05 82 bd 8b 9e ae bd b3 a8 1c 3e 00 f8 f4 bc
       -0.06348663 -0.085263334 0.15298729 -0.029903412
0000a0 d8 a7 a3 3c b2 82 22 3e 89 d6 fc 3d 13 3d fc bc
       0.019977495 0.15870169 0.12345607 -0.030790841
0000b0 6b 89 28 3d b6 05 d8 bd 00 57 43 bd 54 22 8d 3c
       0.041146677 -0.10547964 -0.04769039 0.017228283
0000c0 b7 ee 0b 3c 5e 7c 14 be 40 65 ac 3d 43 72 99 3d
       0.008540801 -0.14500567 0.084177494 0.07492497
0000d0 10 1b b2 bd 93 3d 0a 3e 64 5b a1 bd 91 54 9e 3c
       -0.08696568 0.13500051 -0.078787595 0.019327434
0000e0 3d 4f 4e 3e 29 2f 26 3e 5b b4 91 3d b3 07 e2 38
       0.20147415 0.16228928 0.07114478 0.00010777954
0000f0 3c 81 10 3e a8 73 90 3d 8c 70 13 3d 47 c0 76 bc
       0.14111799 0.0705331 0.035996005 -0.015060491
000100 30 eb ef bd 30 6d a9 3c fa a9 d7 bd c5 5c 71 bc
       -0.1171478 0.020681947 -0.10530467 -0.014731591
000110 d5 8e 50 3d dd b9 6b 3d 05 f0 a2 bb 11 27 e1 3b
       0.050917465 0.0575503 -0.00497246 0.006871112
000120 7c 6b 9e bc 65 22 bb bd d1 0c 71 3d 3f 65 10 be
       -0.019338362 -0.091374196 0.058850113 -0.14101122
000130 5f f8 b0 3d 12 c1 cf bc 78 1e f1 bd cc 19 6c bd
       0.08641123 -0.025360618 -0.117733896 -0.05764179
000140 00 da 87 3b 33 b6 b1 3d dd fc 28 bd 47 98 12 be
       0.0041458607 0.0867733 -0.041256774 -0.14315902
000150 3c 39 22 bd 07 01 03 3d 86 0b 13 be 98 80 6b 3d
       -0.039605364 0.0319834 -0.14359865 0.057495683
000160 47 03 da 3b 48 11 b5 3d 29 7f 4a 3d 9d d5 e1 3d
       0.0066532227 0.08841187 0.049437676 0.110270716
000170 65 eb bf bc 9f fe 48 3c 09 2f 5b 3d bd cb b1 3d
       -0.023427675 0.012267738 0.053511653 0.08681438
000180 5a 3c 58 bd 48 85 35 3b 36 f2 4a 3c 9e 4c 70 bd
       -0.05279193 0.002769785 0.012386849 -0.058666818
000190 6c f8 cc bd 89 0f 21 3c e1 ba 2e bd 7c 14 ec 3d
       -0.1000832 0.009830364 -0.04265869 0.115273446
0001a0 da 14 86 3c ce 3b e3 3d b9 37 c0 bd b9 31 0f bc
       0.016367365 0.11095391 -0.09385628 -0.008739882
0001b0 51 e5 2d be e2 e7 ae 3d d6 7f ba bc 36 c5 00 be
       -0.16982009 0.08540322 -0.022766035 -0.1257523
0001c0 a1 7d 05 3e a7 f3 83 3d e8 ca aa 3c ef 37 41 3d
       0.13036205 0.06442957 0.020848706 0.047172483
0001d0 d7 72 19 bc f0 37 9e 3d ba 2c 01 bc 16 9e b4 3c
       -0.009365759 0.07725513 -0.007884199 0.022048037
0001e0 07 b1 7f bd 53 2d c7 bd ca 1a 7a bb b3 78 63 3d
       -0.062424686 -0.09725442 -0.003816294 0.05553503
0001f0 08 f6 a9 3d f9 4b 3e bd 5c 7e 07 3e 93 33 16 bc
       0.0829888 -0.046459172 0.13231796 -0.00916757
000200 9e dd b2 3d b1 dc 30 3d 3d 12 be 3d dc a4 3f bd
       0.087336764 0.043179218 0.092808224 -0.04678808
000210 77 ea 72 bd 76 3c cb 3b 4a 06 cd bd 97 ca a9 3d
       -0.059305634 0.006202276 -0.10010965 0.08290594
000220 5f 74 d9 3a c8 7a 05 bd 5f 92 45 3d 97 73 b6 3d
       0.0016590467 -0.032587796 0.048235293 0.08908766
000230 9e 93 07 3e 66 af 05 be 41 85 5d bd 5c f2 70 3d
       0.13239905 -0.1305519 -0.05408216 0.058824882
000240 92 c5 81 3c 09 46 a4 3d 86 8e 0e 3e ed d7 be 3d
       0.01584128 0.08021171 0.13921556 0.09318528
000250 9a 2b 2e bc 5e 33 a7 bd e6 48 98 bd f1 49 bd bc
       -0.010630513 -0.081640944 -0.07435779 -0.023106547
000260 15 68 02 bc af 69 4f 3a d2 19 48 3d 6b 55 68 3d
       -0.007959385 0.00079121714 0.04885275 0.056722086
000270 cb 38 ff ba f4 40 fb 3c 3c d8 f9 3d 56 11 d3 3d
       -0.0019471882 0.03067062 0.121994466 0.10306041
000280 0f cc 01 3e 52 81 27 3e b7 7f 3f 3d 61 8f 05 3d
       0.12675498 0.16357926 0.046752658 0.03260744
000290 19 57 97 bd b6 42 42 bd b3 0e 1a 3d 8b 85 dc 3b
       -0.073896594 -0.0474269 0.037611675 0.0067297867
0002a0 e3 33 0a bd 02 ee aa bc 5c 05 5e bd 08 e8 62 3d
       -0.03374089 -0.020865444 -0.05420433 0.055397063
0002b0 28 14 5f bd 93 5b a7 bd 4a 1a 4d 3d 5d 38 96 bc
       -0.054462582 -0.08171763 0.0500739 -0.018337423
0002c0 4c f9 2b 3d 06 4f f7 bc 31 b8 55 3d 11 56 8e bd
       0.041985795 -0.030189048 0.05217761 -0.069500096
0002d0 4d 7c 68 bd a8 64 a0 3c a5 d3 32 3e b2 e6 22 3d
       -0.056759167 0.019579247 0.17463548 0.03977079
0002e0 c3 4c c6 bd 2e d5 76 3d f4 c2 dd 3c c7 d5 7c bd
       -0.0968261 0.060261898 0.0270705 -0.06172731
0002f0 9e df 80 bc ab 5d 88 bd 62 ae ed 3c c3 d2 7c bd
       -0.015731629 -0.06658491 0.029013816 -0.061724436
000300 cd d1 f9 bb 0c 14 a3 3b 02 64 ab bd 60 12 3c bc
       -0.007623887 0.004976755 -0.08368684 -0.01147899
000310 7f 74 08 be b9 79 09 be cd db 80 3d 7b 87 10 bb
       -0.1332569 -0.1342534 0.06291924 -0.002205341
000320 ac 77 23 3d d8 1c d5 bd cf a2 20 be c0 8b 13 be
       0.03990905 -0.10405892 -0.15687107 -0.14408779
000330 10 05 8f bd d3 db 5b 3c 46 ca 08 be 78 1c 96 bd
       -0.069833875 0.013419109 -0.13358411 -0.07329649
000340 18 b5 ca 3c 69 39 ce bd a3 98 34 3d 46 30 13 bd
       0.024744555 -0.10069544 0.04409088 -0.03593471
000350 f9 ff 24 bd 57 29 c4 3d 42 34 de bc 93 9a b6 bd
       -0.040283177 0.095781974 -0.027124528 -0.089162014
000360 d0 7b e1 3d 65 89 b2 3c 55 ce 88 bd 96 31 c8 3d
       0.110099435 0.02179403 -0.0667998 0.09775083
000370 51 77 89 3d 39 1f 5c ba c8 09 fa 3c 97 3f 1f be
       0.06712211 -0.00083969865 0.030522242 -0.15551601
000380 b5 fa 9b bd 65 b3 02 3e 99 37 c5 3d 0c 65 1c 3e
       -0.07616178 0.12763746 0.09629745 0.15272921
000390 b5 83 8e 3b 99 c7 23 bd 89 44 1c 3d e9 30 56 be
       0.004349197 -0.039985273 0.038151298 -0.20917095
0003a0 d9 f3 47 be b1 6b 93 bd b0 c7 3a bd b8 8c 82 3c
       -0.19526614 -0.07198275 -0.045600593 0.01593624
0003b0 e8 55 9f bd ca 99 8d bc 58 c6 49 be 2b a8 fc bd
       -0.07780057 -0.017285246 -0.19704568 -0.12336763
0003c0 a7 38 1f be 74 a0 3c bd 3a e4 08 3d c1 54 f4 3c
       -0.15548955 -0.046051458 0.03342078 0.02982557
0003d0 2a 62 37 bc 2f 99 cc bd bb 2a ee bc 82 d3 a0 3d
       -0.011192838 -0.09990155 -0.02907311 0.07852842
0003e0 1a 1a 00 3c 37 a5 b1 bd 5d 21 e9 bc 8e ef 12 be
       0.007818723 -0.0867409 -0.028458292 -0.14349195
0003f0 8f ab 76 bd 12 0f cb bd 13 f2 fa bd 86 09 50 bd
       -0.060222205 -0.09914984 -0.12253203 -0.050790332

weight f4 [20]
000000 66 ef 70 3f 3f e9 75 3f 82 28 8b 3f 2a 20 80 3f
       0.94115293 0.9605903 1.0871737 1.0009816
000010 77 73 7f 3f 9e 35 85 3f 65 7f 79 3f b4 6d 7a 3f
       0.9978556 1.0406988 0.97460014 0.97823644
000020 30 a9 8a 3f 02 28 73 3f 49 36 7b 3f 8f 22 7a 3f
       1.0832882 0.9498292 0.9812971 0.9770898
000030 ac 31 70 3f ab 33 79 3f 7b 15 6e 3f 4e c1 83 3f
       0.93825793 0.97344464 0.93001527 1.0293367
000040 58 7c 86 3f c3 dc 7f 3f 6a d9 8a 3f 6b d9 81 3f
       1.0506697 0.9994623 1.08476 1.0144476

bias f4 [20]
000000 e7 ef e0 3d 49 c1 d8 3b 80 b8 50 3c 71 ca 09 bc
       0.10983258 0.0066148383 0.012739301 -0.008410082
000010 84 cd 4c bc 4e ba 1f b9 df 6a 33 bc 1c 0a 93 bb
       -0.012500171 -0.00015232826 -0.010950773 -0.004487289
000020 df 2a 88 3c 12 84 71 bc 99 8d b6 3c d1 9b 54 bd
       0.016622005 -0.014740961 0.022284316 -0.05190641
000030 5d 97 4b 3b bd e6 17 bd d7 53 af bd 38 a8 f4 3a
       0.0031065561 -0.037085284 -0.08560913 0.0018665856
000040 60 a0 22 3c 03 00 52 bd 49 b4 23 bc 15 60 1d 3c
       0.009925932 -0.051269542 -0.009991714 0.009605427

running_mean f4 [20]
000000 de bc db bd 1a a3 dc 3e ea bc 89 bf 31 db fd bd
       -0.10729383 0.43093187 -1.0760777 -0.12395323
000010 3a 50 f6 bd 69 e3 98 be c9 69 ae be 49 d8 ac 3b
       -0.12027021 -0.29861 -0.34065083 0.0052748066
000020 9f 3c ff be cc ba b6 3e 93 03 ff 3c 2d fd a0 be
       -0.49850938 0.3568939 0.031129634 -0.31443158
000030 54 a5 1e bd 70 40 06 3f a1 4f 0b 3f 08 07 bd 3e
       -0.038731888 0.52442074 0.5441838 0.36919427
000040 80 0e 20 bf 48 33 8e be 45 08 da be d0 3b d3 be
       -0.62522125 -0.277735 -0.42584434 -0.4125657

running_var f4 [20]
000000 ff 75 08 3f 2e cb 24 3f a0 df 65 3f 7b 1c fe 3e
       0.5330505 0.6437253 0.8979435 0.49631104
000010 2e 0d 3a 3f 42 5a 92 3f e2 43 80 3e 87 ca 22 3f
       0.7267636 1.1433794 0.2505179 0.6359028
000020 9f d5 3e 3f a5 4f f5 3e 15 d6 58 3f 91 46 d1 3e
       0.7454471 0.47912326 0.84701663 0.4087415
000030 1d 87 0a 3f bf a3 41 3f f1 f3 4a 3f da 38 21 3f
       0.54112417 0.7564048 0.79278475 0.62977374
000040 9b b8 0f 3f 71 cb 0d 3f 34 6a 27 3f 4c 64 13 3f
       0.5614106 0.5538855 0.6539643 0.57574916

weight f4 [10, 20, 1, 1]
000000 7e 93 6a be 94 e2 2a be a0 fa a7 3e fa 15 61 be
       -0.22907826 -0.16687995 0.328084 -0.2198104
000010 87 4e 8a bd af 01 59 3e e4 5a 2a 3e 87 5a 11 3d
       -0.06753259 0.21192048 0.16636235 0.035486724
000020 f6 52 07 bc 5c 15 0b be 88 61 8a 3d ba b3 80 3e
       -0.0082595255 -0.13582367 0.06756884 0.2513712
000030 4a 85 47 3e e9 58 05 bd 8d 2f 8f bd 8d cd ec bd
       0.1948444 -0.032555494 -0.069914915 -0.11562643
000040 b9 e3 28 3d b2 28 90 bb 41 e5 80 3d 13 6d 20 3e
       0.0412328 -0.0043993825 0.06293727 0.15666609
000050 3c b8 4d 3e 80 45 39 be 34 d8 45 be 2c 97 17 3e
       0.20089811 -0.18092918 -0.19320756 0.14803761
000060 7c 02 2e be ed 52 12 bd 9c 90 2a be 23 f2 43 be
       -0.16993135 -0.035723615 -0.16656727 -0.19135337
000070 f4 3c 03 be cc 87 e7 3b dc c9 b4 bc 55 b4 04 bd
       -0.1281622 0.007065749 -0.02206891 -0.03239854
000080 dc be 34 3e c6 b5 42 be f4 e4 6e bd 7d 66 9c 3e
       0.17650932 -0.19014654 -0.058323815 0.30546942
000090 42 c6 6e bc 9e 11 66 bc 8f e1 73 3e 48 9b 05 be
       -0.0145736355 -0.014042286 0.23816513 -0.13047516
0000a0 94 34 2c be 11 11 5a 3e 72 04 c2 bc a4 32 17 3e
       -0.16816932 0.21295573 -0.02368376 0.14765412
0000b0 60 4d 88 3e 1f 9e 55 bd 43 41 04 3d 04 c4 31 be
       0.26621532 -0.05215275 0.0322888 -0.1735993
0000c0 e3 e4 9f be d0 20 c8 3c d6 89 af 3e 9e 21 5d 3e
       -0.31229314 0.024429709 0.34284848 0.21594855
0000d0 d3 bb 9d 3d 70 27 87 be 84 54 86 be fb a6 03 be
       0.0770184 -0.26397276 -0.26236355 -0.12856667
0000e0 43 7d 08 be d8 0b 7a be 64 99 df 3d cd 47 33 be
       -0.13329034 -0.2441858 0.10917929 -0.17507859
0000f0 89 a7 60 bd a4 3e 3e 3d 6e d2 75 3e 7f 0b d2 bd
       -0.054847274 0.046446458 0.24006054 -0.10256099
000100 19 ac 29 3e 44 19 a1 3e 3b 13 8e bd 37 2c 63 3e
       0.16569556 0.3146459 -0.06937262 0.22184835
000110 cf ef 0d be 23 69 20 be 8b 0a 10 bd 1a 72 f5 bd
       -0.13861011 -0.15665106 -0.035166305 -0.11984654
000120 86 52 2f 3e 90 61 5b bd 17 8a a7 bd 6e 33 5e be
       0.17121324 -0.05355984 -0.081806354 -0.21699306
000130 32 a5 b7 3d 4f ef fd bd 61 27 29 3e 5c ca 2b 3e
       0.089670554 -0.1239916 0.16518928 0.16776413
000140 bf e9 ff 3d e7 b2 7d be cc ae fa 3c af a7 91 bd
       0.124957554 -0.24775277 0.030600928 -0.07112061
000150 10 87 31 3e 0c 64 a5 bd e4 ab 9a 3d 2b db 75 be
       0.17336679 -0.08075723 0.07552317 -0.24009387
000160 26 26 88 3e e0 68 33 be b1 ce 97 bd e1 71 1d 3d
       0.26591605 -0.17520475 -0.0741247 0.03843868
000170 2e f2 b5 bd 38 01 4a 3e 42 92 21 be 23 3e 6f 3e
       -0.08884083 0.19727027 -0.15778449 0.23363547
000180 1a ed 17 be 1b f5 ae bc 25 69 6d 3c 95 a1 f6 bd
       -0.14836541 -0.02135711 0.0144904 -0.12042538
000190 88 19 19 be 5e 39 cb 3c 64 70 82 3e e0 b5 46 be
       -0.14951146 0.024807628 0.25476372 -0.19405317
0001a0 42 16 c3 bb eb 19 f6 bd c9 e7 39 be c4 4c 80 bc
       -0.005953581 -0.12016662 -0.18154825 -0.015661605
0001b0 d6 08 8c 3d 2c 38 22 be 96 77 0e be 6d fe 20 bd
       0.06837623 -0.1584174 -0.13912806 -0.03930514
0001c0 46 eb fb 3d 9a d4 fe 3c e5 8f 9b 3d f9 9d a0 ba
       0.12300734 0.031107236 0.07595805 -0.0012254111
0001d0 d6 e7 04 be d2 05 85 be de 58 1a 3e 8a de b7 bd
       -0.12979063 -0.25981003 0.15072963 -0.08977993
0001e0 eb e8 41 3e 67 71 d6 bd c1 3e 6d 3e 0a b3 01 be
       0.18936507 -0.104708485 0.2316847 -0.12665954
0001f0 5c bd 19 be ee 41 fa 3c ab b2 c0 3d be 2f 96 bd
       -0.15013641 0.030549016 0.09409078 -0.07333325
000200 b1 84 0a 3e cd 4c e5 bd 23 33 1d be 5a 3e b7 bd
       0.1352718 -0.11196289 -0.15351538 -0.089474395
000210 b1 b7 7e 3c 7f 29 82 be 1d d3 3f be e9 9b 32 be
       0.015546725 -0.25422284 -0.18732877 -0.17442288
000220 ea 7e 2b 3e aa 83 64 bd bf f6 1d 3e a6 ff 15 be
       0.16747633 -0.055789627 0.15426157 -0.14648303
000230 1f a2 1c be 83 ef c9 bd f4 c3 13 be 3b bf 89 3d
       -0.1529622 -0.09860136 -0.14430219 0.067259274
000240 94 1f 3c 3e 96 35 c8 3d bc e2 02 3e d8 5a b1 bd
       0.18371421 0.09775846 0.12781805 -0.08659905
000250 c9 6c a0 3e 67 6c 18 bd 00 c2 ab 3b 2a 41 25 3d
       0.31332996 -0.037212756 0.0052416325 0.04034535
000260 fc f7 18 3e 3c 2b 04 be 7d 35 06 be 2c a0 c3 bd
       0.14938349 -0.12907118 -0.13106342 -0.09552035
000270 11 d5 96 bd 5d 82 4e 3d 23 11 a4 3e 4e 30 d5 3d
       -0.07364858 0.050417293 0.32044324 0.10409604
000280 ff ad 4b 3e 44 01 5b bd e6 57 97 be 11 a3 80 be
       0.19890593 -0.053468004 -0.2955925 -0.2512441
000290 42 d6 9c bb dc cc 99 be c9 f1 e0 bd 30 bd 0a bd
       -0.0047862837 -0.30039108 -0.10983617 -0.03387183
0002a0 34 f3 60 be 15 94 14 be 8c f7 52 3e a8 fc 37 3e
       -0.21967775 -0.14509614 0.20602244 0.17967474
0002b0 cb 0c 40 3d 16 00 06 be 81 fe 1e be 86 2b 69 be
       0.0468872 -0.1308597 -0.15526773 -0.22770509
0002c0 30 31 aa be a8 2b 83 3e 91 b2 b3 be 39 b0 28 3e
       -0.33240652 0.25619245 -0.35097173 0.16473474
0002d0 e7 4c 27 3e 44 07 e7 3d 82 4d 13 bd b8 e7 24 3d
       0.1633793 0.11280683 -0.03596259 0.040260047
0002e0 b1 bb 86 3d 0c 4d 88 be ee 7a 89 bd c6 d9 29 3e
       0.06578768 -0.26621282 -0.067129 0.1658698
0002f0 49 81 4f be e4 55 c9 bb 6b 2b 5d bd 5e 83 7b 3e
       -0.20264162 -0.006144272 -0.053996485 0.24561831
000300 c5 24 b1 bd 2d d8 91 be 40 88 e5 3d f2 52 83 bd
       -0.08649591 -0.28485242 0.11207628 -0.06412305
000310 f2 aa 84 3e 76 ed aa bd 8b d8 0e 3d dc 98 98 be
       0.2591167 -0.08346073 0.03487448 -0.29804122

weight f4 [10]
000000 51 a3 80 3f cd bf 7f 3f 81 14 80 3f 1d d0 7a 3f
       1.004984 0.9990204 1.0006257 0.97973806
000010 7f fb 84 3f dd 55 86 3f 5d 36 81 3f ee 69 81 3f
       1.038925 1.0494953 1.0094715 1.0110452
000020 08 78 7e 3f 84 0b 73 3f
       0.99401903 0.94939446

bias f4 [10]
000000 31 48 6f bc 6a c0 01 3d 73 5b 64 3d d6 13 27 3c
       -0.014604614 0.03167764 0.055751275 0.0101976
000010 53 4d 46 3d 25 b1 01 3c df d3 ac 3c e3 3f 9f 3b
       0.048413586 0.00791577 0.021097122 0.004859911
000020 fd 77 97 3d dc 7e f7 3c
       0.07395933 0.030211858

running_mean f4 [10]
000000 ec a1 60 3e 19 81 86 be c7 62 b2 be 1e 8f 7c 3e
       0.21936768 -0.2627037 -0.34840986 0.2466397
000010 bd 13 2e be a5 b3 dc be 88 0c a2 be 18 55 7f 3e
       -0.16999717 -0.43105808 -0.31650186 0.24934804
000020 b8 f1 6d bf de fd ce bd
       -0.9294696 -0.10107015

running_var f4 [10]
000000 c8 df 1e 3f 7a 89 af 3e 24 f2 d8 3e 64 f8 a8 3e
       0.62060213 0.34284574 0.4237224 0.33002007
000010 2e 5b cd 3e 02 2c 6d 3e b7 60 41 3f 29 02 82 3e
       0.40108627 0.23161319 0.755382 0.25392273
000020 31 56 aa 3e e6 19 d1 3e
       0.33268884 0.4084007

weight f4 [10, 10, 3, 3]
000000 a3 b5 01 be 99 a6 17 bc a7 c0 1a 3c 7a 88 63 bd
       -0.12666945 -0.009256029 0.009445346 -0.055550076
000010 5b 2b e8 3b 1d bd 5c 3e 0f 3a 7f 3d 22 28 03 bc
       0.0070852465 0.21556516 0.06231123 -0.008005174
000020 02 46 20 3d 93 69 db ba 7d 61 e2 3d 11 cc 18 be
       0.039129265 -0.0016739838 0.11053751 -0.14921595
000030 ef c3 4c 3c 09 cd 12 3e d3 27 ba 3d c6 97 bb bd
       0.012497886 0.14336027 0.09089627 -0.09159808
000040 2d 72 ff bd 4c 09 eb bd 0f f2 32 be 16 96 ca bd
       -0.12472949 -0.114763826 -0.1747515 -0.09891908
000050 7a 4d f7 bd 1f 60 48 be 74 6e cd bd 4f 3a 40 be
       -0.12075324 -0.19567917 -0.10030833 -0.18772243
000060 25 ef 77 be 00 51 06 be ca 8f 2a be 9c c7 ed bd
       -0.2421232 -0.13116837 -0.16656414 -0.11610338
000070 8a 9c ba 3c b2 ce 89 3d 0c 51 d6 3d f0 0b c7 bd
       0.022779722 0.06728877 0.10464677 -0.09719074
000080 a7 98 94 3d d1 36 44 3e 6e 5a 98 bd 3a 2d 7d bd
       0.072556786 0.19161536 -0.07439123 -0.06181071
000090 09 15 75 3c df 07 a3 3b 87 d8 6d 3d 46 00 11 3c
       0.014958628 0.0049753035 0.058067825 0.008850163
0000a0 ac d3 d6 bc 34 d3 06 be 0a c6 97 3d 6f 2d 0d bb
       -0.02622398 -0.13166505 0.0741082 -0.0021541973
0000b0 81 b8 0c 3d 16 7a cd bc 9c fc 03 be db 05 a6 bd
       0.034355644 -0.02508263 -0.12889332 -0.081065856
0000c0 65 80 11 be 48 28 ed bd e7 a5 96 bd 74 d5 ac 3c
       -0.14209135 -0.11579949 -0.07355862 0.021097876
0000d0 c8 12 52 bd 30 06 8d 3d 56 24 c4 bd 02 df a9 bd
       -0.051287442 0.06885946 -0.09577243 -0.082944885
0000e0 e5 24 ab 3d fd f3 b9 bd c6 1a c8 bd 34 96 71 bc
       0.083566464 -0.0907974 -0.09770732 -0.014745284
0000f0 f8 1a 7c 3c bb 76 61 bd d7 28 96 3c 76 c8 b0 bd
       0.015387289 -0.05504487 0.01833002 -0.08631985
000100 e5 be 12 3d ee c6 65 3c 99 47 9a bd be 33 c4 bd
       0.035826582 0.014024479 -0.075331874 -0.095801815
000110 88 f8 6b bd b6 ed cb bc 57 a9 c8 3d b6 2e d7 3d
       -0.057610065 -0.024893623 0.09797924 0.10506956
000120 e7 0c b3 bd 02 47 9a bd 5d fb 00 3e 04 2c f4 3c
       -0.08742695 -0.07533075 0.12595887 0.029806145
000130 b0 28 47 bd 98 f1 e5 bb 54 4b 0a be c8 36 3c be
       -0.048622787 -0.0070173256 -0.13505298 -0.18380272
000140 dc 27 f1 bd aa a6 3d bb f5 77 d1 3b 40 10 a4 3d
       -0.11775181 -0.002893845 0.006392474 0.08010912
000150 fc 18 bc bc 2f 7e 8a 3d 50 00 bd 3d 65 63 ff bd
       -0.022961132 0.06762349 0.09228575 -0.1247013
000160 95 56 af 3c 4f 02 55 bd 8a 4d 93 3c 47 ff ba bc
       0.02140359 -0.052004155 0.01798131 -0.022826804
000170 15 17 e4 3d ff 49 b0 bd 58 63 63 bd 51 6b 87 bd
       0.11137215 -0.08607864 -0.055514663 -0.06612266
000180 72 ba 4e 3d 6a d0 f6 3d 8d 2d fe bb 0c cf fe 3d
       0.050470777 0.120514706 -0.007756895 0.12441835
000190 fc 1a 97 3d eb 43 06 3e 07 65 e7 3d 91 7a af 3d
       0.07378194 0.13111846 0.11298566 0.085682996
0001a0 2e 4a 26 3c 42 2e 07 3d ab c0 d5 bc b5 3d 7e 3d
       0.010149522 0.0330031 -0.026092848 0.062070567
0001b0 60 b9 17 3e 96 a5 a9 3d 61 7e 67 3c a8 b6 23 3e
       0.14816809 0.08283536 0.014129252 0.15987647
0001c0 c7 6c 0c 3d e7 a6 7a 3d e4 fb 9c 3c 12 b9 4d 3d
       0.034283426 0.061194327 0.01916308 0.050225325
0001d0 77 99 03 be e5 d2 6b 3c b2 ce 09 3d eb 59 ca bd
       -0.12851511 0.014393543 0.033644386 -0.09880432
0001e0 52 69 e5 bd 60 87 ac 3c 28 63 0f be c6 2b bd bd
       -0.11201729 0.021060646 -0.14002669 -0.09236865
0001f0 a1 85 9c bd 22 e6 0c be 18 3b c2 3d 1f f3 38 3d
       -0.07642675 -0.13759664 0.094839275 0.045153733
000200 7c cf a1 3d 06 35 fb 3b f5 9f 4b bd a3 ae 2e 3e
       0.07900903 0.007666233 -0.049713094 0.17058806
000210 69 9d c5 3d 4a ac 91 3d 39 27 aa 3d 29 6a 3b bd
       0.09649164 0.0711294 0.083082624 -0.04575554
000220 70 70 91 3d 4d 9d 03 3e 17 32 84 3d 9f eb af 3c
       0.07101524 0.12852974 0.064548664 0.021474658
000230 78 4d 0c 3e ec c2 0d 3d 28 a2 95 3d 78 f7 ea 3c
       0.13701427 0.03460972 0.073063195 0.028682455
000240 e1 d4 9b bd 16 47 8a bd df a9 32 3e 3e a8 cd bd
       -0.07608963 -0.0675184 0.17447613 -0.10041855
000250 45 6f 02 3d 1e a4 0c 3e 06 81 1b 3d d0 9c c2 3d
       0.031844396 0.1373448 0.037964843 0.09502566
000260 6b 19 a2 3d 60 7f 43 3d 86 31 3e bd 86 00 12 bd
       0.07915004 0.047728896 -0.046433948 -0.03564503
000270 5d 88 ad bc 3e 79 f4 bc df d1 78 3d ba 67 e9 bc
       -0.021183187 -0.029842969 0.060747024 -0.028491843
000280 7d c6 8a 3d 5b 6e c8 3d 79 a3 ad bc c0 26 18 3d
       0.0677614 0.09786674 -0.021196114 0.03714633
000290 3a 5b 0d be bb 13 03 3e 3a 2c db bd 0f 1b 3d bd
       -0.13804331 0.12800495 -0.10701795 -0.046168383
0002a0 92 41 ab 3c 50 de 5f bd 23 c9 19 3d 52 38 15 be
       0.02090529 -0.054655373 0.037545335 -0.14572266
0002b0 48 18 ad bc 8e 5d 64 bd c5 f2 2e bc 1e 1e ac 3c
       -0.021129742 -0.055753283 -0.010677998 0.021010455
0002c0 41 dc 67 3d ac 21 af 3c 97 bd bf bc 1b 65 6d bc
       0.056606535 0.02137836 -0.023405833 -0.014489437
0002d0 1f 55 29 3d 66 32 67 bd 83 a9 e9 bd b1 5f e4 3d
       0.041340943 -0.056444548 -0.11409285 0.11151064
0002e0 cd 8f 04 3d 17 a3 b0 bd 33 3f be 3b 7f 7a 0c 3c
       0.0323637 -0.08624857 0.005805874 0.008574127
0002f0 14 27 28 be 3b 8b 8d bc 9f ef f7 3d 36 e2 ed bc
       -0.16421157 -0.017278304 0.12106251 -0.02903853
000300 c4 66 53 3c 38 c4 49 be ee 12 05 be 96 d9 af bd
       0.012902919 -0.19703758 -0.12995502 -0.08586423
000310 db 0b 4a bd 7e 9a 88 bd 84 3d 2d be d5 60 0b be
       -0.049327713 -0.06670092 -0.16917998 -0.13611157
000320 b8 38 84 3c 6c 75 63 bd 80 77 4e bd 96 10 e5 bc
       0.016140327 -0.055531904 -0.050406933 -0.02796201
000330 60 d9 b6 3d c0 c2 dc 3b fc bd f9 3c 0d 75 06 3b
       0.0892818 0.006737083 0.0304861 0.0020516545
000340 71 09 3b 3c e5 c5 17 be f2 68 ad 3d 77 d6 e7 ba
       0.011415825 -0.14821585 0.08467282 -0.0017687817
000350 d0 63 8b bb 12 15 28 3d db 1f d3 3d ac e7 b1 bc
       -0.004253842 0.04103572 0.1030881 -0.021716915
000360 80 22 e3 3c e3 a9 e3 3d c8 f6 a3 3d 5c 2f d1 bd
       0.027726412 0.11116388 0.08006054 -0.10214111
000370 4e 48 1e be 34 5d bc ba 8f cf 20 bd 8b 57 7b 3c
       -0.1545727 -0.0014371038 -0.039260443 0.015340696
000380 4f 8d 53 3d 7a be 6b bb 8a 4a 9f bc d8 c1 20 be
       0.051648434 -0.0035971687 -0.019444723 -0.15698946
000390 ba ea a6 3c 6d cc d5 ba 3c ef 92 be 31 fa a3 3d
       0.020375598 -0.0016311534 -0.28698146 0.080067046
0003a0 6a 79 49 bd 7c 88 c2 bd 15 48 7e 3d ba 93 0d 3b
       -0.049188055 -0.094986886 0.06208046 0.0021602944
0003b0 d6 7e 29 bd 43 59 1d 3d 00 72 a6 bd 48 5a b6 bb
       -0.041380726 0.038415205 -0.081272125 -0.0055649616
0003c0 e3 60 6c 3d 4e 57 8d 3d 97 be 10 3c 27 72 23 3e
       0.057709586 0.06901418 0.008834503 0.15961514
0003d0 49 c2 63 bd 84 3b bb bc 51 e9 76 3d 5d ce a0 bc
       -0.055605207 -0.022855528 0.0602811 -0.019629652
0003e0 61 b3 13 be eb e2 17 be 91 4f b7 3d d0 4c cc bd
       -0.14423896 -0.14832656 0.08950723 -0.09975588
0003f0 77 1f 00 be 36 62 cb bd f6 a4 22 be a3 10 3d 3d
       -0.12512003 -0.099308416 -0.1588324 0.046158444

weight f4 [10]
000000 1e aa 85 3f d6 d3 78 3f 28 57 7e 3f df 0e 88 3f
       1.0442541 0.97198236 0.9935174 1.0629538
000010 29 ab 73 3f 13 00 81 3f 7e d8 79 3f f3 b3 82 3f
       0.95183045 1.0078148 0.97595966 1.0211166
000020 bd 6f 84 3f 84 e4 72 3f
       1.03466 0.9487994

bias f4 [10]
000000 95 d4 05 3c 47 33 f8 3a ba c5 09 bd 58 20 d1 bd
       0.008168359 0.001893618 -0.033635832 -0.10211247
000010 3b 54 4d 3c b8 00 20 be 1c 60 04 3d d3 9c ec bd
       0.012532289 -0.15625274 0.03231822 -0.11553349
000020 a2 ea 13 3d f9 82 96 bc
       0.036112435 -0.018373

running_mean f4 [10]
000000 01 e5 8b bf 4e 48 23 3f f2 cc 14 bf cd 5a c8 bf
       -1.0929261 0.63782203 -0.5812522 -1.565271
000010 22 2d 5c bf 31 82 1f bf c7 45 7f 3f ff 15 07 bf
       -0.8600637 -0.6230803 0.99715847 -0.5276794
000020 50 3c 3f bf c6 de 10 be
       -0.74701405 -0.14147481

running_var f4 [10]
000000 5d 7c 42 3f 12 9a 6b 3f cf b2 0d 3f 95 dc 42 3f
       0.75971013 0.9203197 0.55350965 0.7611783
000010 69 d6 e6 3e e0 48 02 3f 12 61 4f 3f 9d bd 27 3f
       0.45085457 0.5089245 0.8100749 0.655237
000020 36 07 f1 3e e6 1b f8 3e
       0.47075814 0.48458785

weight f4 [20, 10, 3, 3]
000000 11 5f e6 bd ea 7c 1d bd 6d bc eb bd cb 1f 90 3d
       -0.11248601 -0.038449205 -0.11510549 0.07037314
000010 df 82 26 3d 9d 14 af ba 4b e8 05 3c 7f 1b ca 3d
       0.040652152 -0.0013357584 0.008173059 0.09868526
000020 f0 39 bc bd 75 bc 79 bc 0d 16 93 3b fe 8c 00 be
       -0.09190738 -0.015242686 0.0044887126 -0.12553784
000030 e5 b4 c7 3d e4 c4 79 3d 19 a3 0d 3d c8 b8 cf 3d
       0.097513 0.060978785 0.03457937 0.10142666
000040 3e bd 88 3d 5a cf 09 bc 99 aa 62 bd 66 5d 04 3d
       0.0667672 -0.008411253 -0.055338476 0.032315634
000050 43 fe d6 3d 6d 83 86 bd a2 52 e0 bd 08 4a 92 bc
       0.10497715 -0.06568036 -0.10953261 -0.017857566
000060 b3 0f 19 be ff b0 17 be a1 48 94 bd ef 45 a4 3d
       -0.14947395 -0.14813612 -0.07240415 0.08021151
000070 2e de c2 bd b4 6b e0 bd f5 e8 40 3e 90 3f 82 3c
       -0.09515034 -0.10958043 0.18838866 0.01589945
000080 77 de 0d 3d ec e4 2c 3b 42 71 f1 bd 07 6b 3d be
       0.034635987 0.0026381565 -0.1178918 -0.18497859
000090 5f dc ea bc 16 96 a5 bd b8 97 1b be de 41 fd 3d
       -0.028669534 -0.08085267 -0.15194595 0.12366079
0000a0 5a 56 5d 3d 5f 01 a3 bd ee 6f 64 3d 89 0c a6 bd
       0.05403743 -0.07959246 0.055770807 -0.0810786
0000b0 71 bd 8e 3b 8d fb 10 3e 6b ec 93 bc ef 0b 61 bd
       0.0043560793 0.14158459 -0.018057069 -0.05494302
0000c0 66 cd cc 3d d4 8c 1e 3e fe 5e f5 3d 8f ff 6f 3d
       0.10000114 0.15483409 0.11981009 0.05859333
0000d0 45 b1 11 be 8d f5 c8 bd c7 a4 0b be 2b c0 1a be
       -0.14227779 -0.0981246 -0.13637076 -0.15112369
0000e0 07 5d e4 bd d2 5d 89 bc 4a 03 10 3e e9 de af 3b
       -0.11150556 -0.01676837 0.14063755 0.005367149
0000f0 05 5a 85 3d 04 d1 ee bc ab 6d 8a 3d b0 5b e9 3d
       0.065113105 -0.0291524 0.06759199 0.11394441
000100 61 24 b0 3d 44 6e 02 b8 84 78 b1 3d e8 ed c6 3b
       0.08600689 -3.1097108e-05 0.08665565 0.006070841
000110 3e 42 14 be b7 41 1a be 5d f9 f2 3c 52 2a 87 bc
       -0.14478394 -0.1506413 0.029659921 -0.016499672
000120 01 53 3a be 63 8d 4b be a4 ce 2a be 3c d2 76 3d
       -0.18195726 -0.19878154 -0.1668039 0.06025909
000130 01 6b 46 3d e9 ee 86 bd 6f 48 02 be aa 74 87 bb
       0.04844189 -0.06588537 -0.12722944 -0.0041337805
000140 2c 38 8c bd 85 2c b1 3d af 8e 04 3c 65 49 ce bd
       -0.068466514 0.086510696 0.008090659 -0.10072593
000150 1f d2 fd bd f2 1b 5f 3c d4 9c f3 bd c8 5a c4 bd
       -0.12393593 0.0136175025 -0.11895147 -0.09587628
000160 54 78 8d bc e5 92 a7 bd e4 e7 4e bd e4 7e 9c 3d
       -0.017269291 -0.08182315 -0.050514117 0.0764139
000170 b1 d2 57 3c b1 d7 9d 3d 1b ec 26 bc 1e 1c 11 be
       0.013172791 0.077071555 -0.010188128 -0.14170882
000180 ea 6c 76 3d a3 22 18 3e 60 f5 66 be 12 2f b0 bd
       0.060162462 0.14856963 -0.2255454 -0.08602728
000190 5a 3b 17 bd 54 c6 07 3e 98 66 07 bc 9e dc 56 3d
       -0.036921836 0.1325925 -0.008264206 0.05245649
0001a0 5e 82 2a 3c ec b4 16 be 28 81 0b 3b bc b3 a3 bd
       0.0104070585 -0.14717454 0.00212867 -0.07993266
0001b0 d8 42 73 bd 5a 95 7c 3c 69 46 f3 3d 4a 8c 9e bd
       -0.05938992 0.015416468 0.11878664 -0.07741602
0001c0 80 ac 86 3d 99 cb dc 3d 70 33 5b bb 5e b6 89 3c
       0.065758705 0.10781021 -0.0033447407 0.016810592
0001d0 c4 73 da 3c 0b 42 dd 3d e2 7c 31 3d b5 7a d8 3c
       0.02666653 0.10803612 0.04333199 0.026425699
0001e0 dc fa a1 bd 60 b4 80 3b cc 7b 52 3d 4b c7 f7 3c
       -0.07909176 0.0039277524 0.051387593 0.030246397
0001f0 4d 08 b6 bd 9d 14 00 3d 16 7e c8 3d 65 89 e5 3d
       -0.08888302 0.03126966 0.09789674 0.112078466
000200 36 4a 6b 3e 00 3a 0b 3d d7 e4 67 bd 07 d1 b8 bc
       0.22977528 0.03399086 -0.056614723 -0.02256061
000210 e7 92 8e bd e5 74 ee bd 1f 96 b9 bd b8 e6 94 bd
       -0.06961613 -0.116433896 -0.090618365 -0.072705686
000220 bf 0c a9 bd d5 4d d0 bc b1 7f 06 be 8b 8b 72 bd
       -0.08254384 -0.025427738 -0.13134648 -0.05921511
000230 5a fc 58 3d 6b 28 05 3e 41 86 86 3c f4 b3 78 bb
       0.052975036 0.130037 0.01642144 -0.0037949057
000240 b8 0f 24 bd 84 9b 0e bd 5c 5b eb 3d 93 29 08 bd
       -0.040054053 -0.03481628 0.11492035 -0.033242773
000250 e8 1b 9a 3c dd 55 ea 3c 1a 6a c2 bd a5 4e a1 bd
       0.018812135 0.028605396 -0.094928935 -0.078763284
000260 f9 ef d4 bd 87 67 a8 3d a7 7f 8a bc 9e 17 10 be
       -0.10397334 0.08222871 -0.016906573 -0.14071509
000270 6a d7 80 bd 87 0f 56 bd 7f 88 cf bd f5 9a fe bd
       -0.06291087 -0.0522609 -0.101334564 -0.124318995
000280 83 3c b5 3c d3 ec 92 bd 59 fc 07 3d 21 50 0b 3c
       0.02212358 -0.07174077 0.03319964 0.008502991
000290 19 d2 e3 bd 0c ba cc 3b 4d 5e 70 3d f1 fd 92 bd
       -0.11124057 0.0062477645 0.058683682 -0.07177342
0002a0 6b 89 ae bd c2 13 f5 bd bf 39 35 3c a8 56 8e 3d
       -0.08522304 -0.11966659 0.011061131 0.06950122
0002b0 83 16 4c bd 89 80 9f 3d bd a7 0e 3d f6 a6 4c bd
       -0.049826156 0.07788188 0.034827936 -0.049963914
0002c0 4e ef 05 3d 5c 47 1a be c4 f1 a7 3b 08 ca e8 3c
       0.03269892 -0.15066284 0.0051252563 0.028416649
0002d0 fc fe 01 be ab 92 ae bd b8 73 b7 bc e9 ba 24 bd
       -0.12694925 -0.085240684 -0.022394046 -0.040217314
0002e0 6f 0e cb 3c cd 40 d6 bd 8d 0f f7 3d af 39 52 bd
       0.024787156 -0.104615785 0.12063513 -0.051324543
0002f0 f6 32 a0 bd a5 c6 ca b8 3e a2 20 bd 37 5c 01 3d
       -0.0782222 -9.669111e-05 -0.039217226 0.031582084
000300 32 6b a4 3d 88 4a 65 3d d7 e0 bf 3d be 8d 2b bc
       0.080282584 0.05597928 0.09369057 -0.010470806
000310 b6 50 19 bd a2 83 7a 3e 95 20 2e be 17 c3 9a bd
       -0.037430488 0.24464276 -0.17004617 -0.07556742
000320 3e e3 ea bc 5e 9c 87 bd 92 49 38 bd 2e d4 e1 bd
       -0.02867281 -0.066216215 -0.044992037 -0.11026798
000330 37 cc d8 3d 9b a3 0e be be 9b fc bd 48 6c 9f bd
       0.10585826 -0.13929598 -0.12334393 -0.07784325
000340 5a 80 f6 bb c3 d4 97 bd 88 bd 2b 3e 45 55 6d 3d
       -0.007522625 -0.07413628 0.16771519 0.057942647
000350 64 06 00 be f8 68 8a 3d b9 3e 90 bd 60 76 f3 3c
       -0.12502438 0.067583025 -0.070432134 0.029719532
000360 ae f8 0a be c6 f3 5a ba 97 e3 f6 3b 21 f0 f4 bd
       -0.13571426 -0.0008352365 0.007534455 -0.119598635
000370 63 ee 10 3c d7 4a fd bc 57 01 1f be 90 95 dc bc
       0.008845898 -0.030919475 -0.15527855 -0.026926786
000380 14 ad 50 bd 78 69 16 3e fd 0a 50 bd ba 76 0e 3e
       -0.05094631 0.1468867 -0.05079173 0.13912478
000390 30 e1 5b bd 79 ef a8 bc 5b e9 58 bd 38 f2 d6 bd
       -0.053681552 -0.020622002 -0.05295692 -0.10495418
0003a0 e6 0a 26 be d3 cd 0d 3d 65 11 f6 bd a8 fd fb bd
       -0.16215095 0.034620117 -0.120150365 -0.123042405
0003b0 17 a5 fb 3c ef 54 d2 bd 5c a2 b8 3c 75 c9 52 bc
       0.03071837 -0.10270106 0.022538356 -0.012865414
0003c0 6b c4 06 bd 72 8a 17 bd 7e c7 0f 3e 66 74 d1 bd
       -0.032902163 -0.036997266 0.14040944 -0.10227279
0003d0 0d ff e5 bd 56 19 a5 bd 7b 9b c7 bd 1b 2f ad bb
       -0.11230288 -0.08061473 -0.097464524 -0.0052851564
0003e0 f3 5e 58 3d 5b b6 84 3e 59 d1 44 3e 54 ec 23 3e
       0.052824926 0.25920376 0.19220485 0.16008121
0003f0 44 8a fa bd 7f cd 92 3c 0a e0 ec bb 18 d7 d2 bd
       -0.12233403 0.017920254 -0.007228856 -0.10294932

weight f4 [20]
000000 55 af 84 3f 23 9b 83 3f da 61 76 3f 8c 42 7e 3f
       1.0366007 1.0281719 0.9624306 0.9932029
000010 af 2d 83 3f 8b 16 79 3f a0 a3 74 3f af 61 80 3f
       1.0248317 0.9730002 0.9556217 1.0029811
000020 87 78 7e 3f 19 a0 7b 3f ea 3a 81 3f 73 2f 81 3f
       0.9940266 0.98291165 1.0096104 1.0092605
000030 ed 4d 7c 3f 38 c0 7e 3f 88 1b 84 3f 00 73 80 3f
       0.98556405 0.9951205 1.0320902 1.0035095
000040 4a 74 7c 3f b4 b1 80 3f 76 2e 85 3f 08 cc 7d 3f
       0.98614943 1.0054231 1.0404804 0.9913945

bias f4 [20]
000000 75 f4 09 bd 56 53 57 bd fd a8 ad bd de 8c 56 bc
       -0.033680398 -0.05256971 -0.084794976 -0.013095109
000010 72 ed 90 bd 5e e9 79 3c 32 e9 8b bd be 05 9d bc
       -0.07076539 0.015253393 -0.06831588 -0.019167777
000020 78 81 0b bd db e9 28 bd 38 da 58 bd c0 f1 e7 bc
       -0.034059018 -0.041238647 -0.052942485 -0.028313518
000030 b2 38 fa bc 7f ec fe bc 59 49 32 3c cd 79 ab bc
       -0.030544613 -0.03111863 0.010881745 -0.020932103
000040 da 98 b0 bd 37 74 5e bd f0 fe 61 bc bb e5 a9 3b
       -0.08622904 -0.05431005 -0.013793692 0.0051848567

running_mean f4 [20]
000000 f4 ad 44 bf 0a df a4 be 33 5f 02 bf b5 62 b7 be
       -0.7682793 -0.32201415 -0.5092651 -0.35817495
000010 ab c6 b9 be f5 21 df be e1 03 08 be 2f 10 32 ba
       -0.36284384 -0.43580595 -0.1328273 -0.00067925727
000020 fb c8 81 be b3 76 09 bf 6f c4 46 bf 1b 9d 81 be
       -0.25348648 -0.53696746 -0.77643484 -0.25315174
000030 02 a8 f2 3d 6f 8f 9c be 85 5f 9b be b9 77 68 be
       0.11848451 -0.3057818 -0.30346313 -0.2270192
000040 66 84 9c be ac 5a 81 3d 6c 32 59 bf d8 2b 64 be
       -0.30569762 0.063161224 -0.8484256 -0.2228235

running_var f4 [20]
000000 89 65 09 3f 64 a8 a2 3e ad 82 a2 3e 4f d1 f8 3e
       0.53670555 0.31769097 0.31740323 0.4859719
000010 95 53 b7 3e a0 c9 b6 3e 4c ca eb 3e 94 67 ef 3e
       0.35805956 0.35700703 0.46052778 0.4675871
000020 8f ff 91 3e 2b c3 d4 3e 84 90 a3 3e 1a e9 e5 3e
       0.28515288 0.4155515 0.31946194 0.44904405
000030 0b c9 b7 3e ee 74 15 3f d3 f2 01 3f 48 e4 d1 3e
       0.3589557 0.58381546 0.50761145 0.40994477
000040 b5 5c 85 3e d4 a3 e0 3e 02 3c 02 3f 44 a6 bb 3e
       0.26047292 0.4387499 0.50872815 0.36650288
