mlruns/271458266826723899/models/m-7cb34c76fdcf4ce2b0348114e30349d3/artifacts/data/model.pth (torch, 78489 bytes, 32 tensors)

weight f4 [16, 1, 3, 3]
0.2163707 0.24268326 -0.122051425 0.091217 0.1524442 -0.26317212 -0.22572693 -0.40836903
-0.20163268 0.240417 -0.3289836 -0.36420712 0.051011477 0.21587676 0.122368194 0.12937233
0.11648767 -0.05350199 0.2754037 0.4423326 0.03772383 -0.0074241487 -0.10558643 -0.2450629
-0.018642452 0.14729027 -0.32715234 0.20220314 0.18078269 -0.41600332 0.2665845 -0.22048667
-0.24962814 -0.18013872 0.0822357 -0.21761398 -0.20860687 -0.3173198 -0.25556272 -0.3308803
0.13597226 -0.070498586 -0.09376456 -0.06847609 0.21855251 -0.33107892 -0.32826164 0.12305087
-0.11351638 -0.017089449 0.23774557 0.08516792 -0.032540623 0.39646426 0.07276001 0.29599613
0.330632 -0.2199489 -0.35968903 0.20406407 -0.06823822 -0.13080446 -0.05580444 0.11670004
0.24364907 0.2112427 -0.102265604 0.20037615 0.04635294 -0.44965994 -0.1963609 -0.431305
0.022981938 -0.10457266 -0.16616131 0.08216412 -0.26752242 -0.20898429 0.47727376 0.11199276
0.00070676097 0.20095968 0.17032517 0.29238978 -0.4385957 -0.26942307 0.21829732 -0.19514553
0.052184112 0.20754546 -0.07543022 -0.18453693 -0.35208014 0.11304454 0.25836024 -0.058849007
0.10916461 0.16494067 0.17881088 -0.16257131 0.021956043 -0.173282 -0.11387775 -0.2394259
0.1085864 0.29944453 -0.14448279 -0.28074285 0.39349797 -0.3332459 -0.18742056 0.25624603
-0.06687589 -0.08267523 0.024478562 -0.038048312 0.2308208 -0.25104198 0.12010959 0.1206215
0.32300255 0.015391177 -0.103253745 0.27838212 -0.18377236 -0.19343756 -0.15615696 0.20471953
0.3381093 -0.325364 0.19409706 0.27265233 0.045526512 -0.09868643 -0.18329571 0.021859717
-0.19622825 0.38915685 -0.2930958 -0.16461207 0.15451737 -0.24575353 -0.27760604 -0.2738949
00000000: 4890 5d3e f681 783e 19f6 f9bd facf ba3d
00000010: 551a 1c3e 7fbe 86be f624 67be bf15 d1be
00000020: cc78 4ebe e02f 763e 8a70 a8be 5b79 babe
00000030: 69f1 503d cc0e 5d3e 2d9c fa3d 2e7a 043e
00000040: 1691 ee3d e724 5bbd b701 8d3e 6b79 e23e
00000050: 4e84 1a3d 4646 f3bb b33d d8bd c5f1 7abe
00000060: 0eb8 98bc 43d3 163e 8380 a7be 570e 4f3e
00000070: 191f 393e 63fe d4be c37d 883e 42c7 61be
00000080: 859e 7fbe 4976 38be 316b a83d 33d6 5ebe
00000090: 0a9d 55be be77 a2be 1ed9 82be 2569 a9be
000000a0: 503c 0b3e 9061 90bd a207 c0bd 313d 8cbd
000000b0: 3bcc 5f3e 2d83 a9be e911 a8be 1802 fc3d
000000c0: 477b e8bd 2cff 8bbc 9373 733e 856c ae3d
000000d0: 5149 05bd 5dfd ca3e 3303 953d ce8c 973e
000000e0: 9948 a93e 493a 61be 2929 b8be 2cf6 503e
000000f0: 7bc0 8bbd 9bf1 05be 3293 64bd 6e00 ef3d
00000100: 247f 793e 0250 583e a170 d1bd 682f 4d3e
00000110: 95dc 3d3d d439 e6be d512 49be 02d4 dcbe
00000120: 9e44 bc3c 312a d6bd 3126 2abe aa45 a83d
00000130: b3f8 88be faff 55be 3a5d f43e 765c e53d
00000140: ed45 393a 60c8 4d3e b969 2e3e 1db4 953e
00000150: 9e8f e0be d2f1 89be 5589 5f3e 3bd4 47be
00000160: 02bf 553d cc86 543e 297b 9abd 40f7 3cbe
00000170: d943 b4be e583 e73d cb47 843e a80b 71bd
00000180: b291 df3d 35e6 283e 331a 373e 1879 26be
00000190: 29dd b33c d670 31be bd38 e9bd 102c 75be
000001a0: 8c62 de3d cb50 993e 4cf3 13be 87bd 8fbe
000001b0: 9178 c93e 359f aabe 2deb 3fbe ae32 833e
000001c0: 3af6 88bd a251 a9bd 4487 c83c 8cd8 1bbd
000001d0: 4a5c 6c3e 9388 80be 04fc f53d 6808 f73d
000001e0: 9760 a53e 462b 7c3c b376 d3bd 1a88 8e3e
000001f0: d22e 3cbe 7f14 46be 9ce7 1fbe ffa1 513e
00000200: aa1c ad3e 1c96 a6be 61c1 463e 1699 8b3e
00000210: 027a 3a3d 1c1c cabd dfb1 3bbe 2613 b33c
00000220: 0ff0 48be 913f c73e a710 96be 1190 28be
00000230: cd39 1e3e d0a6 7bbe 6122 8ebe f43b 8cbe

weight f4 [16]
0.93765175 0.98194903 0.9965933 0.9433163 0.9227697 1.0020707 1.0640978 1.0917698
1.0273246 1.0218067 1.0112735 0.9519821 0.9510052 1.0326853 1.0018641 1.0406047
00000000: f209 703f 0361 7b3f bd20 7f3f 2d7d 713f
00000010: a33a 6c3f da43 803f 5b34 883f 1dbf 8b3f
00000020: 5f7f 833f 90ca 823f 6971 813f 19b5 733f
00000030: 1475 733f 082f 843f 153d 803f 8932 853f

bias f4 [16]
0.06774325 0.058085952 0.06387448 -0.010713892 0.055961765 0.05964318 0.04615771 0.06477522
0.121698126 0.024146225 0.12268002 -0.04314185 -0.028197667 0.076800995 -0.015932422 0.018954242
00000000: f9bc 8a3d 89eb 6d3d a0d0 823d 5289 2fbc
00000010: 2a38 653d 684c 743d de0f 3d3d dfa8 843d
00000020: de3c f93d 4ece c53c aa3f fb3d 82b5 30bd
00000030: cbfe e6bc d749 9d3d b684 82bc ed45 9b3c

running_mean f4 [16]
0.2464021 0.12921101 0.18100706 0.23764929 0.32068995 0.18414655 0.1293014 0.21632534
0.12832704 0.1871932 0.14881232 0.20949939 0.13729306 0.11115258 0.1919907 0.30157065
00000000: d550 7c3e e44f 043e ea59 393e 565a 733e
00000010: 7931 a43e ea90 3c3e 9667 043e 6484 5d3e
00000020: 2a68 033e 93af 3f3e 4262 183e 0287 563e
00000030: 8d96 0c3e f7a3 e33d 3699 443e 7867 9a3e

running_var f4 [16]
0.084466726 0.11399264 0.21893938 0.06747425 0.04215416 0.24342184 0.13855736 0.12829094
0.12321232 0.2209506 0.15211701 0.02277651 0.11921167 0.08940271 0.22345302 0.053805605
00000000: e4fc ac3d f974 e93d a531 603e f12f 8a3d
00000010: d7a9 2c3d 9343 793e fbe1 0d3e b35e 033e
00000020: be56 fc3d e040 623e 90c4 1b3e ce95 ba3c
00000030: 3f25 f43d c518 b73d ded0 643e 4463 5c3d

weight f4 [32, 16, 3, 3]
0.02945103 -0.096435726 0.034429587 0.01297978 -0.057260714 0.02681337 -0.10085604 -0.118982814
0.10107947 -0.09625653 -0.07254263 0.06436453 -0.093242 0.029992394 -0.03568321 -0.008315346
0.052644715 -0.042846058 -0.020506227 -0.052647434 0.10384207 -0.12761642 -0.13012925 0.0780788
-0.09870426 -0.07642503 0.009864085 -0.011804437 -0.014677948 0.0019064919 -0.014817938 -0.022784013
0.025212687 0.031235164 -0.029068626 0.12445858 0.053508095 0.042488 -0.00797454 0.007493254
-0.031738564 -0.023515645 -0.02828705 -0.13575666 0.005272929 -0.07867203 -0.018230537 0.006238235
-0.036372613 0.045543313 -0.012538662 0.051351335 0.03968871 0.08627764 0.0015612718 0.013403179
-0.060674276 -0.03892233 0.062138483 -0.03973231 -0.035553128 0.027227279 -0.024020042 0.010128862
0.0077306163 0.015743325 -0.08694751 0.013793906 0.030944204 -0.023386935 0.011357815 -0.010179435
-0.08133972 -0.07631403 -0.06386855 0.0037867234 -0.08880749 -0.045221616 -0.04662917 0.11894687
0.060066145 -0.04908785 0.04438628 0.025498202 0.047189917 0.022100072 -0.031221006 -0.02506505
0.007505456 0.07347896 -0.10841306 -0.12510167 0.060363095 -0.10627498 0.027411502 0.0495185
0.040906493 -0.07184145 0.003429352 -0.024392668 0.0022466583 -0.038648736 0.018774955 0.038765162
0.037905667 -0.06767426 -0.03626225 -0.04595233 -0.04245449 -0.10865022 -0.100340955 0.023574535
-0.0874895 -0.063289635 -0.051875703 -0.08074611 0.06777454 0.020648539 -0.11837787 -0.037696812
-0.08889811 -0.08162403 0.03632962 -0.08287348 0.06768451 0.06236867 -0.08728534 0.03759117
0.002997984 -0.09504673 0.085104816 0.009187174 -0.10898397 0.06080533 -0.01833789 -0.04562703
0.022097185 -0.13928773 0.039501183 0.016228512 -0.10835661 0.12448391 0.039550684 -0.14061676
-0.030162012 -0.022284878 0.09940854 0.10526419 0.007325678 0.04850047 0.05298336 0.11712852
0.0690223 0.09577739 -0.031417098 0.015754139 0.04203072 0.02999925 -0.015090811 -0.010885995
0.07822065 0.030543482 -0.028682774 -0.008039039 0.048797783 0.043831933 0.06702084 0.061394766
0.0956275 0.028858818 -0.030376567 0.10350352 0.0105222585 -0.00802906 0.08933829 0.027034687
0.018774355 -0.05225178 0.031156393 -0.0010989499 -0.11994158 -0.10905406 0.06564845 -0.021330314
0.051100854 0.020849459 0.035698455 -0.07041352 -0.038608044 0.067802496 -0.10317342 -0.06906925
-0.07233432 -0.007597963 -0.08574714 -0.009166006 0.058665007 -0.090673335 0.00027832194 -0.024398306
0.009189294 -0.083945304 0.04559856 -0.058819775 -0.045628242 -0.01640825 0.0045428136 0.0059755975
-0.014643789 -0.01806609 0.03827046 0.050810788 0.029079936 0.03409565 0.104688846 0.070661135
-0.04430874 -0.0031939175 0.021154027 -0.028721876 -0.016288517 -0.025215914 -0.018936949 0.05638993
-0.025417142 0.039387137 0.039197545 -0.12818408 -0.06457746 -0.018078921 -0.10858143 -0.07127441
-0.13343748 0.02811135 0.05769875 0.055225424 -0.06932697 -0.02517831 -0.008195729 -0.09028041
-0.03888301 -0.061538264 0.0036290658 0.055840924 0.05733168 0.04960979 -0.05943427 -0.0918997
0.06139351 -0.010273418 0.03439766 0.013959146 0.0005048224 -0.0037931208 -0.007288731 -0.0422257
00000000: 4943 f13c 1880 c5bd 0a06 0d3d 25a9 543c
00000010: 368a 6abd b6a7 db3c 9d8d cebd 43ad f3bd
00000020: c102 cf3d 2522 c5bd 3b91 94bd 8dd1 833d
00000030: a9f5 bebd 9cb2 f53c 8f28 12bd 173d 08bc
00000040: fca1 573d 597f 2fbd adfc a7bc d6a4 57bd
00000050: 27ab d43d e1ad 02be 9a40 05be c7e7 9f3d
00000060: 7625 cabd ba84 9cbd f99c 213c 6667 41bc
00000070: c77b 70bc 41e3 f93a f0c6 72bc 8aa5 babc
00000080: d68a ce3c e3e0 ff3c 5421 eebc 24e4 fe3d
00000090: 4e2b 5b3d e607 2e3d a5a7 02bc f889 f53b
000000a0: 4c00 02bd e2a3 c0bc 3eba e7bc cb03 0bbe
000000b0: 89c8 ac3b cd1e a1bd 3558 95bc 1c6a cc3b
000000c0: 73fb 14bd a08b 3a3d f66e 4dbc c755 523d
000000d0: a190 223d 55b2 b03d 97a3 cc3a 0299 5b3c
000000e0: 9785 78bd 056d 1fbd ec84 7e3d 59be 22bd
000000f0: 28a0 11bd be0b df3c aec5 c4bc 87f3 253c
00000100: 1c51 fd3b 25f8 803c 8911 b2bd d6ff 613c
00000110: b37e fd3c f595 bfbc 2116 3a3c a5c7 26bc
00000120: 7095 a6bd 884a 9cbd 84cd 82bd ad2a 783b
00000130: b4e0 b5bd 4d3a 39bd 3bfe 3ebd 6b9a f33d
00000140: eb07 763d 5710 49bd 63ce 353d 9be1 d03c
00000150: 374a 413d 360b b53c 32c3 ffbc 3855 cdbc
00000160: 54f0 f53b 237c 963d ab07 debd a71a 00be
00000170: 4b3f 773d b2a6 d9bd 168e e03c e9d3 4a3d
00000180: 918d 273d 9c21 93bd fbbe 603b 22d3 c7bc
00000190: ac3c 133b 234e 1ebd efcd 993c 38c8 1e3d
000001a0: f942 1b3d cd98 8abd ba87 14bd 8338 3cbd
000001b0: c2e4 2dbd 0284 debd 8f7f cdbd 621f c13c
000001c0: b22d b3bd ff9d 81bd 9e7b 54bd 375e a5bd
000001d0: 61cd 8a3d 2027 a93c 1970 f2bd f967 1abd
000001e0: 3610 b6bd 802a a7bd 5ece 143d 92b9 a9bd
000001f0: 2d9e 8a3d 4a76 7f3d a8c2 b2bd 33f9 193d
00000200: d379 443b dca7 c2bd 6f4b ae3d cd85 163c
00000210: fd32 dfbd 020f 793d 5839 96bc 69e3 3abd
00000220: 2805 b53c 71a1 0ebe fecb 213d a8f1 843c
00000230: 12ea ddbd 6cf1 fe3d e6ff 213d d7fd 0fbe
00000240: 5316 f7bc c78e b6bc b496 cb3d c094 d73d
00000250: 3e0c f03b 6ea8 463d 1405 593d 14e1 ef3d
00000260: 905b 8d3d f026 c43d 37af 00bd d30e 813c
00000270: 6728 2c3d fdc0 f53c 733f 77bc 2c5b 32bc
00000280: 2632 a03d 5336 fa3c 23f8 eabc 2cb6 03bc
00000290: 2fe0 473d 1d89 333d 3942 893d 1479 7b3d
000002a0: 5ad8 c33d 5469 ec3c 47d8 f8bc a7f9 d33d
000002b0: 8d65 2c3c 528c 03bc fef6 b63d d977 dd3c
000002c0: adcc 993c f605 56bd b13b ff3c a40a 90ba
000002d0: eea3 f5bd bc57 dfbd b272 863d e9bc aebc
000002e0: 214f 513d 7ccc aa3c 8b38 123d f734 90bd
000002f0: 7823 1ebd 09dc 8a3d 964c d3bd 2e74 8dbd
00000300: 0424 94bd 55f8 f8bb 329c afbd 042d 16bc
00000310: b84a 703d f1b2 b9bd bdeb 9139 f5de c7bc
00000320: b18e 163c 84eb abbd 8ec5 3a3d 01ed 70bd
00000330: aee4 3abd 986a 86bc e2db 943b f2ce c33b
00000340: 81ec 6fbc 56ff 93bc 7cc1 1c3d f91e 503d
00000350: 0c39 ee3c e1a7 0b3d 1b67 d63d c9b6 903d
00000360: 157d 35bd 0b51 51bb 364b ad3c 244a ebbc
00000370: 7f6f 85bc 9b91 cebc a921 9bbc 21f9 663d
00000380: 9c37 d0bc 6854 213d 9b8d 203d b042 03be
00000390: 3041 84bd 3f1a 94bc f15f debd 51f8 91bd
000003a0: d6a3 08be c649 e63c 8655 6c3d 0e34 623d
000003b0: 4cfb 8dbd be42 cebc 6147 06bc f0e4 b8bd
000003c0: cb43 1fbd 8c0f 7cbd 9fd5 6d3b 74b9 643d
000003d0: a0d4 6a3d a333 4b3d 5971 73bd e935 bcbd
000003e0: c377 7b3d d751 28bc 90e4 0c3d e7b4 643c
000003f0: 0f56 043a 0296 78bb 4fd6 eebb dbf4 2cbd

weight f4 [32]
1.0019094 1.0186553 1.019216 0.9829415 0.973807 0.99659735 1.0864553 0.9821779
1.010874 1.0166292 0.9893834 0.99949723 1.0135101 0.98682976 1.0289705 0.987733
0.98937833 0.99099225 0.9841502 1.0405773 0.94459015 0.9673333 1.0042366 1.0040332
0.9841595 0.974264 0.9758861 0.9353889 1.031514 1.0859671 0.97799486 1.001383
00000000: 913e 803f 4c63 823f ab75 823f 0ea2 7b3f
00000010: 6a4b 793f 0121 7f3f f810 8b3f 0370 7b3f
00000020: 5264 813f e820 823f 3b48 7d3f 0ddf 7f3f
00000030: b3ba 813f e0a0 7c3f 4eb5 833f 12dc 7c3f
00000040: e647 7d3f abb1 7d3f 44f1 7b3f a331 853f
00000050: a9d0 713f 28a3 773f d38a 803f 2984 803f
00000060: e1f1 7b3f 5e69 793f acd3 793f a675 6f3f
00000070: a708 843f f800 8b3f df5d 7a3f 512d 803f

bias f4 [32]
-0.017800057 0.03255955 0.038341038 0.005759154 -0.0043581375 0.06966368 -0.039432686 0.083720684
-0.021225002 -0.0057008103 -0.05855504 0.016673787 -0.005900287 0.057008687 0.057585306 -0.06446248
0.08331188 -0.044752594 0.03324991 0.054260865 -0.023874529 -0.004399817 -0.027902393 0.03666376
-0.07696798 0.04343888 -0.025472317 -0.023551917 0.041452352 0.07778507 -0.02845934 0.06082812
00000000: 6dd1 91bc 2a5d 053d 7e0b 1d3d 49b7 bc3b
00000010: b5ce 8ebb d5ab 8e3d 2b84 21bd c075 ab3d
00000020: 0ee0 adbc ddcd babb 69d7 6fbd 7797 883c
00000030: 3257 c1bb f181 693d 92de 6b3d e804 84bd
00000040: 6b9f aa3d 7f4e 37bd 0f31 083d a440 5e3d
00000050: 8494 c3bc 572c 90bb 8f93 e4bc bd2c 163d
00000060: 63a1 9dbd f8ec 313d 52ab d0bc f3ef c0bc
00000070: f1c9 293d c74d 9f3d 9023 e9bc e826 793d

running_mean f4 [32]
0.45023507 0.44202513 0.5510703 0.49312925 0.39790568 0.5376722 0.4660959 0.43639636
0.338069 0.61026263 0.3777731 0.33629513 0.30516106 0.5943539 0.574202 0.43327615
0.63220274 0.40374506 0.44916844 0.6284441 0.23407845 0.4079635 0.44224948 0.44298485
0.389882 0.41915178 0.32786864 0.30378327 0.52567405 0.50934744 0.41531265 0.59413785
00000000: 3685 e63e 1e51 e23e f112 0d3f 707b fc3e
00000010: 4bba cb3e e3a4 093f 1fa4 ee3e 586f df3e
00000020: 6117 ad3e 2c3a 1c3f 7a6b c13e e02e ac3e
00000030: 123e 9c3e 9427 183f e7fe 123f 5fd6 dd3e
00000040: 0ad8 213f acb7 ce3e 68f9 e53e b6e1 203f
00000050: 43b2 6f3e 98e0 d03e 866e e23e e9ce e23e
00000060: 9d9e c73e 109b d63e 66de a73e 7b89 9b3e
00000070: 9392 063f 9864 023f dca3 d43e 6b19 183f

running_var f4 [32]
0.40519592 0.66919833 0.7457499 0.9502468 0.92953014 0.36950573 1.4861053 0.1695631
0.5641594 0.7029797 0.342689 0.86810505 0.527902 0.3239702 0.5960592 0.7844194
0.63421124 0.29354715 0.3247488 0.3683229 0.41027734 0.5198729 0.6110124 0.9411405
0.34382418 0.38369653 0.2434115 0.70394987 0.68138564 0.28483364 0.7319732 0.3429186
00000000: d775 cf3e 9550 2b3f 77e9 3e3f 6043 733f
00000010: b0f5 6d3f db2f bd3e b338 be3f f3a1 2d3e
00000020: c06c 103f 7af6 333f ef74 af3e 223c 5e3f
00000030: 9624 073f 6cdf a53e 5697 183f b6cf 483f
00000040: ab5b 223f d04b 963e 7a45 a63e d294 bc3e
00000050: df0f d23e 6416 053f 4f6b 1c3f 95ee 703f
00000060: b909 b03e df73 c43e dd40 793e 0f36 343f
00000070: 4a6f 2e3f b7d5 913e 9862 3b3f 0793 af3e

weight f4 [10, 32, 1, 1]
0.16122457 -0.1100627 -0.17379849 -0.20309456 -0.018687848 -0.21370193 -0.107959695 0.078551315
-0.13592187 -0.122540794 0.07173239 0.15461478 0.14336896 -0.038852826 -0.254707 0.15241835
0.01816572 0.18505962 -0.112656206 0.008087476 0.011507167 -0.082517445 -0.30439663 0.08196848
0.15362385 -0.1888099 0.16995536 0.1206932 0.077211924 -0.08209184 -0.27706584 -0.14246792
-0.11431942 0.28245804 0.13745958 -0.07594741 0.118659526 -0.18961957 0.044075377 -0.0044507813
-0.059356723 -0.052970763 0.11098396 0.09181042 -0.062735714 -0.21784313 0.15775733 0.019886121
-0.17370048 -0.060091745 -0.11195889 -0.052720644 0.21076918 -0.085326485 -0.1341141 -0.07431926
0.2445643 -0.039639983 0.26397052 0.0709401 -0.07477158 0.00981628 -0.043133944 0.19436075
-0.09232367 -0.15874474 -0.13283536 0.10081551 0.15778485 -0.042372867 0.43506894 0.015971703
0.2898836 0.36576322 0.16843253 -0.12720259 -0.10660953 -0.12908521 -0.03269271 -0.09444256
-0.09709839 0.104744256 0.056951236 -0.20200546 -0.09349167 0.13836569 0.08113291 -0.18202226
0.16442354 0.013554293 0.08393003 0.099909775 -0.07148081 -0.089517415 0.036318056 0.0565287
-0.07577688 0.069363326 -0.068064906 -0.16367191 -0.08304112 -0.015604721 -0.08786046 0.109473936
-0.21681261 0.19791904 -0.0856299 0.025915489 -0.0037541615 0.22325204 -0.13586338 -0.20424664
-0.08090059 0.21413168 0.21147344 0.20371829 -0.054885864 -0.008854113 0.10441749 -0.12626487
0.047526784 -0.069280565 -0.07780481 -0.007835528 0.097111195 0.3529946 0.030585628 -0.044815484
-0.09622141 0.17245588 -0.06853182 0.018123338 0.00016348666 -0.011868132 -0.077076495 -0.02937466
0.01860418 0.03816999 0.022644445 -0.1300694 0.0036329334 0.19163524 0.2126898 -0.18354173
0.069491364 0.19010022 -0.12936781 -0.04914725 -0.14356466 -0.048214074 -0.004566098 -0.018444853
-0.032577526 0.10779292 -0.09551335 -0.034677234 0.21677947 -0.07122768 -0.075491525 -0.19645253
-0.14852877 -0.104820386 0.039277237 -0.26711693 -0.004764071 0.09410914 -0.063069165 -0.19479631
-0.037653565 -0.100406006 0.2581795 -0.087538294 0.25551745 -0.062231474 -0.114274725 -0.09284293
-0.11804856 0.23659931 -0.1107469 0.06214367 0.070436455 0.08978424 -0.15744922 -0.13820443
-0.057849593 -0.05601537 -0.047972776 0.046575896 -0.05595697 -0.25854585 0.22635707 -0.22534254
0.14799066 0.04028175 0.35496533 -0.06907657 0.040665686 0.009141879 -0.008277053 -0.2236468
0.06993392 -0.07018764 -0.051221836 0.036588054 0.2003217 0.06304442 -0.04698698 0.009281325
0.022279011 -0.12261219 -0.2056863 0.3109707 0.08138144 -0.053644937 0.038312018 0.3028849
0.05105292 0.10985088 0.02501848 0.034945764 0.27792627 0.018648282 0.06325789 -0.073121294
-0.13493223 0.036064498 0.19448338 -0.06287607 0.026257724 -0.14778538 -0.17760596 -0.003333184
-0.024021415 0.09945488 0.09247334 0.43181023 0.060683463 -0.004294283 0.029945092 -0.035866342
0.22536944 -0.07213903 -0.04714817 -0.008900705 0.073840395 0.3228315 0.03366633 0.010008198
0.052753977 0.12400021 -0.019111583 0.19178383 0.2565451 -0.2768172 0.079835206 -0.048619185
00000000: 0e18 253e 8e68 e1bd 3bf8 31be 05f8 4fbe
00000010: 4217 99bc aed4 5abe f919 ddbd 83df a03d
00000020: 1a2f 0bbe abf6 fabd 6ee8 923d 5653 1e3e
00000030: 50cf 123e 2424 1fbd f568 82be 8e13 1c3e
00000040: 47d0 943c 4580 3d3e 4cb8 e6bd 5581 043c
00000050: 8e88 3c3c e8fe a8bd e0d9 9bbe 17df a73d
00000060: 924f 1d3e 6257 41be c708 2e3e ff2d f73d
00000070: 4921 9e3d c41f a8bd 93db 8dbe 1ce3 11be
00000080: 4d20 eabd 579e 903e 34c2 0c3e 518a 9bbd
00000090: c403 f33d a22b 42be 6288 343d dcd7 91bb
000000a0: 0920 73bd dff7 58bd 8f4b e33d 1a07 bc3d
000000b0: 957b 80bd 4512 5fbe 238b 213e 38e8 a23c
000000c0: 8ade 31be c322 76bd b44a e5bd 9af1 57bd
000000d0: e0d3 573e a7bf aebd 3555 09be b234 98bd
000000e0: 106f 7a3e 895d 22bd 2527 873e 0b49 913d
000000f0: d821 99bd 76d4 203c 38ad 30bd 8106 473e
00000100: 3114 bdbd fb8d 22be fe05 08be 5d78 ce3d
00000110: 5a92 213e 2c8f 2dbd 5bc1 de3e 17d7 823c
00000120: a06b 943e 5145 bb3e 9479 2c3e 6541 02be
00000130: 1956 dabd ea2e 04be cbe8 05bd 1a6b c1bd
00000140: 85db c6bd 2884 d63d b345 693d 85da 4ebe
00000150: 9078 bfbd bcaf 0d3e 0329 a63d 0b64 3abe
00000160: a55e 283e d312 5e3c 82e3 ab3d 7f9d cc3d
00000170: 8864 92bd e854 b7bd 3ec2 143d a38a 673d
00000180: e930 9bbd 5c0e 8e3d 9d65 8bbd 9c99 27be
00000190: 7611 aabd f2aa 7fbc 2ff0 b3bd df33 e03d
000001a0: 2004 5ebe 4aab 4a3e bb5e afbd b84c d43c
000001b0: 6108 76bb 2f9c 643e c51f 0bbe 0826 51be
000001c0: 35af a5bd 5645 5b3e 7e8c 583e 879b 503e
000001d0: 00d0 60bd d710 11bc d6d8 d53d 944b 01be
000001e0: 72ab 423d f8e2 8dbd 2158 9fbd 9660 00bc
000001f0: 3ce2 c63d b5bb b43e b68e fa3c 7190 37bd
00000200: bb0f c5bd 4698 303e 695a 8cbd 6577 943c
00000210: 9e6d 2b39 8e72 42bc 48da 9dbd 21a3 f0bc
00000220: cb67 983c 2358 1c3d d880 b93c ea30 05be
00000230: 8216 6e3b 073c 443e 5bcb 593e 5df2 3bbe
00000240: 7d51 8e3d a2a9 423e ff78 04be a04e 49bd
00000250: 9d02 13be 1f7c 45bd 359f 95bb a919 97bc
00000260: 0370 05bd 89c2 dc3d 819c c3bd b709 0ebd
00000270: 70fb 5d3e d1df 91bd 4d9b 9abd da2a 49be
00000280: ed17 18be 12ac d6bd 2be1 203d 8dc3 88be
00000290: ed1b 9cbb 4bbc c03d 682a 81bd af78 47be
000002a0: a03a 1abd aaa1 cdbd 1a30 843e 4747 b3bd
000002b0: 2fd3 823e 6ee6 7ebd de08 eabd 6f24 bebd
000002c0: 72c3 f1bd 1747 723e 45cf e2bd 5c8a 7e3d
000002d0: fd40 903d cde0 b73d 5e3a 21be 7685 0dbe
000002e0: b2f3 6cbd 5f70 65bd 1a7f 44bd 5ec6 3e3d
000002f0: 2333 65bd 1f60 84be 26ca 673e 32c0 66be
00000300: dd8a 173e 7afe 243d 04be b53e 0478 8dbd
00000310: 1091 263d d2c7 153c 7a9c 07bc ab03 65be
00000320: 8439 8f3d 8abe 8fbd fdcd 51bd 5bdd 153d
00000330: 2221 4d3e 6f1d 813d 6b75 40bd b310 183c
00000340: 7982 b63c 1a1c fbbd 6e9f 52be 8d37 9f3e
00000350: 50ab a63d cbba 5bbd 10ed 1c3d bb13 9b3e
00000360: de1c 513d 80f9 e03d 8ef3 cc3c 4a23 0f3d
00000370: 5a4c 8e3e 48c4 983c 5a8d 813d 9ec0 95bd
00000380: ad2b 0abe 5eb8 133d a726 473e 2bc5 80bd
00000390: 701a d73c 0d55 17be 56de 35be 8c71 5abb
000003a0: 8fc8 c4bc 00af cb3d aa62 bd3d 3b16 dd3e
000003b0: 398f 783d 0fb7 8cbb 694f f53c 96e8 12bd
000003c0: 3fc7 663e a1bd 93bd 711e 41bd 43d4 11bc
000003d0: a239 973d 2c4a a53e b5e5 093d 6df9 233c
000003e0: 8e14 583d d2f3 fd3d e58f 9cbc fb62 443e
000003f0: e159 833e fcba 8dbe a480 a33d e924 47bd

weight f4 [16, 10, 3, 3]
0.06749131 -0.0043678554 0.017696712 0.035596553 0.1257246 0.15001863 0.07831639 0.1256127
0.14474519 0.10025837 0.02140099 0.06915987 -0.04941695 -0.05943481 0.088364586 -0.09276551
-0.041322045 -0.3392756 0.17067167 0.12288756 0.012084103 0.2064087 0.011826057 -0.13583358
-0.07366865 -0.10353906 -0.17330088 -0.1388178 0.0045632417 -0.036981948 -0.00811869 -0.121152766
-0.022155855 -0.025466822 -0.01366154 0.17029491 0.03498895 -0.11835982 -0.0056423354 -0.0996634
0.05444934 0.013904706 0.033248458 -0.08081502 0.056430798 0.05938474 -0.029205203 -0.1457443
0.06741335 -0.054350503 -0.10626051 0.08911227 0.12690659 0.1452621 0.03253784 -0.0664315
-0.051071096 0.050504297 -0.0029463696 -0.07712821 0.12627947 0.03550969 -0.076925516 0.1732489
-0.08688893 -0.2625786 0.08607488 0.009912782 -0.19808611 0.07178224 0.13926089 -0.016150152
-0.09201064 0.022322072 0.0062237196 0.008150215 -0.014161816 -0.10721616 -0.004407843 -0.0059485245
-0.1406776 0.029499477 0.055266257 0.25732788 -0.017881708 0.011356704 0.16880389 0.06631264
-0.019848937 -0.16348547 0.054718986 0.027237045 -0.016057197 0.071177125 0.02388846 0.04602202
-0.05431856 -0.038883258 -0.12632 0.14057808 -0.131648 -0.12105306 0.08425732 0.08371758
0.020125724 -0.020203805 -0.0022871385 0.059150036 -0.07023301 -0.09841226 -0.101902425 -0.108027816
-0.076241985 -0.083339356 0.08294054 0.010179778 0.13200603 -0.100416414 -0.10676349 -0.06901004
-0.009795833 -0.02796597 0.033213947 0.019006705 -0.046215057 -0.1610366 -0.1593936 -0.16170007
-0.0032330395 -0.06801458 0.040476516 -0.014846215 2.190988e-05 -0.0033968685 0.037237294 0.025426332
0.13386503 0.07105596 0.07427174 -0.01396815 0.14386033 0.06413781 -0.026123257 0.12900417
-0.09493926 0.0304588 0.113478124 -0.041888233 0.07058501 0.16446355 -0.107871935 -0.036772583
0.102141276 -0.092772625 -0.08045373 0.038419653 0.026980033 -0.13460581 0.179073 -0.11392859
-0.11010264 0.098238096 0.04082907 -0.1597448 -0.12422296 -0.18131879 0.013215546 -0.028539926
-0.14831245 -0.09156493 -0.09156676 0.18212496 0.07989105 8.1052385e-05 -0.07681181 -0.1533119
-0.006294479 -0.010275407 -0.105100736 -0.069308184 0.092791066 0.07545388 0.15485662 0.03308567
-0.057845656 0.04651498 -0.072255515 -0.019249052 -0.06776363 -0.1698845 -0.109554105 -0.056956306
0.06992283 0.0896556 0.063392475 0.17096521 0.07119718 0.16029014 -0.113969624 -0.155924
-0.078226276 -0.097331606 0.019243654 0.051316276 0.067464225 0.13113911 0.22676483 0.079219505
0.10987672 0.17457706 -0.06006577 -0.09804726 -0.063297845 -0.15643379 -0.118406944 -0.20042305
0.047061987 0.072107434 0.08258795 0.11493642 -0.07158764 -0.09043137 -0.008423924 -0.12665266
-0.13111302 0.07588151 0.07061089 -0.091593936 -0.03961767 0.023524527 -0.09005671 -0.06051814
0.032781266 0.0225241 0.19563451 0.04070831 0.04704726 0.09189331 0.12772597 0.16640867
-0.1891765 -0.06865016 0.06462967 0.22572434 0.06293494 0.011700301 0.13135688 0.013420894
0.026987568 0.14877424 -0.045147736 0.0067461436 0.031825 0.039976757 0.13183583 -0.077506505
00000000: e238 8a3d 3a20 8fbb b2f8 903c b1cd 113d
00000010: f3bd 003e 7c9e 193e 5864 a03d 9ea0 003e
00000020: 1538 143e 4354 cd3d 2151 af3c b1a3 8d3d
00000030: 6e69 4abd ea71 73bd 7ef8 b43d d8fb bdbd
00000040: 4e41 29bd 88b5 adbe 8ec4 2e3e 79ac fb3d
00000050: 67fc 453c cd5c 533e 14c2 413c f517 0bbe
00000060: 97df 96bd 490c d4bd c975 31be 4126 0ebe
00000070: 3f87 953b 627a 17bd 4104 05bc f11e f8bd
00000080: 3280 b5bc cc9f d0bc a7d4 5fbc ca61 2e3e
00000090: 9350 0f3d a266 f2bd 57e3 b8bb 531c ccbd
000000a0: 4506 5f3d 90d0 633c 892f 083d 5882 a5bd
000000b0: fb23 673d 6a3d 733d c03f efbc fe3d 15be
000000c0: 0310 8a3d a29e 5ebd 1c9f d9bd 7e80 b63d
000000d0: cdf3 013e 97bf 143e 6646 053d 3d0d 88bd
000000e0: ed2f 51bd 98dd 4e3d e117 41bb 65f5 9dbd
000000f0: 684f 013e 9c72 113d 208b 9dbd 2968 313e
00000100: d3f2 b1bd b470 86be 0748 b03d 3969 223c
00000110: 16d7 4abe 9102 933d 689a 0e3e 534d 84bc
00000120: 1370 bcbd c7dc b63c 58f0 cb3b 7b88 053c
00000130: f606 68bc 2594 dbbd ab6f 90bb d7eb c2bb
00000140: ca0d 10be e3a8 f13c df5e 623d 7bc0 833e
00000150: a97c 92bc 7811 3a3c edda 2c3e ecce 873d
00000160: 3d9a a2bc bc68 27be 0421 603d 3920 df3c
00000170: 628a 83bc 50c5 913d bbb1 c33c 9681 3c3d
00000180: 237d 5ebd 0d44 1fbd 085a 01be b3f3 0f3e
00000190: bcce 06be abea f7bd 1a8f ac3d 1f74 ab3d
000001a0: b4de a43c 7382 a5bc d1e3 15bb 4f47 723d
000001b0: 53d6 8fbd 5e8c c9bd 38b2 d0bd b03d ddbd
000001c0: c224 9cbd d3ad aabd bbdc a93d 15c9 263c
000001d0: 972c 073e 1fa7 cdbd d1a6 dabd 2355 8dbd
000001e0: b47e 20bc e418 e5bc 590b 083d f3b3 9b3c
000001f0: 004c 3dbd c7e6 24be 1338 23be b494 25be
00000200: 67e1 53bb 3a4b 8bbd b4ca 253d 8a3d 73bc
00000210: 1ccb b737 ff9d 5ebb 2286 183d e24a d03c
00000220: ea13 093e ca85 913d c81b 983d abda 64bc
00000230: 1f50 133e af5a 833d 7100 d6bc ab19 043e
00000240: 846f c2bd bc84 f93c 3867 e83d ff92 2bbd
00000250: e08e 903d 2269 283e f6eb dcbd d99e 16bd
00000260: 722f d13d 93ff bdbd edc4 a4bd ed5d 1d3d
00000270: 3b05 dd3c 1bd6 09be ea5e 373e 6553 e9bd
00000280: 7e7d e1bd 0e31 c93d 623c 273d 2494 23be
00000290: 9b68 febd a2ab 39be 0486 583c 90cc e9bc
000002a0: 38df 17be 6586 bbbd 5a87 bbbd f77e 3a3e
000002b0: eb9d a33d abfa a938 834f 9dbd cbfd 1cbe
000002c0: eb41 cebb 2e5a 28bc 0e3f d7bd 73f1 8dbd
000002d0: 3e09 be3d 9087 9a3d bc92 1e3e d784 073d
000002e0: 91ef 6cbd 7e86 3e3d b3fa 93bd 30b0 9dbc
000002f0: a8c7 8abd 34f6 2dbe e75d e0bd 044b 69bd
00000300: b333 8f3d 5b9d b73d ead3 813d 8111 2f3e
00000310: d4cf 913d 1923 243e e868 e9bd 8baa 1fbe
00000320: 1935 a0bd cb55 c7bd dea4 9d3c 0431 523d
00000330: af2a 8a3d 5549 063e 0a35 683e d63d a23d
00000340: 0c07 e13d 54c4 323e 8607 76bd 00cd c8bd
00000350: 4da2 81bd 2e30 20be 577f f2bd b33b 4dbe
00000360: 12c4 403d 10ad 933d df23 a93d c963 eb3d
00000370: 8a9c 92bd 1534 b9bd 8004 0abc 3cb1 01be
00000380: 7e42 06be c467 9b3d 719c 903d 9a95 bbbd
00000390: 2346 22bd 82b6 c03c a76f b8bd dfe1 77bd
000003a0: a645 063d 7684 b83c 6a54 483e c2bd 263d
000003b0: a1b4 403d 8f32 bc3d 99ca 023e 0967 2a3e
000003c0: 7cb7 41be 7598 8cbd 8f5c 843d 4824 673e
000003d0: 09e4 803d 9fb2 3f3c 6b82 063e 4fe3 5b3c
000003e0: 0815 dd3c 4658 183e d5ec 38bd c10e dd3b
000003f0: ee5a 023d abbe 233d f9ff 063e bbbb 9ebd

weight f4 [16]
0.9564451 0.8673719 0.9891276 1.0237226 0.9190282 0.9682665 0.9084462 0.9913623
1.1211048 0.9178665 0.9569529 0.94493103 1.1113815 1.0462554 1.0044671 1.1618861
00000000: 96d9 743f 160c 5e3f 7737 7d3f 5809 833f
00000010: 6f45 6b3f 50e0 773f ee8f 683f ebc9 7d3f
00000020: 5d80 8f3f 4df9 6a3f defa 743f 00e7 713f
00000030: c041 8e3f b2eb 853f 6192 803f afb8 943f

bias f4 [16]
0.13274038 0.1289646 -0.087623455 -0.009340706 0.19056974 -0.07037097 -0.16353211 0.14028464
0.21555436 -0.103852846 -0.027845647 -0.06088066 0.067674235 0.12983432 0.05864373 0.19202605
00000000: 18ed 073e 4c0f 043e ed73 b3bd c309 19bc
00000010: b724 433e a81e 90bd f674 27be c7a6 0f3e
00000020: 48ba 5c3e cdb0 d4bd 8e1c e4bc 005e 79bd
00000030: ca98 8a3d 4af3 043e 6834 703d 7aa2 443e

running_mean f4 [16]
0.65836674 0.24060123 1.0577384 0.828981 0.43010575 0.88281375 1.1231823 0.5616381
0.46263078 0.9726158 0.83362305 1.5444477 0.25624755 0.19309258 0.67009026 0.44310153
00000000: b98a 283f 2b60 763e f963 873f 1938 543f
00000010: d236 dc3e 1500 623f 70c4 8f3f 84c7 0f3f
00000020: f1dd ec3e 59fd 783f 5268 553f 76b0 c53f
00000030: e132 833e 10ba 453e 098b 2b3f 34de e23e

running_var f4 [16]
1.0656674 0.39540097 1.902886 1.3416083 0.6512904 1.8551831 1.4569086 1.031775
0.66473174 1.5546126 1.325923 1.9800968 0.29706404 0.14709637 1.4451929 0.75882816
00000000: ca67 883f ff71 ca3e c591 f33f d2b9 ab3f
00000010: f8ba 263f a476 ed3f fb7b ba3f 3411 843f
00000020: dc2b 2a3f 8cfd c63f d8b7 a93f d073 fd3f
00000030: c718 983e 6ea0 163e 15fc b83f 9042 423f

weight f4 [16, 16, 3, 3]
0.003726702 0.06651068 0.023823006 0.0020219076 0.009695449 -0.07099267 0.0747784 -0.008351803
0.03210436 -0.06971579 -0.03194188 0.039635435 0.044661142 0.0027511031 0.050439145 -0.000452432
0.04571915 0.018815983 -0.051089823 -0.08830975 -0.09702488 -0.04059489 -0.100530535 -0.05061095
0.012262202 0.012189235 -0.064752415 0.16095279 0.13317078 0.10155458 0.10012948 0.035030887
0.024985842 -0.06324172 0.005581444 -0.046155103 -0.048243497 -0.006251839 0.04081844 0.0632174
-0.055556633 -0.010569078 0.12590708 0.101364814 0.0011647653 0.082447544 0.061473988 -0.08674166
0.012097251 0.043321356 -0.044039633 0.08774155 0.03822108 -0.09595963 0.06249965 -0.06873431
-0.040554136 0.08347051 0.023957048 -0.036732327 0.14294887 0.03594161 0.013984917 0.033737738
0.02565862 0.14279658 0.03480855 0.009479673 0.09488562 0.042885322 -0.040059414 -0.00083517027
-0.024585605 -0.034378033 0.072675824 0.039918873 -0.015923975 0.024951404 0.085004054 -0.08746151
0.0085212765 0.20720632 0.046960346 0.13620284 0.0005013771 -0.022018893 -0.068423085 -0.0968795
-0.12438258 -0.19750708 -0.058777265 -0.013534035 0.03311825 -0.0715318 0.014981754 -0.027034136
0.0064702095 0.0057346267 -0.10603592 -0.049504098 -0.0189461 0.05205583 0.01293722 0.046500932
0.03147112 -0.06166273 -0.033898376 -0.07607973 0.011872465 -0.12186996 -0.05671408 0.0487779
0.04808864 0.019096533 0.08247671 0.13745023 0.1705533 0.07077075 0.061516788 -0.01570784
-0.014962301 -0.012595174 -0.029628491 0.037551537 0.0140633695 0.109298 0.029659277 0.008036265
-0.10126638 0.034669794 0.01612214 -0.047331367 0.022773117 0.05889813 -0.10727874 -0.12789974
0.018601384 0.10397017 -0.07109179 0.096230626 0.10986135 -0.05817366 0.0027036283 0.08128307
0.014825082 -0.09105819 -0.118720904 0.020815758 -0.0182507 -0.08379874 -0.057886552 -0.056847416
-0.046475932 0.073301554 0.041031566 0.11321378 0.034223888 -0.031533323 -0.14345568 -0.08849369
-0.17964038 -0.30133644 -0.10312494 -0.025908047 0.004762123 -0.010716234 0.046648785 0.051495675
0.13405967 0.030087512 0.0014352743 -0.013753919 0.014803445 -0.050447725 0.11114416 0.029287426
-0.029262709 0.22497858 0.053642645 -0.0650882 -0.04287021 0.0054203463 -0.026593171 -0.091524325
0.05134108 -0.017891655 -0.08828138 -0.0381352 -0.09252374 -0.04592739 -0.021338183 0.01593051
-0.040128604 -0.06952403 0.015078665 0.057392098 0.12233911 0.09380074 0.0047870474 -0.061145376
0.079742014 0.031823084 0.013550857 -0.07815627 0.16634707 -0.0629674 -0.19194506 0.058740832
0.0011738596 0.05008607 -0.041139696 2.1592388e-05 0.09115362 -0.08268518 -0.03550031 0.031800378
-0.050262358 -0.057726532 -0.123968296 0.110142715 -0.0417185 0.0028081955 0.10829484 -0.07729914
-0.014160604 0.055670958 0.035990223 0.09341186 -0.008996565 0.038080905 0.076387085 0.085762784
0.058637034 -0.09594667 0.05874631 0.053924434 0.16015336 0.06580958 0.07824692 -0.010440061
0.029431786 0.04203865 -0.1269137 0.003175803 0.0042599137 0.07679816 0.010839081 0.04076691
0.098649286 0.057206176 -0.002602441 0.011897674 0.01132108 -0.058212686 -0.13070218 0.050406087
00000000: af3b 743b c036 883d 7728 c33c fb81 043b
00000010: a9d9 1e3c 9b64 91bd 6b25 993d 00d6 08bc
00000020: dd7f 033d 27c7 8ebd 7dd5 02bd c458 223d
00000030: 9aee 363d da4b 343b 4799 4e3d 6534 edb9
00000040: 0144 3b3d fa23 9a3c 9043 51bd bedb b4bd
00000050: fbb4 c6bd d446 26bd f4e2 cdbd 6d4d 4fbd
00000060: 67e7 483c 5bb5 473c ea9c 84bd cfd0 243e
00000070: ec5d 083e d9fb cf3d af10 cd3d 8c7c 0f3d
00000080: 1caf cc3c e084 81bd 8ce4 b63b 220d 3dbd
00000090: f99a 45bd 3adc ccbb 3d31 273d 2078 813d
000000a0: 5a8f 63bd ed29 2dbc c9ed 003e 5b98 cf3d
000000b0: 0aab 983a 42da a83d 26cc 7b3d 9da5 b1bd
000000c0: 8c33 463c bc71 313d e762 34bd d7b1 b33d
000000d0: b58d 1c3d 7c86 c4bd a2ff 7f3d 93c4 8cbd
000000e0: 181c 26bd 96f2 aa3d 9241 c43c a374 16bd
000000f0: 3061 123e 8237 133d fe20 653c 9530 0a3d
00000100: 0732 d23c 4439 123e 6993 0e3d a150 1b3c
00000110: 6453 c23d 85a8 2f3d 5715 24bd 54ef 5aba
00000120: c067 c9bc fbcf 0cbd 10d7 943d f981 233d
00000130: ff72 82bc e366 cc3c 9b16 ae3d 051f b3bd
00000140: d39c 0b3c e52d 543e 7e59 403d c278 0b3e
00000150: d96e 033a f760 b4bc 6721 8cbd c268 c6bd
00000160: 4bbc febd 4c3f 4abe 6ec0 70bd dbbd 5dbc
00000170: 01a7 073d 447f 92bd 0876 753c b176 ddbc
00000180: 0d04 d43b 89e9 bb3b 5c29 d9bd cfc4 4abd
00000190: da34 9bbc 7e38 553d a2f6 533c c377 3e3d
000001a0: dce7 003d 0f92 7cbd 06d9 0abd b1cf 9bbd
000001b0: ba84 423c f596 f9bd 064d 68bd 56cb 473d
000001c0: 98f8 443d 5570 9c3c 8de9 a83d c1bf 0c3e
000001d0: 86a5 2e3e 41f0 903d 07f9 7b3d baad 80bc
000001e0: 7024 75bc fd5b 4ebc 73b7 f2bc a4cf 193d
000001f0: 0c6a 663c a1d7 df3d 03f8 f23c 8aaa 033c
00000200: bf64 cfbd ea01 0e3d 9412 843c 89de 41bd
00000210: b08e ba3c 2a3f 713d f5b4 dbbd 26f8 02be
00000220: ee61 983c 50ee d43d 9398 91bd 9014 c53d
00000230: fdfe e03d 8147 6ebd 5b2f 313b bd77 a63d
00000240: e7e4 723c b77c babd f223 f3bd cf85 aa3c
00000250: 7e82 95bc ac9e abbd 731a 6dbd d6d8 68bd
00000260: 8c5d 3ebd 201f 963d b710 283d a0dc e73d
00000270: 592e 0c3d 1629 01bd 0ce6 12be 2e3c b5bd
00000280: a6f3 37be c548 9abe 2b33 d3bd 1d3d d4bc
00000290: 950b 9c3b 2593 2fbc cc12 3f3d 21ed 523d
000002a0: f046 093e 167a f63c d01f bc3a 1e58 61bc
000002b0: 268a 723c 46a2 4ebd 8d9f e33d 2fec ef3c
000002c0: 59b8 efbc c960 663e 64b8 5b3d f64c 85bd
000002d0: ac98 2fbd 299d b13b ecd9 d9bc 1b71 bbbd
000002e0: 064b 523d 8591 92bc decc b4bd a833 1cbd
000002f0: 167d bdbd 5c1e 3cbd 6acd aebc b380 823c
00000300: e45d 24bd 9d62 8ebd 810c 773c fa13 6b3d
00000310: ed8c fa3d 9a1a c03d aadc 9c3b 9373 7abd
00000320: c84f a33d ec58 023d 6a04 5e3c 6510 a0bd
00000330: e356 2a3e 0df5 80bd 3f8d 44be 3a9a 703d
00000340: 31dc 993a 0d27 4d3d 1982 28bd 4d21 b537
00000350: c0ae ba3d d956 a9bd c668 11bd 1d41 023d
00000360: e7df 4dbd a872 6cbd 17e3 fdbd 8192 e13d
00000370: 05e1 2abd b409 383b afc9 dd3d 034f 9ebd
00000380: e101 68bc 3b07 643d 7c6a 133d b84e bf3d
00000390: 5466 13bc b9fa 1b3d d570 9c3d 66a4 af3d
000003a0: 632d 703d b07f c4bd f99f 703d dedf 5c3d
000003b0: 3eff 233e 2cc7 863d ec3f a03d ca0c 2bbc
000003c0: ee1a f13c b830 2c3d aaf5 01be 2221 503b
000003d0: bf96 8b3b 5b48 9d3d 6796 313c 34fb 263d
000003e0: a308 ca3d 0651 6a3d b78d 2abb 76ee 423c
000003f0: 0d7c 393c 6d70 6ebd cbd6 05be 9d76 4e3d

weight f4 [16]
0.9079178 1.1292877 1.0515844 0.9750151 0.9079278 0.87526035 1.1674458 1.0074387
1.0169747 0.9990397 0.9411075 0.93571323 0.9385191 0.9545957 1.0788903 0.97115487
00000000: 4d6d 683f 808c 903f 519a 863f 979a 793f
00000010: f56d 683f 1011 603f dd6e 953f c0f3 803f
00000020: 3a2c 823f 11c1 7f3f 6cec 703f e78a 6f3f
00000030: ca42 703f 6260 743f 1419 8a3f 9b9d 783f

bias f4 [16]
0.10360939 0.06973768 0.1764305 -0.05763658 -0.21161753 -0.1578806 0.23896086 -0.027040634
0.0795271 0.31483105 0.11300057 0.018413916 -0.04641103 -0.038379937 -0.02374238 0.15757641
00000000: 2931 d43d a1d2 8e3d 32aa 343e 5614 6cbd
00000010: 44b2 58be 74ab 21be 28b2 743e 5284 ddbc
00000020: 1bdf a23d 8931 a13e d86c e73d c8d8 963c
00000030: 7e19 3ebd 4834 1dbd 617f c2bc b65b 213e

running_mean f4 [16]
0.6710068 0.54409736 0.60930914 0.44998407 0.6050669 0.49421635 0.8247398 0.5727518
0.4833436 0.6717706 0.59192973 0.5342907 0.54691374 0.56673443 0.65340126 0.42082036
00000000: 1ac7 2b3f f749 0b3f affb 1b3f 5064 e63e
00000010: aae5 1a3f ed09 fd3e 2622 533f dd9f 123f
00000020: d078 f73e 28f9 2b3f b588 173f 46c7 083f
00000030: 8a02 0c3f 8215 113f 4e45 273f c475 d73e

running_var f4 [16]
0.9380429 0.92770773 0.6874249 0.6338396 0.7595803 0.7685498 1.6321595 1.0515232
0.7585231 1.0232291 0.89245075 0.7821259 0.7628802 0.7994913 1.2029847 0.6385719
00000000: 9423 703f 417e 6d3f 14fb 2f3f 5043 223f
00000010: db73 423f aebf 443f 9aea d03f 5098 863f
00000020: 922e 423f 2cf9 823f a777 643f 6739 483f
00000030: 1e4c 433f 76ab 4c3f 67fb 993f 7379 233f

weight f4 [16, 16, 3, 3]
-0.041093342 0.036542203 -0.00010238722 -0.15824041 0.005410325 0.052972764 -0.16174604 -0.061902266
0.0641889 -0.09960924 -0.025507612 -0.15548578 -0.03472554 0.027707139 0.01226043 0.02619752
-0.007799647 0.036493514 0.07661025 0.11026062 0.016946448 0.046622317 -0.058502197 0.010950603
-0.14954953 -0.121658534 -0.04898739 -0.21934593 -0.0912267 -0.09083744 -0.07280409 0.051482484
-0.059089 -0.018432178 0.05870151 0.07114271 -0.12843986 -0.02495066 -0.06774749 -0.013264775
0.09580429 0.060110424 0.10547163 0.08517553 0.06504568 0.16062114 0.15528145 0.20016463
0.10550368 0.08069308 0.112164274 0.041619148 0.024087032 0.11065844 0.008906605 0.015382599
0.07302753 -0.032230202 0.07350028 0.042407367 0.118422605 0.10265984 0.09694427 -0.0971754
-0.10982831 -0.08303643 -0.082187064 0.00027021166 0.06611381 0.03715003 0.018269196 0.13627046
0.15550338 0.037402086 0.03542893 0.046795353 -0.026836192 0.07129072 -0.048117653 0.034135643
-0.021032732 -0.00810821 0.047375407 0.05503333 -0.022487337 0.07684302 0.0320328 0.013076022
-0.011358938 0.0031203155 -0.07074129 -0.05866358 0.15063414 -0.14995025 -0.04824098 0.08198762
-0.015554345 -0.006663182 9.9593664e-05 0.071327575 -0.014423746 0.13500373 0.06517679 -0.06551029
0.009749311 0.08047189 -0.0012225414 -0.15737773 -0.15019359 -0.031375162 -0.16655818 -0.079210944
-0.07667853 -0.16073425 -0.06757621 -0.010205056 0.05271233 -0.029654818 0.018275687 0.099485494
-0.10180538 0.038246926 -0.030621093 0.0200314 -0.0171422 0.023780515 -0.061587907 -0.12153072
0.045886736 -0.08217665 -0.019640144 0.016945045 0.033222772 -0.033908065 0.030211775 0.033782464
0.046467725 -0.013514256 -0.054157328 -0.033901446 -0.044144675 0.08383098 0.01701988 0.018784547
-0.093153656 -0.055792604 0.011529612 -0.12536168 -0.118863076 -0.040533293 -0.0934188 -0.062227752
-0.06263924 -0.033959728 -0.15776552 -0.23030142 -0.05260808 -0.015882967 -0.1755224 0.19753756
0.11952297 0.20166916 -0.048667945 -0.10770368 -0.15062208 -0.0761562 -0.008871146 -0.07110985
-0.20466626 -0.093982376 0.053634673 0.12008055 0.01878269 -0.023881245 0.041259862 -0.044329915
0.02957843 -0.013787635 0.0043778694 0.13807899 -0.0038949123 0.07566053 0.10008432 -0.009532928
-0.033452503 -0.08507375 -0.13241312 -0.12652715 0.0051950077 0.07330504 0.019806035 0.16064124
-0.009504858 0.09414953 0.106619 -0.022535332 -0.029042294 0.0145043 -0.02663387 -0.12707373
-0.21607727 -0.08607443 -0.03305021 -0.05908588 -0.045469094 0.07037951 0.1699849 -0.14269744
-0.13324527 -0.18785177 0.008441968 -0.019925116 0.07300823 0.11370337 0.05074548 0.1748012
-0.07662104 0.05415013 0.048167486 -0.15704557 0.038550254 0.15734836 -0.18718098 -0.0005557516
0.0038966576 -0.04847449 0.034216702 0.002085641 0.06361267 0.045800406 0.06662855 -0.029783892
0.042561233 0.03640499 -0.06618298 0.05617961 0.04618796 -0.09873036 0.08825852 0.08066041
-0.12883389 -0.054001905 -0.06590085 -0.034983378 0.060752638 0.015882717 -0.10187399 -0.058723573
-0.083394125 0.11533136 0.0035386737 -0.05611356 0.022406178 0.026324585 -0.045044616 0.10639217
00000000: 7e51 28bd 47ad 153d b8b8 d6b8 c609 22be
00000010: 1849 b13b f8f9 583d c1a0 25be 3b8d 7dbd
00000020: 7875 833d eeff cbbd 57f5 d0bc aa37 1fbe
00000030: 5e3c 0ebd 15fa e23c f8df 483c 2e9c d63c
00000040: 2e94 ffbb 397a 153d d6e5 9c3d 52d0 e13d
00000050: 47d3 8a3c 0bf7 3e3d 00a0 6fbd 286a 333c
00000060: 8323 19be 1c28 f9bd 00a7 48bd 389c 60be
00000070: 10d5 babd fb08 babd 501a 95bd 4cdf 523d
00000080: 4f07 72bd 14ff 96bc ff70 703d 45b3 913d
00000090: bd85 03be 5465 ccbc 32bf 8abd 8054 59bc
000000a0: 0a35 c43d 5936 763d 8301 d83d 8270 ae3d
000000b0: ab36 853d de79 243e 1a02 1f3e f5f7 4c3e
000000c0: 5012 d83d 6a42 a53d 62b6 e53d d778 2a3d
000000d0: 2b52 c53c e4a0 e23d 02ed 113c 4c07 7c3c
000000e0: 758f 953d d103 04bd 5187 963d 59b3 2d3d
000000f0: 8d87 f23d 523f d23d b88a c63d e503 c7bd
00000100: aaed e0bd 010f aabd b151 a8bd 32ab 8d39
00000110: ad66 873d a12a 183d 48a9 953c 7c8a 0b3e
00000120: 473c 1f3e ee32 193d ed1d 113d 7cac 3f3d
00000130: 93d7 dbbc de00 923d 0417 45bd d1d1 0b3d
00000140: d64c acbc 4cd8 04bc b70c 423d a16a 613d
00000150: 5d37 b8bc e05f 9d3d d334 033d d03c 563c
00000160: d71a 3abc 357e 4c3b cfe0 90bd 3949 70bd
00000170: d63f 1a3e 8f8c 19be 5598 45bd 20e9 a73d
00000180: a7d7 7ebc d256 dabb f1dc d038 3114 923d
00000190: 9351 6cbc 6b3e 0a3e 697b 853d 422a 86bd
000001a0: 93bb 1f3c 72ce a43d af3d a0ba a127 21be
000001b0: 59cc 19be 3e83 00bd 3a8e 2abe 5939 a2bd
000001c0: a209 9dbd 8597 24be 6565 8abd 1b33 27bc
000001d0: e2e8 573d a9ee f2bc e5b6 953c 0dbf cb3d
000001e0: 577f d0bd cfa8 1c3d 16d9 fabc e418 a43c
000001f0: cd6d 8cbc 5bcf c23c 9a43 7cbd 19e5 f8bd
00000200: bbf3 3b3d 3b4c a8bd 5ee4 a0bc 56d0 8a3c
00000210: 9a14 083d 2fe3 0abd af7e f73c 7b5f 0a3d
00000220: f154 3e3d e66a 5dbc 13d4 5dbd 3edc 0abd
00000230: 0cd1 34bd 94af ab3d 466d 8b3c 0de2 993c
00000240: 58c7 bebd c986 64bd b3e6 3c3c d05e 00be
00000250: 7c6e f3bd 3d06 26bd 5b52 bfbd 87e2 7ebd
00000260: 0049 80bd 5b19 0bbd 498d 21be 23d4 6bbe
00000270: 927b 57bd ff1c 82bc 25bc 33be 4947 4a3e
00000280: 75c8 f43d 5c82 4e3e 0a58 47bd bf93 dcbd
00000290: ad3c 1abe c8f7 9bbd 4858 11bc 0ba2 91bd
000002a0: 0894 51be d579 c0bd 08b0 5b3d cbec f53d
000002b0: 28de 993c 9aa2 c3bc 1a00 293d 4993 35bd
000002c0: 774e f23c 88e5 61bc 3b74 8f3b 9464 0d3e
000002d0: c941 7fbb e8f3 9a3d 02f9 cc3d ff2f 1cbc
000002e0: 7e05 09bd 253b aebd 4e97 07be 5590 01be
000002f0: e23a aa3b f420 963d 4440 a23c 237f 243e
00000300: 44ba 1bbc 78d1 c03d 105b da3d 049c b8bc
00000310: 1bea edbc 72a3 6d3c 462f dabc 9e1f 02be
00000320: 5c43 5dbe ca47 b0bd a85f 07bd 0904 72bd
00000330: cd3d 3abd 2223 903d 8610 2e3e 471f 12be
00000340: 7371 08be 375c 40be 2e50 0a3c ff39 a3bc
00000350: 5785 953d 50dd e83d 7eda 4f3d 16ff 323e
00000360: 7eeb 9cbd 87cc 5d3d 454b 453d 8ed0 20be
00000370: dfe6 1d3d ee1f 213e 5fac 3fbe dcaf 11ba
00000380: 115f 7f3b 308d 46bd d026 0c3d 40af 083b
00000390: 5c47 823d 3599 3b3d 8d74 883d 59fd f3bc
000003a0: b054 2e3d 661d 153d f18a 87bd 971c 663d
000003b0: 962f 3d3d 2533 cabd e2c0 b43d 4931 a53d
000003c0: 08ed 03be 1a31 5dbd 06f7 86bd bb4a 0fbd
000003d0: c2d7 783d 791c 823c 4fa3 d0bd 2188 70bd
000003e0: 8aca aabd d932 ec3d 18e9 673b 55d7 65bd
000003f0: 298d b73c a8a6 d73c b480 38bd 23e4 d93d

weight f4 [16]
1.0125219 0.9933253 1.018461 1.0504639 0.97858346 0.9603084 1.055126 1.0996486
1.0121063 0.97468853 0.95750535 1.0127355 0.9092062 0.99996394 0.9586063 0.9356626
00000000: 519a 813f 914a 7e3f ee5c 823f 9a75 863f
00000010: 7284 7a3f c5d6 753f 5e0e 873f 49c1 8c3f
00000020: b38c 813f 3085 793f 121f 753f 51a1 813f
00000030: bdc1 683f a3fd 7f3f 3967 753f 9687 6f3f

bias f4 [16]
-0.0033717367 0.1667604 0.16551803 0.047288865 -0.025392378 -0.11588962 -0.13439718 -0.083403
0.030490741 -0.22861575 -0.1582282 0.05173253 -0.17765225 -0.14557692 0.093251735 0.010398543
00000000: 5bf8 5cbb 3dc3 2a3e 8f7d 293e f8b1 413d
00000010: ad03 d0bc 8957 edbd 6a9f 09be 31cf aabd
00000020: b8c7 f93c 3f1a 6abe 9306 22be 7de5 533d
00000030: 79ea 35be 1e12 15be c4fa be3d a75e 2a3c

running_mean f4 [16]
0.66950005 0.57023764 0.40171906 0.34696433 0.5926838 0.7960234 0.3438549 0.53229314
0.325794 0.26107863 0.4670591 0.2961131 0.6260998 0.5761384 0.55679774 0.5128516
00000000: 5b64 2b3f 18fb 113f 1fae cd3e 4fa5 b13e
00000010: 20ba 173f 31c8 4b3f c00d b03e 5d44 083f
00000020: 79ce a63e 19ac 853e 5f22 ef3e 239c 973e
00000030: 1448 203f ce7d 133f 4c8a 0e3f 3e4a 033f

running_var f4 [16]
0.88669914 0.8990089 0.4588313 0.51816154 0.9039 0.86642927 0.5846852 0.9372808
0.47328722 0.39320895 0.61909014 0.35869274 0.5704144 0.944466 0.60550433 0.500404
00000000: b7fe 623f 7325 663f f0eb ea3e 3ca6 043f
00000010: fe65 673f 4fce 5d3f eead 153f a2f1 6f3f
00000020: b452 f23e af52 c93e b17c 1e3f 93a6 b73e
00000030: ae06 123f 86c8 713f 5502 1b3f 7a1a 003f

weight f4 [16, 16, 3, 3]
0.108116314 0.044904344 0.112086095 0.023954686 -0.07580746 0.018324602 0.06523664 0.047918197
0.078331046 0.043752268 0.076671556 0.110218436 0.007930477 0.017073408 0.018951861 0.10676478
-0.004785187 0.08470233 -0.069453165 -0.071682535 0.05078117 0.051230732 0.024322208 0.08301778
0.018669738 0.017853234 0.007245485 -0.26554772 -0.17046478 -0.14462656 -0.15349981 -0.10238341
-0.10957426 -0.09909929 -0.07693234 -0.121408366 -0.0110835815 0.01441218 0.05112232 -0.019188304
0.019582976 -0.03944142 -0.09276136 -0.022635601 -0.04240717 0.05714796 0.097528756 0.016630586
-0.03974311 0.008083231 0.017947584 0.0559432 0.04964358 0.0012893634 -0.051336713 -0.1214695
-0.077989526 -0.0565536 -0.0006528727 -0.047655102 -0.108985156 -0.12311445 0.00045487704 0.060891602
0.11996304 0.0651238 -0.015230882 0.023015587 -0.01698039 0.03801547 0.05608891 -0.0056173615
0.006800439 -0.03956729 -0.050347388 0.038377456 0.10052851 0.033805672 0.028622277 0.105858766
-0.0064446963 -0.1232561 -0.056190506 -0.110975415 -0.012652222 -0.04425656 -0.061476324 -0.09478166
-0.12296859 -0.09528944 0.004313396 -0.01410065 0.034677513 0.016906697 0.047632307 0.0033276957
-0.019998215 0.024834836 -0.055968683 0.046204302 0.011074724 0.15103717 -0.0012178109 -0.018551223
0.081331566 0.029310424 -0.03093296 0.17514491 0.007997736 -0.03164189 0.07303394 -0.03368031
0.03033978 0.024003465 -0.07774099 0.047908425 -0.0006544923 0.06690461 -0.005598286 -0.0777009
-0.02344632 -0.055115696 -0.089116685 -0.033634868 -0.07057917 -0.10276928 0.10687427 -0.055864494
0.030337043 0.086292624 0.0027035405 0.088186294 0.06416744 -0.026041158 0.031061824 0.044474345
0.026216397 0.04974265 0.1013285 0.09707384 0.13337137 0.068322696 0.050572813 0.071328804
-0.07403425 -0.119548865 -0.07455032 -0.07909987 -0.13930432 -0.1673304 -0.032141566 -0.13425878
-0.18767561 -0.082704134 -0.05515094 0.103281625 0.013142075 0.022464938 0.059973434 0.11224155
0.0723827 -0.017700516 -0.00076744915 0.006856514 0.02186205 -0.02545739 -0.022780538 0.051378105
-0.09284303 0.016856173 0.0898844 -0.00657799 -0.067213535 -0.032820813 0.005914002 -0.059497014
0.0102848 -0.021538652 -0.048784107 -0.07775961 -0.006531497 -0.10887475 -0.036726136 0.09194047
0.06939495 0.086819366 0.019373823 0.01891841 0.115434915 -0.029975254 -0.058434922 -0.04173845
-0.012857202 0.047541413 -0.06488183 -0.026062928 0.00564251 -0.061080538 0.1361773 0.067013286
0.019845054 0.14232077 0.062293854 0.076861426 0.07674445 0.023962868 0.038868602 0.09049208
0.047998633 0.031760413 0.033969156 -0.08066935 0.054934986 0.18685502 0.12788264 0.11446092
0.062113434 0.030313136 0.03431469 -0.0001729441 -0.0058964426 -0.039144453 0.08458069 0.058134608
0.045790944 -0.051165733 -0.18270455 -0.15029557 -0.10870337 -0.109936915 -0.06288364 -0.14804493
-0.15476272 -0.04586625 -0.007120791 0.024059458 0.040170044 -0.009370156 -0.0067840344 -0.074434735
-0.13601288 -0.09693323 -0.078644514 -0.00017058193 0.01905406 0.021447852 0.015971325 -0.016694922
-0.028658962 -0.030187193 -0.10104701 -0.03320395 0.06472498 0.03155448 -0.022439487 -0.0320371
00000000: 166c dd3d 9eed 373d 658d e53d 9e3c c43c
00000010: f140 9bbd 7a1d 963c ca9a 853d df45 443d
00000020: 076c a03d 9435 333d fa05 9d3d 34ba e13d
00000030: d5ee 013c 88dd 8b3c ef40 9b3c 7ea7 da3d
00000040: 0fcd 9cbb 6a78 ad3d 763d 8ebd 4bce 92bd
00000050: ebff 4f3d 51d7 513d 5e3f c73c 3a05 aa3d
00000060: 47f1 983c f240 923c 896b ed3b dff5 87be
00000070: 528e 2ebe fc18 14be 0e2f 1dbe 65ae d1bd
00000080: 7868 e0bd 92f4 cabd b48e 9dbd f3a4 f8bd
00000090: e997 35bc 1021 6c3c a365 513d ca30 9dbc
000000a0: 7a6c a03c 548d 21bd abf9 bdbd 4c6e b9bc
000000b0: 24b3 2dbd fb13 6a3d 28bd c73d de3c 883c
000000c0: acc9 22bd 876f 043c d006 933c b224 653d
000000d0: 1157 4b3d dbff a83a 7246 52bd 00c5 f8bd
000000e0: f9b8 9fbd bfa4 67bd 8c25 2bba ff31 43bd
000000f0: 9c33 dfbd 6e23 fcbd 907c ee39 7969 793d
00000100: 2faf f53d a05f 853d f38a 79bc 2f8b bc3c
00000110: 751a 8bbc 1cb6 1b3d 7cbd 653d d811 b8bb
00000120: 38d6 de3b 5011 22bd 1039 4ebd ae31 1d3d
00000130: e4e1 cd3d d177 0a3d 4479 ea3c 7bcc d83d
00000140: 082e d3bb b26d fcbd 0428 66bd 1447 e3bd
00000150: 444b 4fbc 5e46 35bd 99ce 7bbd e31c c2bd
00000160: f5d6 fbbd 1c27 c3bd 6357 8d3b 6a06 67bc
00000170: 020a 0e3d ea7f 8a3c 181a 433d 7815 5a3b
00000180: 4cd3 a3bc 6d72 cb3c 6b3f 65bd b940 3d3d
00000190: c272 353c 7da9 1a3e f49e 9fba bcf8 97bc
000001a0: 2a91 a63d 6a1c f03c 1e67 fdbc 3059 333e
000001b0: f008 033c ed9a 01bd d192 953d 5df4 09bd
000001c0: 218b f83c eaa2 c43c ab36 9fbd a03b 443d
000001d0: 3c92 2bba 4905 893d d471 b7bb a621 9fbd
000001e0: 7f12 c0bc ffc0 61bd cf82 b6bd b7c4 09bd
000001f0: d08b 90bd b378 d2bd e6e0 da3d 2bd2 64bd
00000200: 6485 f83c 30ba b03d e22d 313b 049b b43d
00000210: 386a 833d 4454 d5bc 5e75 fe3c bb2a 363d
00000220: c5c3 d63c f3be 4b3d 5185 cf3d a6ce c63d
00000230: 8192 083e c5ec 8b3d 7025 4f3d d614 923d
00000240: 459f 97bd 09d6 f4bd d7ad 98bd 1dff a1bd
00000250: cba5 0ebe a958 2bbe e0a6 03bd 227b 09be
00000260: 092e 40be c960 a9bd f4e5 61bd 5185 d33d
00000270: dc51 573c 6408 b83c b4a6 753d e6de e53d
00000280: 623d 943d ac00 91bc a42e 49ba 9cac e03b
00000290: 0b18 b33c 048c d0bc 409e babc d971 523d
000002a0: 7d24 bebd f515 8a3c 5015 b83d 2e8c d7bb
000002b0: 40a7 89bd 1e6f 06bd 3fca c13b 24b3 73bd
000002c0: 9481 283c d471 b0bc d8d1 47bd 6e40 9fbd
000002d0: 2b06 d6bb baf9 debd 256e 16bd 494b bc3d
000002e0: f11e 8e3d 5ace b13d dab5 9e3c c8fa 9a3c
000002f0: 2469 ec3d aa8e f5bc 7559 6fbd f0f5 2abd
00000300: 04a7 52bc c9ba 423d c4e0 84bd ec81 d5bc
00000310: cee4 b83b 962f 7abd 1072 0b3e 433e 893d
00000320: 1892 a23c 89bc 113e d727 7f3d 8669 9d3d
00000330: 322c 9d3d c74d c43c af34 1f3d e953 b93d
00000340: 379a 443d 3517 023d 3e23 0b3d f935 a5bd
00000350: 8203 613d ec56 3f3e abf3 023e 7d6a ea3d
00000360: a86a 7e3d 4153 f83c 8f8d 0c3d 5458 35b9
00000370: f236 c1bb ef55 20bd a438 ad3d 8e1e 6e3d
00000380: 498f 3b3d 2993 51bd e716 3bbe 15e7 19be
00000390: df9f debd 9b26 e1bd 23c9 80bd 1799 17be
000003a0: 1e7a 1ebe 40de 3bbd 8655 e9bb 5718 c53c
000003b0: 5889 243d 4885 19bc 9b4c debb 3d71 98bd
000003c0: f646 0bbe ee84 c6bd 6010 a1bd 3dde 32b9
000003d0: 4317 9c3c 68b3 af3c 4cd6 823c cac3 88bc
000003e0: 33c6 eabc 224b f7bc bcf1 cebd dd00 08bd
000003f0: 888e 843d 453f 013d 04d3 b7bc 5639 03bd
