mlruns/271458266826723899/models/m-f5fb85e3ee3c47a5a29f6498e8f5c1ff/artifacts/data/model.pth (torch, 72384 bytes, 36 tensors)

weight f4 [10, 1, 3, 3]
00000000: b279 883e 88d3 8d3e bd76 7f3e 43c7 893e
00000010: dacc c23d 7956 b23e 3db5 4f3e 0c71 fabb
00000020: 8782 b9be f238 3abe 483f 3fbe 647f 83bd
00000030: 8ace 283e c6c6 d9bd f687 c8be 8237 963e
00000040: 7571 17be 4dc1 77be efbf d7bd dd8a b33e
00000050: 40ea f53e 8a04 adbe 23a6 96bd 2b15 493d
00000060: 8628 79bd 5721 83be c464 8f3e 7f79 6d3e
00000070: 2a8f 7fbd 6a62 b8bb a794 9b3e acba 04bf
00000080: fea4 36be 1fc1 8b3e 8e4e b9be 0d73 b03e
00000090: 8569 a0bd 712d 6a3e f9c9 f8be c2e5 d6bd
000000a0: d227 a83e 0b64 31bd ad04 2ebe 51b3 d03e
000000b0: 10c7 b1bd f31e 303e f31f 973e 4585 6f3e
000000c0: d8dc 4dbe a472 933e 16c5 08be 7d6b 1f3e
000000d0: a3f1 32be fda5 c0be 0dd0 893e ce33 413e
000000e0: 5aec 8cbe c469 853d 4fbe a23d 708a b9be
000000f0: 5597 883e 6be7 debd b114 dabe 439d b53e
00000100: c132 9b3e 9809 bb3e 403e 96be 0870 93be
00000110: ace1 d63c dbe8 4fbe 4de4 43bd 0f64 c7be
00000120: 79ad e0bd 2dd2 43be 78b7 553e 581d b7bd
00000130: 9d8a a3be 67e3 ea3e e483 cebd 5423 433d
00000140: 0bc8 ae3e 4ed1 6c3d cb9d f8bd 442d 24bf
00000150: 70a5 1b3e fa98 1c3e 6d3a f93d b9d2 553e
00000160: 7b28 393d e70d 953e
0.26655346 0.27700448 0.24947639 0.26909837 0.095117286 0.34831598 0.2028398 -0.007642871
-0.36232397 -0.18185785 -0.18676484 -0.06420782 0.16485038 -0.10633616 -0.3916623 0.29339224
-0.14789374 -0.24194832 -0.10534655 0.35066882 0.4803028 -0.33792526 -0.07355907 0.049092453
-0.06082966 -0.25611374 0.28006566 0.23190878 -0.06239239 -0.0056269662 0.3038685 -0.5184734
-0.17836377 0.27295777 -0.36192745 0.34462777 -0.07832626 0.22868897 -0.48591593 -0.104930416
0.3284288 -0.0433083 -0.16993971 0.40761808 -0.08680546 0.17199306 0.29516563 0.23390682
-0.20103776 0.287984 -0.13356432 0.15568347 -0.1747499 -0.3762664 0.26916543 0.18867418
-0.27524072 0.06514314 0.07946455 -0.36238432 0.26677957 -0.10883983 -0.4259391 0.35471544
0.3031216 0.36530757 -0.29344368 -0.2879641 0.026230656 -0.20303671 -0.047825146 -0.38943526
-0.10970587 -0.19123144 0.20870769 -0.08941144 -0.3194169 0.4587662 -0.1008375 0.047641113
0.34136996 0.057816796 -0.121394716 -0.6413157 0.15199828 0.15292731 0.12169347 0.20881166
0.04520462 0.2911217

weight f4 [10]
00000000: 6a7c 393f 86f8 8e3f a30b 7f3f 75ae 7e3f
00000010: 744b 713f 2a21 6a3f a5ea 973f 3654 8f3f
00000020: 006c 773f 2d8a 783f
0.72455466 1.1169593 0.9962713 0.9948495 0.9425576 0.91456854 1.1868483 1.1197574
0.9664917 0.9708584

bias f4 [10]
00000000: 44c9 1b3b dd7b b33d f9a7 57bd 3971 b9bc
00000010: 81f0 f5bd ad28 6fbc 0b81 fb3d 90b9 0fbe
00000020: 555c 803d 9fd1 c23d
0.0023771087 0.087638594 -0.052650426 -0.022636997 -0.12008763 -0.0145971 0.12280472 -0.1403563
0.06267611 0.09512638

running_mean f4 [10]
00000000: feb4 aa3d 9a04 5ebd 46c4 973c 6828 653b
00000010: 21e7 62ba da8c 6f3c 703d 9ebc 3b00 39bc
00000020: ed60 683c cc40 a13c
0.08335303 -0.054203607 0.018526208 0.003496671 -0.0008655657 0.014620984 -0.019316405 -0.011291559
0.014183265 0.019684218

running_var f4 [10]
00000000: eda2 d93f 4ea2 4a3f 5341 f43e 33bc 803e
00000010: e188 1a3e 527b d53e 2756 3d3f ca6b 0f3f
00000020: 3c8c fe3e 5acc e23e
1.7002846 0.7915391 0.47706088 0.25143585 0.15091278 0.41695648 0.73959583 0.5602385
0.49716365 0.44296533

weight f4 [10, 10, 3, 3]
00000000: 4111 f43d c86f 2abc 6488 d7bd 4654 62bc
00000010: 6fa9 c4bd fb2c 873d 95c0 dabd 1b0c c9bd
00000020: cd33 c53d 1ebd ac3d 2c5a 233d 33b4 febc
00000030: 0b4d e43d 8021 723d 60aa b53d aaa1 e8bd
00000040: 00aa 84bd f980 333c afc9 59bd 101d 403d
00000050: 3aea 15bd 397a 67bd 3411 33be 8707 3d3d
00000060: ca29 0dbe 4995 53bc 681c 1b3d 6acd 28bc
00000070: 4316 9b3d e1d7 ce3d 57bf 28bd 2395 143e
00000080: 5ef0 d73c 8072 a2bd 7697 b3bd 2735 80bc
00000090: 0352 cc3b f1a6 76bd 7f62 06be 7a40 a0bd
000000a0: f947 3bbd 9d0d b73d 6d68 18be 7b7c 0fbd
000000b0: 5916 97bd 3c29 c63d 49a1 72ba 64b7 da3b
000000c0: 6060 333e 0abf 48bc d7f7 2bbd 1a11 cc3d
000000d0: 6130 27be 62e7 0fbe c8a8 c93d 79de 113d
000000e0: a710 f3bd 35a8 573e fbdb f63d 2398 babd
000000f0: ff9f bfbd 5b48 c6bd e65e 91bd 78d3 95bd
00000100: bfb4 68be c165 2bbe 9ac1 033d da0d 0dbe
00000110: 9fab 7bbd a0c1 d23d 1f15 543d be0a fa3b
00000120: 6dc2 74bd aaa0 4dbc a8cf a5bd 2380 3cbb
00000130: 3ef3 723d 30ae c3bb fc4c 213d 5816 423c
00000140: b3a3 1f3b 52d7 9e3d 5d57 9a3c 7946 f8bc
00000150: ab47 fbbd 8533 3b3c ebe0 07bd c346 56be
00000160: bdd3 14be e946 c73c 944c a4bd 6dd6 073d
00000170: 53d2 60bd fae9 85bd 8a31 b33c 7cd4 24bd
00000180: 36f9 da3d b116 bfbc 826d 3cbd 124d bc3d
00000190: 8cfb 063e 418a f23c f882 a43d a39f c33d
000001a0: fe1c debd 13b8 b33d 162f 113d 05f6 dfbd
000001b0: b0ab 69bb 82bc 3abd d812 ec3d 31f6 adbd
000001c0: c4ff bbbd bd24 d93d 1946 0abd 14c0 17be
000001d0: c2fb 3a3d d747 233e 2ba6 8dbc 8186 c9bb
000001e0: 79d6 3b3e 12a3 a4bc 6074 2cbd 9718 e83d
000001f0: 3181 2f3d 0e45 00be 5026 12bc 8d70 a0bd
00000200: 1b21 93bc 380b 1cbd ebd5 9dbd 3c68 96bd
00000210: b21c b03d 15f4 50bd 95b8 cbbd e719 3bbe
00000220: c2db 21bc 7d99 e8bd dc94 72bd 69d8 04be
00000230: e59b 38bb 4142 a03d 3d50 cebd ae5d 2bbc
00000240: bf8d 4f3e a3c1 1abd 5ebf e2bb 2234 363e
00000250: 1036 633d 2e6e 63bd 294b 283e afda cebd
00000260: 8b6f ecbd ab2a 323d 75ee 13bd 6547 c4bd
00000270: 43f5 14be 0c20 903d 2d65 7abd 30f5 0cbd
00000280: 174b b63d ca9f 923c 9777 003d 332c c83d
00000290: 40c1 ec3d 4ae5 8cbc 6274 85bd bfa7 f83d
000002a0: d394 41bd 8236 903c ba44 743c 29d3 e03d
000002b0: c969 093c 7bbf eabc afe1 b73d e0d0 57bc
000002c0: 8f82 dabb 6060 1c3d 467d a6bc a389 143d
000002d0: e4dd 863d 4015 0d3d a628 8f3d ba6b 91bd
000002e0: 1977 99bd a032 da3c aee2 eabd 9c4a 13be
000002f0: 1869 c9bd 8004 3c3d cc18 143d 08b1 fabc
00000300: bd45 123e 19cb af3d 3f1b e93c 5cab 313d
00000310: 1fb7 d33c 0b55 573d a3bc 6c3e 035f 1f3d
00000320: 53df c13d 8e01 fb3d daa3 c53d f9d6 dcbc
00000330: be81 34bc e0f2 dc3d d5fa 63bd 98b5 41be
00000340: f64c d83d 119a 1f3e eddc 48be 9247 cebd
00000350: 9969 91bd 2fb6 25be 1da9 a8bc a520 563a
00000360: 9ac5 a0bc 9061 ebbc 0270 e3bd 66b0 5cbe
00000370: 5353 6ebd 9957 3bbe 5855 59bd 1bcf f0bd
00000380: daed 18be 90a7 d43d ba30 453d d71a d13d
00000390: 35d8 bebb 2ddb c9bd 5af8 183e 3bc4 37be
000003a0: 1d23 2abd 7348 c63c 74f9 19bd 760c 603e
000003b0: 7d3b 363e 8ff5 06be 8620 78bc ac59 03bd
000003c0: badb 45be 83f9 73be 8912 5abc 2d87 d2bd
000003d0: bbe5 09be cead 923d 23ee 4ebd 3f3a 313e
000003e0: b561 213e 23cf 823e 72ee 0d3e 024e 193e
000003f0: d1a9 8b3d df21 2a3e ab19 59bc 2c4a d4bd
0.119173534 -0.010402627 -0.10524061 -0.013814038 -0.096026294 0.06600376 -0.10681263 -0.09816762
0.09629021 0.08434509 0.039880916 -0.031091785 0.11147507 0.05911398 0.08870387 -0.1135896
-0.064777374 0.010956042 -0.053170856 0.046902716 -0.03660033 -0.056513045 -0.17487031 0.046149757
-0.13785473 -0.01291401 0.037868887 -0.010302881 0.075726055 0.100997694 -0.0411981 0.14510016
0.026359733 -0.079319954 -0.08769123 -0.015650345 0.0062353625 -0.0602178 -0.13123511 -0.07824798
-0.045722935 0.089381434 -0.14883585 -0.035030823 -0.07377309 0.096758336 -0.0009255601 0.006674694
0.17517233 -0.0122525785 -0.041984405 0.09964199 -0.16327049 -0.1405311 0.098466456 0.035612557
-0.118684106 0.2106026 0.12053677 -0.09111049 -0.09356689 -0.096817695 -0.070981786 -0.07315725
-0.22725199 -0.16738035 0.032167055 -0.13774815 -0.061442968 0.10290837 0.051777955 0.007630675
-0.05975573 -0.012550512 -0.08096248 -0.00287629 0.059314005 -0.0059716925 0.03938006 0.0118461475
0.0024359047 0.07755913 0.018840486 -0.030307041 -0.12269529 0.011425857 -0.033173483 -0.20925431
-0.14533897 0.024325805 -0.080224186 0.033163477 -0.05488808 -0.06538768 0.021874208 -0.040241703
0.106920645 -0.02332625 -0.046002872 0.091943875 0.13181895 0.02960694 0.08032793 0.09551933
-0.108453736 0.08775344 0.035445295 -0.109355964 -0.0035655312 -0.04558993 0.11527032 -0.08494223
-0.09179643 0.106027104 -0.033758257 -0.14819366 0.04565025 0.15945373 -0.01729115 -0.0061500673
0.18343534 -0.02009729 -0.04210317 0.11332815 0.042847816 -0.12526342 -0.008920267 -0.07833967
-0.017960122 -0.038096637 -0.07706817 -0.073441 0.08599223 -0.051014025 -0.099473156 -0.182716
-0.0098790545 -0.113574006 -0.059223995 -0.12973179 -0.0028169092 0.07825137 -0.10073898 -0.010459347
0.20268916 -0.037782323 -0.0069197854 0.17793325 0.05547148 -0.055524997 0.16434921 -0.10100304
-0.11544713 0.043497723 -0.036116082 -0.0958393 -0.14546685 0.070373625 -0.061131645 -0.034413517
0.08901041 0.017898459 0.03136405 0.09774055 0.11560297 -0.017199177 -0.06516339 0.1214137
-0.04726107 0.017604116 0.014908964 0.109777756 0.008387038 -0.028655758 0.089785926 -0.013172358
-0.006668396 0.038177848 -0.020323407 0.036264073 0.06585291 0.034444094 0.06990175 -0.07100625
-0.07493419 0.026635468 -0.11469017 -0.1438393 -0.09834498 0.04590273 0.03615646 -0.030601993
0.14284416 0.0858366 0.028455375 0.04337631 0.025844155 0.052571338 0.23118834 0.03890897
0.09466424 0.12256156 0.09650393 -0.026957976 -0.011017261 0.10788512 -0.055659134 -0.18916929
0.10561554 0.15586115 -0.19615526 -0.10072245 -0.07100219 -0.16182779 -0.020588452 0.00081683166
-0.019625474 -0.028733045 -0.11105348 -0.21551666 -0.058184933 -0.18295135 -0.053059906 -0.11758252
-0.14934483 0.103835225 0.048142172 0.102101974 -0.0058241137 -0.098562576 0.14938489 -0.1794595
-0.041537393 0.024204468 -0.037591413 0.21879753 0.1779613 -0.1317961 -0.015144473 -0.03206794
-0.193221 -0.2382565 -0.013310083 -0.10279689 -0.13466541 0.07162057 -0.050520074 0.17307375
0.15759929 0.25548658 0.13860491 0.14971164 0.06819499 0.16614483 -0.013250749 -0.1036571

weight f4 [10]
00000000: 6023 863f 83f0 813f d641 893f 366c 633f
00000010: 15e6 463f bd35 673f d802 833f dff5 793f
00000020: 504b 913f dd2a 8f3f
1.0479546 1.0151523 1.0723217 0.8883699 0.7769483 0.90316373 1.0235243 0.97640795
1.1351109 1.1184956

bias f4 [10]
00000000: 945d a03d 8c39 ad3c 70fc c13d 6160 093e
00000010: 2031 743d 5b1b 663d 3cb5 9e3d 4ed9 a6bc
00000020: af8e c03d 30e3 e63d
0.078303486 0.021145605 0.09471977 0.13415672 0.05961716 0.056178432 0.077494115 -0.02036729
0.09402215 0.11273801

running_mean f4 [10]
00000000: 1379 d5be 97a1 1d3e 2f03 27be 1f74 6b3e
00000010: 5c1b 393f 2e7b a2be a0cd fabe 011a 18bf
00000020: 6700 91be 41bd e93a
-0.41693935 0.15393673 -0.16309808 0.22993515 0.7230737 -0.31734604 -0.48985004 -0.5941468
-0.2832062 0.0017832891

running_var f4 [10]
00000000: 3e0d 523f ba3b 933f 50dd 903f d875 763f
00000010: 7f68 973f 069b 5d3f d58d 933f 0b62 2c3f
00000020: 67ef 203f 45d2 b73f
0.82051456 1.1502602 1.1317539 0.96273565 1.1828765 0.8656467 1.1527659 0.673371
0.628653 1.4361044

weight f4 [20, 10, 3, 3]
00000000: 9ac9 c33d 2112 a5bd 41e0 edbd 8a19 a7bd
00000010: 2c2c bfbd 7c2f b23d 3545 893d 424b 3c3d
00000020: 73f9 d43a e4cf b6bd 5268 dcbd 7c73 02bc
00000030: c9cd 27bc a6bb f5bc cc36 91bd 3e88 65bd
00000040: 5f42 0a3e ba9b b53d 9061 073e c6f6 243e
00000050: 52d3 ad3d 7b63 133d b363 acbd f79f 97bc
00000060: 03e6 b5bd 6ea4 96bd b145 46bd 0267 973d
00000070: 770e 473d e4f4 8cbc a91c dcbd f7ab 98bd
00000080: 67d8 00be 5f25 22bc ff38 0abc e577 563c
00000090: 6ed5 ed3d 3198 d93b 69ef 82bd f2f1 33bc
000000a0: ce6d 123c 8ced ae3c e7cc 233e 3a82 0cbc
000000b0: bbe4 01bc 62d9 18bd 86d4 0ebe 4ea4 54bd
000000c0: f379 053e f444 793d f659 c6bd b2bd bcbd
000000d0: a6b0 fabd 333a 07be 80f3 f43d 13a6 fb3d
000000e0: d69d 633e 8edb 223e 8938 dfbc 15b8 553c
000000f0: 1bac ce3c 00c0 1f3d 80c3 c1bd c585 20bd
00000100: 9f4a 7c3d ac64 50bc e8a7 363d c22b 063c
00000110: 9dd4 a7bc 7bab 30bd d884 643d 04b7 c93c
00000120: e22a 9abc 3091 dabd 3dfd 0abe 6df3 823d
00000130: 6652 ab3d 1d21 313d e41c da3d 9c47 5e3e
00000140: 550a 163d 94cd 0cbc 1486 ac3c 1bd2 0fbe
00000150: 5488 c1bd 62f0 0e3d 4b1b ed3d 1b7f 28bd
00000160: 8efe dbbc 5c48 7abc c235 113d d29b 1b3d
00000170: b064 d5bb 2ea3 fcbd 6785 1b3d 347c ea3d
00000180: 65b6 e6bd 3f73 d8bd 1b9d 8bbd e6e2 1f3d
00000190: c3ce 993d 416f 07bb dcd8 f7bb ed28 a3bc
000001a0: 7951 9f3d 3fa2 74bd 7850 49bd 34fd 493d
000001b0: 44cf 933d ae24 f83c 09da 6c3c 21f2 023e
000001c0: e54f 06bd 65f0 cd3d 1c9c e63d 17e5 053c
000001d0: f0f1 56be 84c1 aeb8 15e7 8d3d b04f cc3d
000001e0: 30b4 8fbd a678 503c 596a 5b3d f43d bbbd
000001f0: 9f0c bcbd 133f a73c 3475 8ebd a9e5 933c
00000200: 0a52 b9bd 6212 a3bd 9b72 50bd 416f f0bd
00000210: 13ff fd3d 56ea b13d 9fca 96bd 079e b23d
00000220: 95f9 85bd 0c24 44be 7293 c03d 12be cf3c
00000230: 0443 6abd f672 1b3e 9029 253e 2b53 0b3b
00000240: 632b 89bd 782a 87bd b1d0 76be 4f2c da3c
00000250: 5548 ccbd a241 b3bc fa84 393d c1d8 6bbd
00000260: 736d a03c 9ec3 c73d 36fb d6bd e6c5 95bd
00000270: 4d48 af3d a898 12bc 6e4b fcbd 5438 ea3d
00000280: e232 b93d ebff 8a3d 7307 dc3d 407c f33d
00000290: 6ee3 e938 684e 12be 323b 94bd 1e92 233b
000002a0: 3437 4bbe 080d 08be 2707 0bbe 7ac9 f43d
000002b0: 7c7f 063e 32d3 923c ff4c c43d 90fc e23d
000002c0: 1cae 543d 905d c23d c3e8 883d 4a80 7b3b
000002d0: 112a f93c b01e a13d 7b02 e93d b88c c93d
000002e0: cbb2 7a3d ec39 f43d e387 f1bc c280 dabd
000002f0: 5cc1 14be 3461 99bc 567a 4f3e a0e2 3a3e
00000300: 8404 9abc ce61 e73a ce11 293c 49f1 28bd
00000310: 68ff 89bd 1c33 1cbe c8cd 893e 07e6 b63d
00000320: f028 123d 0728 afbd 52e8 f4bd b8d5 523d
00000330: 2402 1cbe a397 95bd 258f 9abd b4e1 f63b
00000340: 649a 973d f451 c8bd 5e02 cbbc 07b6 d6bb
00000350: bad9 45bd ebab e3bc fe8e 6c3c 302b cabc
00000360: 2922 65be 1dda 4bbd 99fe 0bbd 475a aebb
00000370: 97b9 63bc c916 5b3d f55c ad3d 097a 2a3e
00000380: e350 e83d b87c b9bd 8d9a 84bd 61b5 05be
00000390: 4755 54bc de60 10bc 225d 0a3d 228f 80bc
000003a0: 44b6 9dbd f0fe d33d b0ad 15bd 7010 d63c
000003b0: 5593 60bd a464 a33c 2b06 0cbd 81ee a13d
000003c0: aa30 e1bd ef5b 913c 82bd a4bc db12 15bc
000003d0: d953 d83c 1e4b 903d 0ac4 f43c 82a2 b43d
000003e0: 9bc2 4c3d e9ef 76bb 0c39 ce3d e12c 743e
000003f0: a72d 853c 0d5a 903d 325c 233e 476b 243d
0.09559937 -0.080600984 -0.11615039 -0.08159168 -0.09334597 0.08700463 0.06702653 0.04597021
0.0016248658 -0.08926371 -0.10762085 -0.007962104 -0.010241934 -0.029996704 -0.0709053 -0.056038134
0.13501881 0.08867593 0.13220811 0.16109762 0.08487572 0.035983544 -0.084174536 -0.018508894
-0.08881762 -0.07355581 -0.048406307 0.07392694 0.04859778 -0.017206617 -0.10747654 -0.07454675
-0.12582551 -0.009896605 -0.0084364405 0.0130901085 0.11612974 0.006640457 -0.0639332 -0.010982977
0.008937312 0.021353506 0.15996133 -0.00857597 -0.007928069 -0.037316687 -0.13948259 -0.051914506
0.13034801 0.060856774 -0.096851274 -0.09215869 -0.12240724 -0.13205795 0.119605064 0.122875355
0.22228178 0.15904066 -0.027248638 0.013044377 0.02522855 0.039001465 -0.09461117 -0.039190073
0.0615946 -0.012719315 0.04459372 0.008189144 -0.020487124 -0.043132287 0.055790752 0.024623401
-0.018819276 -0.106722236 -0.13573165 0.06394086 0.08365326 0.04324447 0.10650042 0.21707004
0.036630947 -0.0085939355 0.021060027 -0.14044993 -0.09449831 0.034897216 0.11577471 -0.041136842
-0.02685478 -0.015276041 0.035451658 0.0379904 -0.006512247 -0.123358116 0.03796902 0.11449471
-0.11265258 -0.105688564 -0.06817075 0.039034747 0.0751014 -0.0020665678 -0.0075636934 -0.019916976
0.077792116 -0.059725042 -0.049149007 0.04931374 0.07217267 0.030290928 0.0144562805 0.12787677
-0.032791037 0.10055617 0.11260244 0.008172295 -0.2099073 -8.333012e-05 0.06928841 0.09976137
-0.0701679 0.012724077 0.053568218 -0.09142676 -0.09182095 0.020415818 -0.069559485 0.018053846
-0.09048851 -0.079624906 -0.050890546 -0.1173997 0.12402167 0.08687274 -0.07362866 0.087215476
-0.065417446 -0.19154376 0.09403123 0.025359187 -0.057192817 0.15180573 0.16129136 0.0021259289
-0.066977285 -0.06599897 -0.24103047 0.026632456 -0.09974734 -0.021881882 0.045292832 -0.05757976
0.01958344 0.09754108 -0.104971334 -0.07313137 0.08558712 -0.008947529 -0.123190746 0.11436525
0.09042908 0.06787094 0.10743608 0.11888933 0.00011152668 -0.14287722 -0.07237853 0.0024958919
-0.19845277 -0.13286221 -0.13576947 0.11952491 0.13134569 0.017922971 0.09584998 0.11083329
0.051923856 0.09490502 0.06685021 0.0038376027 0.030415567 0.07867181 0.11377426 0.09841293
0.061205667 0.1192511 -0.029483741 -0.1066909 -0.14526886 -0.018723108 0.20261511 0.18250513
-0.018800981 0.001765305 0.010319186 -0.041245732 -0.06738168 -0.15253872 0.2691481 0.08930593
0.035683572 -0.085525565 -0.11958374 0.05147335 -0.15235192 -0.07304313 -0.07546834 0.00753423
0.074024945 -0.09781256 -0.024781402 -0.006552461 -0.048303343 -0.027791938 0.014438389 -0.024678797
-0.22376312 -0.049768556 -0.03417835 -0.0053208205 -0.013899229 0.053488526 0.08464996 0.16648115
0.11343553 -0.09056991 -0.06474791 -0.13057472 -0.012959785 -0.008812157 0.033780225 -0.015693251
-0.0770078 0.1035136 -0.036542594 0.026130885 -0.054828007 0.01994545 -0.03418557 0.07906819
-0.1099561 0.017744033 -0.020109896 -0.009098734 0.02640717 0.070455775 0.029878635 0.088200584
0.049990278 -0.0037679619 0.100694746 0.23845245 0.01625712 0.07048426 0.15953138 0.04014137

weight f4 [20]
00000000: 2cd1 723f fc10 853f 7e9f 803f 368c 783f
00000010: aa43 7d3f d5ad 813f f0da 833f 3008 7d3f
00000020: f599 793f be40 7f3f 490b 6e3f 2259 863f
00000030: 2af1 793f 0c86 813f ff75 833f e1b0 7e3f
00000040: 6d4c 843f c947 803f a47c 813f d9d8 7b3f
0.9485042 1.0395808 1.0048673 0.97088945 0.9893137 1.0131174 1.030119 0.9884062
0.97500545 0.99708164 0.9298597 1.0495951 0.9763361 1.0119033 1.0270385 0.99488646
1.0335823 1.0021907 1.0116162 0.9837776

bias f4 [20]
00000000: 677b 0abd c7e5 fbbd 6bdd 0a3b 7f69 7bbd
00000010: 2903 7dbd d206 9bbd 7b54 26be 34d8 8fbc
00000020: 6a49 913c 4d80 e23c d582 a7bd 8eeb c1bc
00000030: bc8b bfbd fdff d43b 4314 7dbd 9909 08bd
00000040: f56c dc3c 87ed babc 98cb b13d ed7b 9ebc
-0.033809092 -0.12299686 0.0021189104 -0.061379906 -0.061770592 -0.0756966 -0.16243164 -0.017559148
0.017735202 0.02764907 -0.08179251 -0.023671892 -0.09352824 0.0065002427 -0.0617869 -0.033212278
0.026907424 -0.02281834 0.086814106 -0.019346202

running_mean f4 [20]
00000000: 9298 5a3d 59a0 2d3d c952 08be 3825 03bf
00000010: cb43 e6be 6db7 7dbf e102 0dbf 84d1 78bf
00000020: 5d83 80be 2deb e2be 146e 013e 7147 33bf
00000030: 0fae 3bbe 2ecb e8bd 4152 07bf 1b15 85be
00000040: 640d b5bf 01fd cabe 0025 8fbb 8783 4e3f
0.05336816 0.042389248 -0.1331283 -0.51228666 -0.44973597 -0.9910801 -0.5508252 -0.97194695
-0.25100222 -0.4432005 0.12639648 -0.70030886 -0.18328117 -0.113668784 -0.52859885 -0.25992665
-1.4144711 -0.39646152 -0.0043684244 0.80669445

running_var f4 [20]
00000000: 4244 9e3e e994 a73e bba5 af3e dc50 0a3f
00000010: 4502 9b3e 5bb0 b43e 0452 cf3e 11a4 a43e
00000020: 8484 c53e c2fe c23e 656b 553e 1ee4 ba3e
00000030: a51a b83e a28c b43e ecc0 c13e c345 d03e
00000040: 31e1 a93e 2e06 da3e 9d61 593f 95f9 973e
0.30911452 0.32730797 0.3430613 0.5402963 0.3027517 0.352908 0.4049226 0.32156423
0.38577664 0.3808499 0.20841749 0.36502165 0.35957828 0.35263544 0.378425 0.40678224
0.3317962 0.4258284 0.8491457 0.29682603

weight f4 [10, 20, 1, 1]
00000000: 1172 8b3d b076 3cbe cf4c ebbd 4cf4 90be
00000010: cd5a 093e 734b bcbc 733e 3bbe f5a4 08be
00000020: f90a 773e 44be 443e 35d5 1abe 35f5 31bb
00000030: 7a0a 8d3e b768 423e 0c29 793d ad84 e33d
00000040: 564f 1bbd 3a89 d4bd 2975 34be d9c5 de3d
00000050: ee16 a03d 0524 d23d 52bd 80be c2ae afbd
00000060: 2dc6 f83d 7a64 0ebe d56c 12bd c3fa a23d
00000070: dc27 2fbe 883b 38be 18bb f2bd 68fd f83d
00000080: a91c ddbd 4cbb 8a3c 8e72 343e 0631 59be
00000090: dbd2 b0be 38c1 c93d 4e38 7c3d e1c0 323e
000000a0: f0c0 98be 8e45 213e 4b9a 873e 5678 9c3d
000000b0: 621a 6fbe e946 1a3e a45e 233e 13a8 053d
000000c0: bffe 443e 1393 bf3d 2894 29be da6c 4b3e
000000d0: e8c4 57be 6fce 16be 4277 783e 234f 263d
000000e0: 2d54 473e 2abb 653d b9aa 563e c3cf 773d
000000f0: 3818 083e 85a4 333e b929 d13d 2b05 1cbe
00000100: 0679 113d 5a4a 383d 89c2 84bd f575 48be
00000110: 13b8 773b 7c46 ff3d 63e2 3ebd ad8c d8bd
00000120: c2df c83c a783 b1be 9f77 923e 2762 8cbe
00000130: c663 6b3e 77a2 9ebd 7f9a 7abe 48a0 1cbe
00000140: e32a 2d3e 76ca c63e 3fa3 963e 0232 6fbe
00000150: dc6f f1bd d139 fbbd 18b3 db3d ae0e a3bd
00000160: 6092 ffbd 5bb7 cebc 3937 2d3e ce3f 0f3e
00000170: 6df4 293e 7087 3dbd f9a2 c73d b836 45bc
00000180: 8301 b9be eebb 9d3e f958 3cbe a004 9bbd
00000190: 75e3 953d e2ff 55bc 9787 33be d29a 193d
000001a0: 42cf 72bc 91ad 263e 337f bdba f97f 833c
000001b0: 387c 953e 7a7b 1e3d 271f 0d3e 44f1 9cbe
000001c0: eda4 4a3e 6549 cf3c 2159 09be bfa2 063c
000001d0: 0a3b 133e f9f0 bc3d af2b 573b f45a 79be
000001e0: 705e 4bbe 29bd e0bd 36a0 013e 2ae3 84be
000001f0: 4f6d 45bd 28f5 f43d 00fa 3dbe 132a 3a3d
00000200: d4d2 61be 13f9 6cbe 14e1 9fbd 07cb 1cbd
00000210: b6cb 92be 9edb 603e 046b 4dbe b241 b3bd
00000220: 550f 163e 6d02 9a3e c6e1 ac3d 9688 7bbd
00000230: 9e1a ddbd b4f4 3f3e cac9 4e3d 39e2 953e
00000240: 5785 08bd 3922 3cbe 4ed2 ffbc e232 a93e
00000250: 0ea8 15be f3e7 e0bd 8619 16bd 0911 763e
00000260: fdd9 7d3c 8930 213e 8026 5cbe 20f6 3d3e
00000270: b312 cabb 7b20 04be 7bc0 803e ee74 823d
00000280: e189 403e 8b78 80be 685f 22bd 3a50 a13d
00000290: 6514 3f3e 32b6 823e a79c ce3e 502b 123e
000002a0: f8db 1a3e 899e 7e3d 144f a33d 5caa a03e
000002b0: 4585 5b3e 7ec8 333e f30a 28bb 7ee0 0f3e
000002c0: 1606 27bc 680d 6a3e 41aa 8cbd 78bf 58be
000002d0: 3a69 433d 3de3 073e 6174 dabd da10 e23d
000002e0: e4b8 753e b463 cd3d fd7d f13d d660 f5bc
000002f0: 9bfd 90bc 16fe 813e ab6f 02be b2f4 b13d
00000300: 0376 f0bb ac34 4fbe ddd6 43bd 7620 abbe
00000310: 9913 25be 970d 3b3e f59a 663e 44d2 d8bd
0.06808866 -0.1840465 -0.114892595 -0.28311384 0.13413544 -0.022985196 -0.18285541 -0.13344176
0.2412528 0.19213206 -0.15120395 -0.0027154211 0.27547055 0.18985258 0.06083016 0.1110929
-0.037917458 -0.103777364 -0.17622818 0.1087758 0.078168735 0.102607764 -0.2514444 -0.08578254
0.12147174 -0.13905516 -0.03574832 0.07957985 -0.17105049 -0.1799146 -0.118520916 0.121577084
-0.10796482 0.016935013 0.17621824 -0.21210107 -0.3453587 0.09851307 0.061577134 0.1745639
-0.298347 0.1574919 0.26484904 0.0764014 -0.23349908 0.15066113 0.15954071 0.03263099
0.19237803 0.09354224 -0.16560423 0.19865742 -0.21071208 -0.14727186 0.24264243 0.040602814
0.19465704 0.056086697 0.20963563 0.06050087 0.13290489 0.17543228 0.10213036 -0.15236346
0.035515808 0.044992782 -0.06482417 -0.19576247 0.0037798926 0.12464616 -0.046602618 -0.10573707
0.024520759 -0.34670755 0.2860689 -0.27418634 0.2298728 -0.077458315 -0.24472998 -0.15295517
0.16910891 0.3882634 0.29421422 -0.2335892 -0.117889136 -0.12266887 0.10727519 -0.07961784
-0.12479091 -0.025233915 0.16915597 0.13989183 0.16597147 -0.04627174 0.097478814 -0.012036972
-0.36133966 0.3080744 -0.18393315 -0.075692415 0.073187746 -0.0130614955 -0.17532192 0.037501164
-0.014819922 0.16277148 -0.0014457464 0.016052233 0.29196334 0.038691975 0.13781415 -0.3065282
0.19789477 0.025303552 -0.13412906 0.008217513 0.1437799 0.092256494 0.0032832434 -0.24351102
-0.19860244 -0.109735794 0.12658772 -0.25954562 -0.048199948 0.11960822 -0.18552399 0.04545028
-0.22053081 -0.2314189 -0.07806602 -0.03827956 -0.28671044 0.21958777 -0.20060354 -0.08752765
0.14654286 0.30079976 0.084415 -0.061409555 -0.107960925 0.1874569 0.05048541 0.29274157
-0.033330288 -0.1837243 -0.03122821 0.33046633 -0.14614889 -0.10981741 -0.036645435 0.24029936
0.015493867 0.15741171 -0.21499062 0.1855092 -0.00616678 -0.12903015 0.2514685 0.06369959
0.18802597 -0.25091967 -0.039641768 0.0787663 0.18660124 0.2552963 0.4035389 0.14274335
0.15122974 0.06216291 0.07974067 0.31379974 0.21437557 0.1755695 -0.0025641292 0.1405048
-0.010194322 0.22856677 -0.06868411 -0.2116679 0.047707774 0.13270278 -0.10666729 0.110383704
0.23996311 0.100287825 0.117916085 -0.029953402 -0.017699054 0.25389165 -0.1273791 0.0868925
-0.007338287 -0.20234936 -0.04781233 -0.33423203 -0.16120757 0.18266903 0.22520049 -0.1058698

weight f4 [10]
00000000: 8940 783f 1962 933f 5f5d 7e3f b749 963f
00000010: 62c6 873f 34d6 483f b66e 873f 17e4 533f
00000020: 7ac1 593f 3c30 843f
0.9697347 1.1514312 0.99361223 1.1741246 1.0607417 0.7845185 1.0580661 0.8276991
0.85060847 1.032722

bias f4 [10]
00000000: fa09 4abc 77bd ad3d e726 ba3d b264 523e
00000010: 4d4e 0c3e 30e5 823c ab7e 283e 6030 0c3e
00000020: 9add 0abe fded af3d
-0.01233148 0.08483403 0.09089451 0.20546225 0.13701744 0.015978426 0.1645457 0.13690329
-0.13561097 0.085903145

running_mean f4 [10]
00000000: f1ba 023d a6d3 e6be 058e 543f a5df c7be
00000010: d2a8 183e 848c 583e 12f3 10bf 485c 173f
00000020: 4c4a a53f 1b9c 1d3e
0.031916562 -0.4508335 0.83029205 -0.39037815 0.1490815 0.21147352 -0.56620896 0.59125185
1.2913299 0.15391581

running_var f4 [10]
00000000: 61d7 933f 235e 7c3f b1f5 823f 2785 783f
00000010: e190 3e3f 0cf0 1b3f c4dc 773f d83e 933f
00000020: 143c 3a3f fc97 773f
1.1550103 0.9858114 1.0231229 0.97078174 0.7443982 0.6091316 0.96821237 1.1503553
0.7274792 0.96716285

weight f4 [10, 10, 3, 3]
00000000: 93bb 32be b8fa f73b 359e 27be 7de5 81bd
00000010: f4fe 453d 8433 0cbd 22f5 a53c 1858 e33c
00000020: 38ff 503b c3d5 623e 2147 d43d 3eb6 123d
00000030: 3b41 dd3d 47c2 af3d b433 ab3d 35ed 7dbd
00000040: db75 dcbb 3e72 d5bd 95cd 67ba e1f2 bdbd
00000050: d558 c5bd 4b0e 4b3d ec18 8e3d 30ec 653d
00000060: 9ac7 e73d 998b d43d 7c34 603e f486 5fbe
00000070: 8af0 31be c58a 79bd 164e 3dbe 5609 51bd
00000080: 9bee 91bd c677 4a3d b2db 553d 34ac 17bc
00000090: 96b7 01be 76b4 fabd f62a 16bd 5c37 7fbd
000000a0: 3129 d53c ef0d 21bd 33ba 433d 48f5 a33d
000000b0: 9eb0 2c3b 2174 babd b2e0 37be 0727 43be
000000c0: 83ee 67bd bffc 50bd a81c 87be 72d9 df3c
000000d0: c093 58bd d091 b6bd e6e5 883c 1902 8cbd
000000e0: d5ad 5a3e e339 893d e721 a0bb 99b3 b63d
000000f0: 20c0 17bd 62ed 0cbe 78c8 8abd 967f 8c3d
00000100: 83e9 903d e7c3 0dbd 01a2 ad3d d5a0 0abd
00000110: 6e85 e33c 3a56 173e 339f 54bd 312e bb3d
00000120: abb9 14be 79e3 25be 4d75 2bbe 78d5 1a3c
00000130: da1d c83c a756 b33c d6e8 0ebd 97e6 99bd
00000140: 4776 b03b 778e 14bd c012 19be 1c36 b43c
00000150: 2416 5a3d 5d6a 80bd 3f21 dbbc 44c0 d73c
00000160: 784e 4ebd 4724 9aba b21d b1bd 9f5b 4a3d
00000170: 8df6 c93e 4330 80bc 4286 023d 3ba9 49bd
00000180: f2ea 373e 18fc f9bc 9a2c 32be ddd0 36be
00000190: 50ef 5ebc c278 4e3d d0a9 c8bc e980 863d
000001a0: 7743 e4bc 835a d2bc 3039 e3bc f2f4 7abe
000001b0: d665 ed3d ed44 1abc 064d b8bd e39d 123e
000001c0: 11b8 cebd 863c 6c3d f6f9 963d eda7 a83d
000001d0: f393 2e3e a072 5c3c 5193 3b3c 00ac 50be
000001e0: 1d89 a7bc ec05 313d 914d 5bbe e3ba ad3d
000001f0: 1e47 37bd 2bcb 97be 31c9 803c c2eb db3d
00000200: 3c82 8dbc fa87 0a3e 5076 88bd 5389 28be
00000210: 965f 4c3e 843a 0c3e 0b71 57bd 713a 4cbd
00000220: ad09 19bc 0ab0 383e 21ac 0abd cdf4 54bc
00000230: f956 423d a2c5 103e 602b dd3d acb4 103c
00000240: 793c 853d ecc6 03be 9860 30be 7825 b0bd
00000250: c156 abbd e599 4bbc 7853 d1bd 9622 d63d
00000260: df5e 453e bd9d 643d c67a fcbd 209b 973d
00000270: 8d9b dabb 79b0 07be 527c ab3d 8262 94be
00000280: d42a 313d 14b6 d43c 51cf c5bd 78ad d8bc
00000290: 1523 25bd 46e1 103d 1c93 f53d 02aa 6b3d
000002a0: 511e 333d c411 483d ae7d 7ebd 5996 0d3e
000002b0: b545 243e 27c8 1dbc 6ad9 c03c bcff fdbd
000002c0: 7b24 54be 5a36 ab3d e075 43bd b764 bbbe
000002d0: eaec 253e 5bdc ffbd f916 743d 04e2 633e
000002e0: 79ad 3d3d abcc 3e3d 906b e63d e167 853c
000002f0: f97f cebb 8607 3bbc a76d cabd f19b c5bd
00000300: 09f4 69bd 8c4b a13c 6dfd 7fbd 565d 5f3d
00000310: ce07 8bbd 878e cebd 5947 343c 9d93 f6bd
00000320: 3590 febd c591 88bd 2ec4 8bbd f2f2 a9bd
00000330: 7cac 70be 5cde adbc bc56 4abe 0959 5a3d
00000340: 1081 5e3c 6a18 a0bd 692f c33d 3c4e 41bd
00000350: e08c acba 4a2f c33d 6207 11bc d2de b53c
00000360: c1a7 b6bc fc23 703d 0a23 3c3d 40b4 12ba
00000370: 0eaf cf3c c6b1 c9bd 7db6 abbd 0468 43bd
00000380: 5d06 16be da90 fb3c 61d0 843c 2980 b83c
00000390: 7bf3 61bd 24aa 253d 30bc a43d f2c5 06be
000003a0: f61e bcbd 630a c9bd 93a3 123e 4891 51bc
000003b0: 730e 7d3d 13a9 593d 02a4 a93d 9dc8 c43d
000003c0: 0cfe 1c3c e9d1 143d d072 05be 0348 f3bd
000003d0: e79f 30bc a1b2 82bd 379c 97bd 751c b23d
000003e0: f384 b6bd 5f69 11be eafd adbc ba2e 11be
000003f0: 633b 7dbc 1c0a 3bbd 43b7 0abe a7e2 ff3c
-0.17454366 0.00756773 -0.16368945 -0.063425995 0.048338845 -0.034228817 0.02025849 0.027751967
0.0031890403 0.22151856 0.10365129 0.03581833 0.10803457 0.08581977 0.08359471 -0.061993796
-0.0067279167 -0.104221806 -0.0008842585 -0.09274841 -0.09636084 0.049574178 0.06938347 0.05613345
0.11317368 0.10378189 0.21895021 -0.21828824 -0.17376915 -0.060923357 -0.18486819 -0.051034294
-0.071255885 0.04943063 0.05221147 -0.009257365 -0.12667689 -0.122414514 -0.036662064 -0.062308654
0.026020618 -0.03931993 0.047784995 0.08005768 0.002635039 -0.09104181 -0.17956808 -0.19057857
-0.056623947 -0.051022287 -0.2638905 0.027325366 -0.05287528 -0.0891453 0.016711187 -0.068363376
0.21355374 0.06700494 -0.004886854 0.08920974 -0.03704846 -0.1376243 -0.06776518 0.068602726
0.07075789 -0.034610655 0.084781654 -0.033844788 0.027773585 0.14778987 -0.051909637 0.0913967
-0.14523952 -0.16200055 -0.16743965 0.009450309 0.024428297 0.021891905 -0.03489002 -0.07514685
0.0053851935 -0.036268678 -0.14948559 0.021998458 0.05324377 -0.06270287 -0.026749251 0.026336797
-0.050367802 -0.0011760079 -0.08648242 0.049403783 0.39445916 -0.015648013 0.03186632 -0.049233656
0.17960718 -0.030515715 -0.17399827 -0.17853113 -0.013606861 0.050408132 -0.024495035 0.065675564
-0.027864201 -0.025677925 -0.02773723 -0.24507502 0.11591689 -0.009415847 -0.08999066 0.14318042
-0.10093702 0.057674907 0.07371895 0.08235154 0.17048626 0.013455063 0.011448697 -0.20378113
-0.020451123 0.04321854 -0.21416308 0.084829114 -0.044745557 -0.29647192 0.015720936 0.107383266
-0.017274015 0.13528433 -0.06663191 -0.16458635 0.19958338 0.13694197 -0.05259804 -0.04986042
-0.009340686 0.18035904 -0.03385556 -0.012997818 0.047446225 0.14137891 0.10799289 0.008832138
0.06505675 -0.12868851 -0.17224348 -0.086008966 -0.08366156 -0.012426828 -0.102209985 0.104558155
0.19274472 0.055814493 -0.12328105 0.074026346 -0.006671375 -0.13250913 0.083733216 -0.28981405
0.043253735 0.025965728 -0.09658683 -0.026449904 -0.04031666 0.035371087 0.119909495 0.05753518
0.043730084 0.048845068 -0.062131576 0.13826884 0.16042216 -0.00963024 0.023541171 -0.12402293
-0.20717041 0.08359976 -0.047719836 -0.36600277 0.16203657 -0.12493201 0.05959222 0.22254187
0.046308015 0.046581905 0.11250985 0.016284885 -0.0063018766 -0.011415368 -0.09884196 -0.09648884
-0.057117496 0.019689344 -0.062497545 0.05453237 -0.06788598 -0.10085779 0.011003339 -0.12039874
-0.12429849 -0.06668428 -0.06824528 -0.08298291 -0.23503298 -0.021224193 -0.19759649 0.053307567
0.013580576 -0.078171566 0.09530527 -0.04719375 -0.0013164543 0.09530504 -0.008851858 0.022200976
-0.022296788 0.058628067 0.045931853 -0.00055963174 0.025352027 -0.09848361 -0.08384416 -0.04770662
-0.14650865 0.030708719 0.016212644 0.022522049 -0.05516384 0.040445462 0.080437064 -0.13161448
-0.09185593 -0.09816434 0.14320211 -0.012790985 0.061781358 0.053139757 0.08283235 0.096085764
0.009582054 0.036333 -0.13032079 -0.118789695 -0.010780311 -0.06381727 -0.074028425 0.08696834
-0.08912077 -0.14200352 -0.02123924 -0.14177981 -0.015456053 -0.045663938 -0.13546471 0.031236006

weight f4 [10]
00000000: e001 733f f9b3 783f fc6e 8a3f a95a 733f
00000010: c253 843f 0923 743f 2db0 803f af13 873f
00000020: 1238 843f c244 773f
0.94924736 0.97149616 1.081512 0.9506021 1.0338061 0.9536596 1.0053765 1.0552882
1.0329611 0.9658929

bias f4 [10]
00000000: d760 ca3d a6a5 0fbe fdc2 cfbd 026a eebd
00000010: d93d 65bd 46e5 d6bd c45c 373e b55d 25be
00000020: 5b1e ad3c e097 3ebd
0.09881752 -0.14028034 -0.10144613 -0.11641313 -0.055967186 -0.10492949 0.17906481 -0.16149028
0.021132639 -0.046531558

running_mean f4 [10]
00000000: f4b1 12bf 531e 9ebe cbc8 69bf 17bd 2cbf
00000010: 0155 853e afbd f33d f493 8ebf e54c 93be
00000020: fc78 393f 5430 b03e
-0.57302785 -0.3088251 -0.9132201 -0.6747603 0.26041415 0.11901414 -1.1138902 -0.28769603
0.7245023 0.3441187

running_var f4 [10]
00000000: 9d6a 883f 1877 6b3f 682d 693f 021c 3f3f
00000010: f1b2 853f ad3c 3a3f 8ab8 3d3f 910b 533f
00000020: aefd 7d3f 6aee 7c3f
1.0657536 0.919786 0.9108491 0.7465211 1.0445234 0.72748834 0.7410971 0.82439524
0.9921521 0.9880129

weight f4 [20, 10, 3, 3]
00000000: 1048 61bd 49a1 893c 2453 823b d4f9 03bd
00000010: b838 4f3b c93c e83c 6e7b fdbd a5ad ec3c
00000020: 0feb 23bd 31a6 29be 04b5 53bc bc8a 1fbe
00000030: ac90 ddbd aac0 3ebd 99f8 1bbe 8851 2cbe
00000040: efdb f6bc b6e2 8bbe ae4d ab3b 53fc b73d
00000050: a4a8 9a3d 331a bebb af80 a6bd 29a1 7fbd
00000060: f9ea 593c db1f 7e3d c2b3 093e 4ed7 6cbd
00000070: 3bb1 f8bd 2703 43be b93e 533d 8c3c 96bc
00000080: cb5f 84bd 84d9 3abd 4811 b23c ff6b 01be
00000090: 1e80 af3c 662c 01bd c2c7 0dbd c8ca 893d
000000a0: f4cb a53d d71f ff3c 729b 0f3e c2ba 633d
000000b0: c1d5 013e a11d 21be c804 98bd fa18 9ebd
000000c0: 5e71 a4bd 73b5 81bd 2369 543b 9b0a 633d
000000d0: e953 07bd bc61 003e ac3f e3bc 037d 853d
000000e0: d43d 343e 39ff 01be 7da9 febc c3f4 213e
000000f0: 3cbd 1fbd 6700 2cbd ea1e a33d 0acd 243d
00000100: 4f04 7ebd aa82 073d 52c4 0c3d ad93 aabc
00000110: 4013 9fbc 2994 b73d b0b2 0abc ebfb d23d
00000120: edfd 3f3d 4cbe 3bba ff44 ae3d 1c42 153d
00000130: 5cec d5bc 50c5 02bc a069 013d 8e70 e53d
00000140: 1492 c63c 824f 083e 56c4 bfbd 219a b73d
00000150: ecdd 873d ce2b 20bd b78e 853d 48b0 833d
00000160: e702 6dbd 15d5 e73d b748 5e3e fb9b 703d
00000170: 0fe4 1e3e bcdf e13c 6fc6 ab3c a30c 51bc
00000180: 3a17 02bd 74f3 85bd 08c6 b6bc c43e fbbd
00000190: 5fd0 89bd 0cdf 30be c13f 5d3d 2c12 823d
000001a0: 6102 49bd 173e 063d 4607 a5ba e243 6bbd
000001b0: b39a 23be 8700 71bc 964a 2a3d 03b4 4ebc
000001c0: d413 a2bd 1277 ecbc bf8d fe3d 0980 fb3d
000001d0: 1aa5 a03d 3d21 45be c2fe 81bd 75c5 33bd
000001e0: b768 25be 1c6a b73d 9e6a 6cbd d8c4 96bd
000001f0: 6433 373c 4c24 dbbd 5318 4b3c 824f 42bd
00000200: 3919 bdbd 81f0 b3bc 8ded 6d3c 68dd 463d
00000210: a168 8cbd 604c 0bbd f79c 0bbe 1730 98bd
00000220: b71e d2bb e772 f0bb 6926 833b 14b8 5fbd
00000230: dd27 d6bd f9ee 9cbb 9b9e b4bc 8bd2 8b3d
00000240: 8e4f 68bd b9b8 56bd 577b 013e 0c9b 8ebd
00000250: a057 65bd 5726 1dbc b959 2bbd a05d 89bb
00000260: f1a4 cfbc 2e83 1c3d fddd 95bd f6b6 91bb
00000270: ff76 983d 6ba5 21bd 0aa5 673d a6cf 1cbd
00000280: c2ba cd3b 1751 933c e11b 7dbe 92f1 54be
00000290: a7a5 81bd e500 b0bd ab98 cfbc dca2 193a
000002a0: 2c1b 553d 50b3 1d3c af08 81bd 9e5d 9dbd
000002b0: e1cf 52bd fc0d 773b 0a4b 2dbc 53ab 723d
000002c0: 0aae 0dbd abd7 12bc f583 0c3d 5df2 dabd
000002d0: 56a6 87bd e4ab 35be a37a 43be 2aa7 c9bc
000002e0: 7cbc 8dbd 6414 a1bd 657a 173e a624 813c
000002f0: 2e96 c0bd 9cef e9bd 88e6 53bd 4708 8b3c
00000300: 7548 d5bd 80c0 91bd 6e7f 30bc 3193 abbd
00000310: c9e5 adbd 1e39 d2bd e4c5 583d 64f3 053b
00000320: 521d e3bd 116f c7bd 8287 a9bd 927f 9e3d
00000330: 32c1 55be 656d 0abe b57c b93d 9e45 f3bd
00000340: 9e84 b73c 8421 dd3d 5945 a0bb 7d6e 263d
00000350: ee0a ec3d 6817 a1bc 66c6 16be f81f 9a3d
00000360: 5bf4 f0bd 5052 a93c 0a07 253e ac06 1dbe
00000370: 0134 d0bc 8375 ab3d 73f7 21be 4285 ac3d
00000380: c06f 7c3e a393 f03d 6689 963d b7d7 88bd
00000390: be3b e33d 551c 2c3c cd9d c43c 165e e4ba
000003a0: 4d8d 9a3d f076 2b3e 2d60 3cbd 2928 adbc
000003b0: 4379 04be 7711 033d 0c80 94bc 2bdd e6bd
000003c0: 930e b3bd 7688 be3d c941 83bc cf58 f23c
000003d0: ab45 5c3d 7bde b03a 8bc8 17bd 863b 753b
000003e0: c153 85bd e05b b33d c87d a23d 1871 05be
000003f0: 9d61 dbbd e790 263d 995a 063e 4fa1 c4bd
-0.055000365 0.01680054 0.0039771963 -0.032220677 0.00316195 0.028349297 -0.12377058 0.028891394
-0.04001909 -0.16567303 -0.012921575 -0.15580267 -0.108186096 -0.046570458 -0.15231551 -0.16827977
-0.03013417 -0.27321404 0.005227766 0.08983674 0.07551697 -0.005801463 -0.08130013 -0.062409554
0.013300651 0.0620421 0.13447478 -0.057822518 -0.12143179 -0.19044171 0.05157349 -0.018339418
-0.064635836 -0.045617595 0.021736756 -0.12638853 0.021423396 -0.031536482 -0.034614332 0.067281306
0.080955416 0.031143112 0.14024141 0.055598028 0.12679197 -0.15733959 -0.07422787 -0.07719608
-0.080294356 -0.06333437 0.00324113 0.055430036 -0.033039007 0.12537283 -0.027740322 0.06517985
0.1760171 -0.12695016 -0.031086678 0.15816025 -0.038998827 -0.04199257 0.07964881 0.040234603
-0.062015828 0.033083595 0.034366913 -0.02082237 -0.019418359 0.08963806 -0.008465454 0.10301956
0.046873022 -0.00071618403 0.08509254 0.03644 -0.026113681 -0.007981613 0.031594872 0.11203109
0.024239577 0.1331158 -0.0936362 0.08964945 0.06634125 -0.039104275 0.06521361 0.06430107
-0.057864096 0.11319939 0.21707426 0.058742505 0.15516685 0.027572505 0.020968644 -0.0127593605
-0.03176043 -0.065405756 -0.022311226 -0.12267831 -0.06729197 -0.17272586 0.05401588 0.06351122
-0.049074534 0.032774057 -0.0012590669 -0.057437785 -0.15976982 -0.014709598 0.041575037 -0.01261616
-0.07913938 -0.02886537 0.1242938 0.1228028 0.078439906 -0.1925096 -0.06347419 -0.04388948
-0.16153227 0.08955786 -0.057718866 -0.07361764 0.011181686 -0.107002825 0.012395936 -0.047439106
-0.092333265 -0.021965267 0.014521969 0.048550993 -0.06855894 -0.034008384 -0.13634096 -0.074310474
-0.006412353 -0.007337916 0.0040023816 -0.05461891 -0.10456822 -0.00478923 -0.022048285 0.06827267
-0.056716494 -0.05242226 0.12644707 -0.069631666 -0.05599177 -0.00959166 -0.041833613 -0.004192069
-0.025347205 0.03821104 -0.073177315 -0.0044468595 0.07444572 -0.039464395 0.056553878 -0.038283966
0.006278367 0.017983003 -0.24717666 -0.20795277 -0.06330424 -0.085939206 -0.025341352 0.0005860755
0.052027866 0.009625271 -0.063004844 -0.07683872 -0.05146778 0.0037697544 -0.010576973 0.05924542
-0.034589805 -0.008962552 0.03430553 -0.106907584 -0.06623523 -0.17741352 -0.19089751 -0.024615843
-0.06920716 -0.07865217 0.14792784 0.015764546 -0.094036445 -0.11422655 -0.051733524 0.01697172
-0.10414211 -0.071167946 -0.010772569 -0.08377684 -0.08491094 -0.102648005 0.0529231 0.0020439262
-0.11089577 -0.09737981 -0.08277799 0.07739176 -0.2087448 -0.13518293 0.09056989 -0.11878513
0.022402104 0.10797408 -0.0048910794 0.040632714 0.11525522 -0.019664481 -0.1472412 0.07525629
-0.11765357 0.020669132 0.16115966 -0.15334576 -0.025415422 0.08372023 -0.1581705 0.084238544
0.24652004 0.117469095 0.073504254 -0.06681769 0.11095379 0.010504802 0.024001027 -0.0017423059
0.07546482 0.1674459 -0.045990158 -0.021137314 -0.12936883 0.031999078 -0.018127464 -0.11272653
-0.08743014 0.093033716 -0.01602258 0.029583363 0.053777378 0.0013494039 -0.037056487 0.0037419512
-0.065101154 0.08757758 0.07934147 -0.13031423 -0.10711978 0.040665533 0.13120498 -0.0960108

weight f4 [20]
00000000: 985f 883f 98b5 7c3f da31 803f 17ea 763f
00000010: ade0 7b3f 3ebe 6e3f 54db 7c3f b22b 6b3f
00000020: bb6e 7a3f 8773 853f 9ddc 683f e952 5c3f
00000030: 2412 873f f010 7d3f 93d9 6f3f 8d89 713f
00000040: 9ec4 7b3f faee 8e3f 8204 6f3f c550 803f
1.0654173 0.9871459 1.0015213 0.9645094 0.98389703 0.93259037 0.9877217 0.9186355
0.9782521 1.0425881 0.9096163 0.8606401 1.0552411 0.9885397 0.93691367 0.9435051
0.9834689 1.116668 0.93366253 1.0024649

bias f4 [20]
00000000: 6623 febd 9822 c9bd 826b 77be 0065 2ebe
00000010: 9a2b f1bd 235a aa3c d058 9dbe 2c8d b4bd
00000020: 4141 03be 5901 6bbe 96b5 5dbe a4ec ddbe
00000030: 64fd 66be 5b4d 98be 6fb3 83be 0e5f aebd
00000040: 86bd 15be 601a 0fbe 0764 f0bd 6b66 0ebe
-0.124090955 -0.09821051 -0.24162105 -0.17030716 -0.117758945 0.020794934 -0.3073182 -0.08815989
-0.12817861 -0.22949733 -0.21651301 -0.43344605 -0.22557598 -0.29746518 -0.25722834 -0.08514224
-0.14623079 -0.13974905 -0.11737829 -0.13906257

running_mean f4 [20]
00000000: 78a4 29be 537c 3fbf 70e3 16bf 05ea a0be
00000010: 0e16 5dbf 6504 a73e ea5f d43c 2fb8 103d
00000020: 8251 edbe aa51 03bf fca8 36bf 86c6 27bf
00000030: 2269 89bd c88b 62bf 4659 0abe 00b7 8dbd
00000040: 3959 acbf 57b7 8ebf 0931 ddbe 0071 45bd
-0.16566646 -0.7479908 -0.5894079 -0.31428543 -0.8636178 0.3262054 0.025924642 0.0353319
-0.46351248 -0.51296484 -0.713516 -0.655373 -0.067095056 -0.8849454 -0.13510618 -0.0691967
-1.3464729 -1.1149701 -0.43201473 -0.04820347

running_var f4 [20]
00000000: 69d5 d43e 86b0 9d3e 9321 c13e 908b 9c3e
00000010: 49d8 5b3e 570a 993e f16d 993e 8228 613e
00000020: 88a2 a23e 7e84 c73e 6293 343e c438 b13e
00000030: e94e aa3e df38 a33e 5d5c 553e 4389 8e3e
00000040: ca1f 6e3e 20ad ab3e 331c 8e3e 6d4f b93e
0.4156907 0.3079874 0.37720928 0.30575228 0.21469225 0.298907 0.2996669 0.21988109
0.31764627 0.3896827 0.17634347 0.3461362 0.3326333 0.31879327 0.20836015 0.27839097
0.23254314 0.3353052 0.2775589 0.3619341

weight f4 [32, 20, 3, 3]
00000000: 2b6e 85bb 2fa2 1a3c f4bd 96bd ecc5 9b3d
00000010: b2ee 55bb 5d00 23bd c6e7 833d a26c 433d
00000020: 8088 aebb 8873 dd3d 9968 2abc 0d3c 223c
00000030: b253 bf3d e946 b8bc 4855 60bd 04ae 853d
00000040: e487 89bd 40ba a1bd 1630 293b 8a8e 8e3c
00000050: 587a a53c 254f 72bc fe84 93bc c4f9 753c
00000060: adb1 903d 95aa 213d 3bea 5b3d a7c4 c13b
00000070: 64bc b43c 0449 a03b 8d5c 623c d877 a1ba
00000080: 40af 8f3a 0956 85bd 48ff 21bd 30eb 07bd
00000090: ba2f 04bd 902c a63d e98c b13d 6140 86bd
000000a0: 6a71 593b af72 9e3d 647a 6dbd 36c8 cfbd
000000b0: 2c14 eabc 5746 b9bd 8cf2 57bb a72f a13c
000000c0: 6bf2 a2bd c2c2 a8bc f85b e0bb ec4f c2bd
000000d0: 0b05 22bd 697a 0d3d 4762 07bd 5816 aebd
000000e0: 3d7f ebbc 5145 00bd d6f0 523b 3f1d 1fbc
000000f0: afa8 d73d fda7 5b3d 2d3c 623d 40d2 5fbc
00000100: 5ba0 c3bc 61aa 91bc 1dd7 1f3b 8b4b 0d3d
00000110: 2dd4 a039 ef8a 62bc e908 40bc 17d1 7bbd
00000120: e01d 2abd a938 ad39 99d3 efbc 4a06 1b3c
00000130: 7881 5bbc 557f 58bc 518d dbbc 2f4d 43bc
00000140: 5fbd 04bd 3708 eb3d a0be 0e38 b5db 37bc
00000150: 5679 ad3d 6b6b c13c 73f1 bfbc 8ad2 743d
00000160: bace 903d 1f65 66bc 56c0 433b cd62 5abc
00000170: 83f1 55bd 2715 f8bc 8511 a23a 1dc9 09bd
00000180: bff5 6dbd 2ceb eabd b4b4 a3bd 039a 313c
00000190: 5d07 7fbc c14c c8bc 22f8 abbc 4516 1dbd
000001a0: 4367 17bc 70df 68bd 8c13 8bbd b82d c03c
000001b0: 1ad8 8abd 4e4b 47bd cc50 92bd 2101 4fbd
000001c0: 1ef5 4a3b 807c aebc f5ce 23bd d3bb 153d
000001d0: 6151 bb3c 6475 f83c 7500 b2ba d4bf ac3c
000001e0: 95c5 203d 502d e63c ebf9 8f3d 5f0f a03d
000001f0: 8191 7b3c 8017 ea3d e4b6 c33c 4187 0c3c
00000200: 6830 703c b883 23bd c004 6ebc d161 6fbc
00000210: 3525 12bd b1cc b83b e598 b23a 44c7 f2bb
00000220: 7d28 e23c e22a 5bbd 0bf7 873b 7602 9ebc
00000230: 616f 1ebd 6bd7 b9bd 500c 58bd aafc a3bd
00000240: ffa3 a13d 6dd2 443c 54d1 7cbc 247e e5bc
00000250: 93d5 6ebc e81f 5dbd 2b50 b83c 7002 d1bb
00000260: b3a3 b8bd 7096 a53b 367f 42bc 76f2 11bc
00000270: cf92 ba3c f8f4 77bd d1b9 74bd 6e1b 03bc
00000280: 962b c7bd ff17 8abd 3275 74bd 8621 7e3a
00000290: 74cf 233d 53b4 dcbc 25f5 20bd 11ec e0bc
000002a0: 033c 99bd a839 68bd 5718 b0bd d4ef 7f3d
000002b0: affa 94bc bb6c 4a3d d8c1 5c3d 3b05 bbbc
000002c0: 6aaa 9fbc 466c 013e 8e3f d33d bdac de3d
000002d0: f5b6 2dbd 3668 51bc 406a 5dbd c72e 553c
000002e0: 4875 9fbd 13a5 96bd ce12 ebbc eb1a 7bbc
000002f0: 46d3 c6bd 8d39 643d fac1 c83d 4d4e 923c
00000300: 728e ae3d 73c1 4f3c e08e edbb 68d4 9a3d
00000310: 7466 debc 914d 32bd 80d7 bcbc e58a 933c
00000320: 46ae 8cbd 7613 8b3c f584 5d3c f668 193d
00000330: ec25 8a3c af55 b7ba e144 7a3c c4b6 85bd
00000340: 1b1c 59bd 2372 3ebc 963e 8abd f4e7 1bbd
00000350: 78cd 26bd bcee 55bd 24bd 03bd b647 06bd
00000360: 6128 09bd ce67 a4bd 398b 15bc bc5b febc
00000370: e3ba 33bd 1d79 143c bdc0 a3bd 4150 19bd
00000380: b1bd 8b3c 45ba 3abd b3c8 0ebc bb54 6dbc
00000390: d18d f7bc a449 753c 6ec1 66bd 0c89 59bd
000003a0: 1167 b5bc e9b8 83bd 44a0 8fbb a93f 0abd
000003b0: 77c3 7a3c 6242 9a3d 1c2e 83bc 9965 8f3d
000003c0: 7d56 ee3d d421 ad3d 81b4 7a3d 11a8 aa3b
000003d0: 8003 3d3c 6217 09bd 8a37 5bbd e553 703b
000003e0: c9ff 9bbc 8b06 44bd 34cf 2abd ddf6 b9bc
000003f0: 0719 4cbd 7f21 6abd 48a7 2fbc 55eb 69bc
-0.004071971 0.009438082 -0.073604494 0.0760611 -0.0032643494 -0.03979527 0.06440692 0.047711022
-0.0053263307 0.108130515 -0.010400915 0.009902013 0.093421355 -0.02249475 -0.05476883 0.065273315
-0.06715372 -0.078968525 0.0025816015 0.017401952 0.02019994 -0.014789377 -0.018007752 0.015013162
0.07065139 0.03946932 0.053690176 0.0059133354 0.022062488 0.0048915166 0.013816011 -0.0012319041
0.0010962263 -0.065105505 -0.039550096 -0.033183277 -0.032272078 0.08113968 0.086694546 -0.06555248
0.0033179172 0.07736718 -0.05797805 -0.10145609 -0.028574072 -0.090466194 -0.0032950966 0.019676043
-0.07956394 -0.02060068 -0.006846901 -0.094879 -0.03955559 0.034540568 -0.03305271 -0.085003555
-0.028747195 -0.031316105 0.0032187006 -0.009711563 0.10530221 0.053627003 0.05523317 -0.013660967
-0.023880174 -0.017781438 0.0024389692 0.03449587 0.0003067566 -0.01382707 -0.011720874 -0.0614787
-0.041532397 0.00033039346 -0.029275702 0.009461949 -0.013397567 -0.013213952 -0.026800783 -0.0119202575
-0.03240716 0.11476176 3.403297e-05 -0.011221816 0.084704086 0.023610791 -0.023430562 0.0597711
0.0707068 -0.014062195 0.002986928 -0.01332922 -0.052232277 -0.030283524 0.001236484 -0.033639062
-0.05809569 -0.11470637 -0.07993451 0.010839942 -0.01556572 -0.024450662 -0.020992342 -0.038351316
-0.009240928 -0.05685371 -0.06790838 0.0234593 -0.06779499 -0.0486558 -0.07144317 -0.050538186
0.0030968855 -0.0212996 -0.03999229 0.036556076 0.022865953 0.030329414 -0.0013580458 0.021087565
0.03925093 0.028097779 0.0703009 0.07815432 0.015354515 0.114302635 0.02389092 0.008577169
0.014659978 -0.03992054 -0.0145275 -0.014610724 -0.035680015 0.0056396355 0.0013625888 -0.007409008
0.027607197 -0.053507693 0.004149323 -0.019288283 -0.038680438 -0.09074291 -0.052746117 -0.08007176
0.07892608 0.01201306 -0.015430767 -0.02801425 -0.014577287 -0.053985506 0.022499165 -0.0063784644
-0.09015598 0.005053334 -0.01187115 -0.008907905 0.022775082 -0.060536355 -0.05974752 -0.008002145
-0.0972511 -0.06742858 -0.05968208 0.00096943264 0.039992765 -0.026941454 -0.039296288 -0.027456315
-0.074821495 -0.05669561 -0.085983925 0.062484577 -0.018185942 0.0494201 0.0538958 -0.022829643
-0.01949044 0.1263896 0.103148565 0.10872791 -0.04241081 -0.0127811935 -0.054056406 0.013011641
-0.077860415 -0.07355704 -0.02869549 -0.015326242 -0.09708266 0.055718947 0.09802623 0.017859602
0.08523263 0.012680399 -0.007249698 0.075600445 -0.027148463 -0.043531004 -0.023051977 0.018010566
-0.068691775 0.016977053 0.013520469 0.037453614 0.016863786 -0.0013987328 0.015275211 -0.065290004
-0.05300532 -0.011623892 -0.067502186 -0.038063005 -0.040723294 -0.052229628 -0.0321628 -0.032783233
-0.033485774 -0.08027612 -0.009127432 -0.031049602 -0.0438794 0.009062079 -0.07995746 -0.03743005
0.017058225 -0.045587797 -0.008714843 -0.014485533 -0.03021899 0.014971171 -0.056336813 -0.053109214
-0.022143872 -0.06431753 -0.004383119 -0.033752117 0.0153053915 0.07532193 -0.016013198 0.070018
0.1163759 0.08453718 0.0612073 0.0052080234 0.011536479 -0.033469565 -0.053519763 0.0036671099
-0.019042866 -0.047857802 -0.04170151 -0.022700721 -0.049828555 -0.05716085 -0.010721035 -0.014277299

weight f4 [32]
00000000: db85 ea3f 3c7c c63f 15b6 ec3f 1efe ec3f
00000010: 387f 0440 d7bf e03f 5b8a cb3f a920 ca3f
00000020: 94a6 e73f fb49 c93f b1d2 db3f 05de b63f
00000030: 9e7e d23f 10d9 fa3f fe63 0340 eab0 df3f
00000040: b494 f33f 0916 be3f 82ce d83f b084 cd3f
00000050: 4cb6 e73f 6df1 c53f b525 b73f 261f db3f
00000060: f41f d13f 7b4f e93f efb3 c83f 4d59 e43f
00000070: 3f6c d13f 1507 c63f be93 b23f 3024 de3f
1.83221 1.5506663 1.8493067 1.851505 2.0702648 1.7558545 1.5901598 1.5791217
1.8097711 1.5725702 1.7173673 1.4286505 1.644489 1.9597492 2.052978 1.7475865
1.9029756 1.4850475 1.6938021 1.6056118 1.8102508 1.5464302 1.4308382 1.7118881
1.6337876 1.822738 1.5679911 1.7839752 1.6361159 1.5470911 1.3951337 1.7354794

bias f4 [32]
00000000: f456 0f3f 2d62 c23e 508a f33e 6d34 013f
00000010: 44a6 1e3f f06d d93e e33d e73e aa94 ab3e
00000020: 563f 033f 1212 ca3e 8e99 c43e 4ad7 8d3e
00000030: f337 a03e 7c0f e43e 0636 3a3f c778 e53e
00000040: e292 0d3f 5aa0 a03e 041a e13e 8474 c43e
00000050: d99e 003f f63e 9b3e 2b60 e33e e448 b53e
00000060: f0cb eb3e e85b e33e 51ae db3e 74f6 b13e
00000070: 5c2f d13e fb06 d23e 4615 873e 44a0 d53e
0.55992055 0.37965527 0.47566462 0.5047062 0.6197245 0.42466688 0.45164403 0.3351186
0.5126852 0.39466912 0.38398403 0.27703315 0.31292686 0.44543064 0.72738683 0.44818708
0.5530225 0.3137234 0.4396516 0.38370144 0.5024238 0.30321473 0.44409308 0.35407174
0.4605403 0.44406056 0.4290643 0.3475834 0.40856445 0.4102095 0.26383418 0.41723835

running_mean f4 [32]
00000000: e515 c1be 395b a2be 03fd 52be 7305 08be
00000010: 26bf 1e3c e421 82be fcfa a8be 4f0a 8b3e
00000020: defb e7bd ee9d 82be bbae 2bbe 6d61 dbbe
00000030: ccdf 44be d510 1c3f 0a98 d6be f9f6 a83d
00000040: caa6 90be d546 2bbe 9fdd 6abc 8913 94be
00000050: 7946 8ebe 5226 d7be b44e f1be 3e88 87be
00000060: 7353 d8bd e87c 4ebe d221 4cbe 53ad c7be
00000070: b46e 9bbe 645c 0cbf 61a0 d4be 6066 1ebe
-0.37712017 -0.31710222 -0.20604329 -0.13283329 0.009689128 -0.25416481 -0.33003986 0.27156302
-0.11327337 -0.25511116 -0.16765873 -0.42847767 -0.19225997 0.60963184 -0.41912872 0.08250231
-0.2825225 -0.16726239 -0.014335065 -0.28921154 -0.2778814 -0.42021424 -0.47130358 -0.26471132
-0.10562792 -0.20164835 -0.19934776 -0.38999423 -0.30357897 -0.54828477 -0.4152861 -0.1546874

running_var f4 [32]
00000000: 3384 073f 51ed 0a3f 0d2c db3e 9c1d cc3e
00000010: ad30 073f 2225 b43e 4417 d43e cab1 cb3e
00000020: 87d1 e73e a959 bd3e 6130 b33e fb9a e33e
00000030: 8367 a33e e11e 143f d71a 043f 0a6f de3e
00000040: 3a5b fe3e ac4c bd3e 5136 013f 5c4a bd3e
00000050: e4f8 a83e e424 8a3e de70 bc3e b10e a03e
00000060: 67ca 0c3f 89df fb3e 88a3 7b3e 9caa 8f3e
00000070: 7e8e f43e 8785 c83e af43 d03e a8a6 d53e
0.52936095 0.54268366 0.42807046 0.3986634 0.5280865 0.3518458 0.41424 0.3978408
0.45277044 0.36982468 0.34997848 0.44454178 0.3191491 0.5785962 0.51603454 0.4344409
0.49678975 0.36972558 0.50473505 0.36970794 0.33002388 0.2698127 0.3680486 0.3126121
0.5499634 0.4919398 0.24574101 0.28059852 0.47764963 0.39164373 0.40676638 0.4172871
