mlruns/271458266826723899/models/m-cd77f91947d9495c89794a20e10d13bf/artifacts/data/model.pth (torch, 55345 bytes, 8 tensors)

weight f4 [10, 1, 3, 3]
000000 b5 55 de 3d aa 83 b7 3d ea 0b 44 3c e1 21 3e 3e
       0.10856191 0.0896066 0.011965731 0.18567611
000010 32 c4 93 3e d5 87 b2 bc c4 1b 0c be a0 e4 4b be
       0.28860623 -0.021793285 -0.13682467 -0.19911432
000020 aa 04 1b be 26 87 89 3b 35 07 e2 3d c3 00 c1 3e
       -0.15138498 0.004197019 0.11036531 0.37695894
000030 8f d1 86 3e 46 2e e5 3c 29 79 d9 3e c2 e2 0d bf
       0.26331756 0.027976166 0.4247525 -0.5542413
000040 57 a4 21 bf 60 03 0e 3b b8 24 93 3d b6 05 64 be
       -0.6314139 0.0021669492 0.07184738 -0.22267804
000050 b4 d8 2c 3e 0b e4 84 be 2d ed 87 bc bb b7 b4 3e
       0.1687954 -0.25955233 -0.016592586 0.35296425
000060 c5 9f 18 bf 58 0a d4 be af c4 69 bd 59 09 d0 3e
       -0.5961879 -0.41414142 -0.057072338 0.40632132
000070 00 1b e2 3e 33 bd b0 3d ba 71 c5 be 1d 0c d1 be
       0.44161224 0.08629837 -0.3856333 -0.40829554
000080 46 9e 89 be c7 f8 fc bd c9 16 32 3e 59 23 f5 3e
       -0.26878566 -0.12352138 0.17391504 0.4787853
000090 44 8e 27 3d 71 01 9b 3e 27 b1 fe 3e 86 7a 55 3e
       0.04090716 0.30274537 0.49744532 0.2084752
0000a0 31 53 84 3c 6b 9e 73 be d1 7a 29 3e 37 48 fd be
       0.01615295 -0.237909 0.16550757 -0.49469158
0000b0 8d a2 f5 be 0a 94 88 be 2c 0d 0b 3e 35 22 2e 3e
       -0.4797558 -0.26675445 0.13579243 0.17005236
0000c0 c2 f6 d2 be 5c ea ca be b0 35 25 be 78 ba 98 bc
       -0.41203886 -0.39631927 -0.16133761 -0.018643603
0000d0 98 20 02 be f7 dc b8 be c6 49 9c bd a7 df 6b be
       -0.12707746 -0.36106083 -0.07631259 -0.23034535
0000e0 7f 3f f9 3e 81 5b b1 3c 5d e1 61 be 50 ca 43 3d
       0.48681256 0.021650078 -0.22058626 0.047800362
0000f0 c7 74 2d be ba 52 0a 3e e3 e5 91 3e 50 b5 8d bd
       -0.16939078 0.1350812 0.28495702 -0.06919348
000100 48 30 9b 3e de 10 49 bf 9b 67 a6 3d 60 77 56 3e
       0.30310273 -0.7854136 0.0812523 0.20943975
000110 be fa ef be a2 bf 1d bd 4a 94 b1 3e a9 5f ba 3e
       -0.4687099 -0.038512833 0.34683448 0.36401108
000120 c8 04 7c 3e 0f 09 be be af e5 88 be c5 64 d6 3c
       0.24611199 -0.37116286 -0.26737735 0.026171098
000130 17 3e 9c be 63 1d 28 be 98 50 f6 3e 1c aa 81 3e
       -0.3051612 -0.1641746 0.48108363 0.25325096
000140 91 11 e0 3d 40 c4 71 be 6c dc 9b be c9 b7 be bd
       0.109408505 -0.2361002 -0.30441606 -0.09312398
000150 a4 08 89 3e d3 5c 13 bd 8a 38 ad 3e cf 2b 58 3e
       0.26764405 -0.035977196 0.33832198 0.21110462
000160 88 d3 f3 3d 12 39 6a 3e
       0.11905581 0.22873333

weight f4 [10, 10, 3, 3]
000000 0c 1f 00 3e 4d cc 11 3d e4 d6 97 3b ec 80 86 3c
       0.12511843 0.035595227 0.0046337713 0.016418897
000010 73 85 27 3d b9 d2 96 bd ba 5b be 3d 9d bf 1d 3e
       0.04089875 -0.07364411 0.09294839 0.15405126
000020 39 4e 50 bd 85 75 3b bc 32 bd eb bd f5 4a ce bd
       -0.05085585 -0.011441593 -0.115106955 -0.10072891
000030 9c e8 6f 3d 42 15 42 bd 36 d3 1a be ac 02 8c bd
       0.058571443 -0.047383554 -0.15119633 -0.06836447
000040 d3 9e 18 3d 9e 1d 4f bc 45 6b 6d bd ce 61 36 bd
       0.03726084 -0.012641339 -0.05796363 -0.044526868
000050 da 2c 84 3c cc c6 57 bd 74 6f 05 3b 8e 35 f7 bd
       0.016134668 -0.05267982 0.002036062 -0.120707616
000060 30 da 6c bd 44 e5 bd bd 58 92 ac 3d 4d 23 cc 3d
       -0.057825267 -0.092722446 0.0842635 0.099676706
000070 71 be 1e bc 4b 40 80 3d b1 45 f0 3d 70 ca 8e 3d
       -0.009688959 0.06262263 0.117320426 0.06972206
000080 11 21 bd 3d 1e a9 37 3d 30 38 6e 3d 0e 6e 0c bc
       0.092348225 0.044839017 0.058159053 -0.008571161
000090 ed 8f 81 bd cc f0 08 bd 53 e5 3d bd d6 d3 99 3d
       -0.0632628 -0.033432767 -0.04636128 0.075111076
0000a0 b1 0e 71 bc 7e f8 52 bd cf 5c db 3d 58 17 9c bd
       -0.014712975 -0.051506512 0.10711061 -0.0762164
0000b0 7a 11 96 bd 25 52 97 3c a5 b9 a4 3d 1a db 55 bd
       -0.07327552 0.018471787 0.080432214 -0.052210905
0000c0 dd 62 63 bd 9c b4 cf bd 4f c3 26 3d e7 a0 67 3c
       -0.055514205 -0.101418704 0.040713605 0.014137483
0000d0 a9 3b 66 bc 25 27 39 bd cb 9b 1a 3d 38 01 0b bb
       -0.01405231 -0.045203347 0.037746232 -0.0021210443
0000e0 38 5e b4 bd 80 7b 69 bd 9e 61 ac bd 83 60 c3 3d
       -0.08807033 -0.057002544 -0.084170565 0.095398925
0000f0 be da b4 3b be 21 7f bd e8 5b 92 3d 50 e9 4f bd
       0.00551924 -0.06228804 0.07146436 -0.050759614
000100 97 f5 8b bc e8 b6 d9 3d dd ac 01 3d a7 78 2d 3e
       -0.01708488 0.1063059 0.031658996 0.16940556
000110 07 c0 0e 3e 23 4d 45 bc 9d 49 72 3d 35 d6 0f 3e
       0.1394044 -0.012042317 0.059152234 0.14046557
000120 aa 95 2f 3d d6 dd 91 bd 74 5d 31 bd a5 70 53 bd
       0.04286734 -0.0712239 -0.043302014 -0.051621098
000130 38 f0 d0 3d 36 c8 8a 3d a5 7a 34 be 31 a6 1b be
       0.10202068 0.067764685 -0.1762491 -0.15200116
000140 b8 84 dc 3d 53 dc f4 3c ca f2 15 bd 11 2a 00 be
       0.107675016 0.029890215 -0.036608495 -0.12516047
000150 b4 e9 10 3b ff 2f 6e 3c 5f 61 b7 bd 03 a5 a3 bd
       0.0022111954 0.01453781 -0.08954119 -0.07990458
000160 f3 2f b4 bc 1e b9 ab bd f4 b8 c9 3a 25 e3 89 3d
       -0.02199552 -0.08384918 0.0015390203 0.067327775
000170 5c 0f 60 bd 7b 16 a1 3a 58 5f 44 3d d1 26 a4 3c
       -0.054702148 0.0012290025 0.04794249 0.02003804
000180 a6 98 15 bc b0 24 d8 bd cf e7 61 3d 5b 97 a4 bd
       -0.0091306325 -0.105538726 0.05515271 -0.08036681
000190 eb 1b e8 bd 8b 4c d0 bd 62 62 9a bd 72 9e 13 3d
       -0.1133345 -0.101708494 -0.07538296 0.036039777
0001a0 cd de 56 bd c9 f7 a8 3d f7 6f b4 3d c3 cd 4d bd
       -0.052458573 0.08250386 0.08810418 -0.050245058
0001b0 e8 22 04 3e a0 7c a5 bd e9 0d 74 3d 42 7c 3d 3d
       0.1290394 -0.08080411 0.05958358 0.04626108
0001c0 7c 29 e8 3d ad 98 48 3b 0d ba 9e 3c e5 08 5b 3d
       0.113360375 0.003060858 0.019375825 0.05347528
0001d0 bf 41 25 3d 7b 35 b8 bd 1e d1 dc 3c 5e ec ea bb
       0.040345903 -0.089945756 0.026955184 -0.0071692904
0001e0 23 83 93 bd cd bb b8 bd e4 2b 2b 3d 3c c3 a1 3c
       -0.07202747 -0.09020195 0.041789904 0.019746415
0001f0 17 a5 04 3e 43 06 64 3d 7a ba d1 bd 51 b6 87 bb
       0.12953602 0.055670034 -0.10240646 -0.004141607
000200 9e d2 91 bd 4d 9f a3 bd 10 f2 5d 3d 43 fe 08 bd
       -0.0712025 -0.079893686 0.054185927 -0.033445608
000210 5f 8a c4 bc d1 a9 4e bc bc ac d2 bb 04 0f 63 3d
       -0.023991762 -0.01261373 -0.006429283 0.055434242
000220 1d 78 9c 3d 1b ad 78 bd 01 81 9e bc db 1c 06 3e
       0.07640097 -0.06071196 -0.019348623 0.13096945
000230 da 52 c8 bc f5 22 f3 3c bb 8a 9b 3d 96 be 39 3d
       -0.02445357 0.029679755 0.0759482 0.045347773
000240 f4 8c d6 bd 32 97 b6 bd 94 23 d9 bd cd c2 96 3c
       -0.104761034 -0.08915557 -0.10602489 0.018403435
000250 9c a8 4e bd d1 bf 22 3d 4e 0b a7 3d a6 cd 91 bd
       -0.050453767 0.03973371 0.08156453 -0.071193025
000260 f0 3b b8 3d a1 aa c8 bd 76 2b bd bd ba 5c 2e bd
       0.08995807 -0.0979817 -0.09236805 -0.0425689
000270 cf 93 57 bc 7e e3 39 3d 3b 2b b8 bd 8f 9c dd 3d
       -0.013157799 0.04538297 -0.089926206 0.10820877
000280 89 c6 56 3c a4 cd ea 3d fd 82 ba ba f0 11 82 3c
       0.013108858 0.11465004 -0.0014229711 0.015877694
000290 1c 2c d2 3c 66 1a 90 bb f0 4f 4d bd 55 68 3b 3d
       0.025655799 -0.004397678 -0.050125062 0.045753796
0002a0 d9 3f 30 3d 09 29 07 3e 23 6b 03 3e f1 e3 a9 bd
       0.04302964 0.13199247 0.12833838 -0.082954295
0002b0 83 14 45 3c de d4 87 3d 77 6c b3 bd 49 47 b0 bd
       0.012028816 0.06632398 -0.087609224 -0.086073466
0002c0 46 b9 40 bd d4 b1 08 3d b1 ff a2 3d 5c 87 5b bd
       -0.04705169 0.033372715 0.079589255 -0.053595886
0002d0 a0 6b 52 3c 9d ae 8b 3d 40 1c 8f ba b9 6b c1 bc
       0.012843043 0.06820414 -0.0010918453 -0.023610936
0002e0 86 64 4e bc 44 86 46 3e de 16 04 be 22 0c 91 bd
       -0.012597209 0.19387156 -0.12899348 -0.07082392
0002f0 a3 a9 a2 3d 04 83 40 3d 4e c2 1d 3e 35 37 30 3e
       0.07942512 0.046999946 0.15406153 0.1720856
000300 9c 67 48 3e a0 b1 33 3e d7 8a 8b 3e 64 1f 06 3e
       0.19570774 0.17548227 0.27254364 0.13097912
000310 a2 5c f3 bd 73 b8 12 be 46 21 b8 3d 07 77 d8 3b
       -0.11882903 -0.14328174 0.089907214 0.006605986
000320 29 1e fc 3d 52 df 8b 3d 40 e6 c2 bd 74 bc b0 bd
       0.1231044 0.06829704 -0.09516573 -0.086296946
000330 0b be aa bd 5f 41 e9 bd b9 c4 c0 bd b7 ca ac bc
       -0.08337029 -0.11389422 -0.09412522 -0.021092756
000340 10 55 eb bd 33 16 69 bb 63 65 1a be ac c9 02 bd
       -0.11490834 -0.003556621 -0.15077738 -0.03193061
000350 ce ae 29 bd 08 3b bd 3d cd db 8a 3e ac 72 75 3e
       -0.041426472 0.09239775 0.2712082 0.23969525
000360 98 99 07 3e bf 0b b8 bc 8e d8 5c bc e7 c7 dd bd
       0.13242185 -0.022466538 -0.013479365 -0.10829144
000370 2d aa 2b bd 31 5f 9e 3d d5 2a 8d bd 0e 0a 19 be
       -0.04191034 0.07733 -0.06892935 -0.14945242
000380 db 8f e5 3c 43 a4 aa bd c5 4b 97 bd c6 f9 b0 3d
       0.028022697 -0.08332112 -0.07387499 0.086413905
000390 b6 a8 cd bc 47 fb 8c 3d 75 55 2f 3e 6f 6a f5 3d
       -0.025104862 0.06883865 0.17122443 0.11983191
0003a0 a1 b6 01 3e 4e 61 7f bc e0 8a 04 3d f2 53 b2 3d
       0.12667324 -0.015587164 0.032359004 0.087074175
0003b0 b5 2f e3 3d 6a 00 86 bd 57 8d 1f be 8e 4b 06 3e
       0.11093084 -0.06543048 -0.1558126 0.1311476
0003c0 0f af 06 be 89 6e 17 be cd f6 29 3e d7 13 39 be
       -0.13152717 -0.1478826 0.16598053 -0.18073975
0003d0 37 c8 86 bd f0 d9 1e be c3 cb 02 3e dd e8 24 be
       -0.06581157 -0.15512824 0.12773041 -0.16104455
0003e0 00 cf f3 bd 0b 36 25 bd 90 2c ab bd 09 f4 96 be
       -0.119047165 -0.040334743 -0.08358109 -0.2948306
0003f0 dd cc a8 3c a6 6a 1c be ca c7 e7 bd 2b 2e 56 3e
       0.020605499 -0.15275058 -0.113174036 0.20916049

weight f4 [20, 10, 3, 3]
000000 af 0c 84 bd ed 7e f5 3c ed 99 47 3d 2c cf 28 bd
       -0.06447732 0.02996775 0.04873078 -0.0412132
000010 cd c4 b6 bd d5 b3 f3 3b 1c fe ad bc a0 20 c7 3d
       -0.089242555 0.007437209 -0.021239333 0.097230196
000020 04 9d 8f 3d f7 56 ca bd f7 53 c5 bc d5 df ac 3d
       0.0701237 -0.098798685 -0.02408789 0.0844113
000030 af 22 3d 3d f6 f1 34 3d 7a 8b e6 3c 17 bb a9 3b
       0.046175655 0.044176064 0.02814268 0.0051797736
000040 74 8d d6 bc 9f f5 d8 bd 34 d4 d7 bd 4b d2 c9 3c
       -0.026190497 -0.105937235 -0.105385214 0.024636408
000050 ae 56 8c 3c 1d 22 56 3b eb 4c 89 3d ce dd 75 bc
       0.017131176 0.0032674142 0.06704124 -0.015006496
000060 8f 79 9b 3d 98 e4 ac 3d 88 82 9b 3c ff 38 b9 3d
       0.07591545 0.08442038 0.01898314 0.09044074
000070 bf 70 eb bc 16 e3 da 3c 76 52 ba bd fd 9d e3 bd
       -0.028740285 0.026719611 -0.090977594 -0.11114118
000080 c3 35 48 3d f5 c4 a5 3c 4d 34 89 bc 4a 36 d6 bd
       0.048879396 0.020235518 -0.016748572 -0.104595736
000090 f6 ab ca bc 7d bd b3 3d 66 d3 22 bb ec e2 b3 bc
       -0.0247402 0.087763764 -0.0024845242 -0.02195879
0000a0 96 c6 65 bd ee bb b0 bd 11 7f 9f 3d fb 6f 67 3d
       -0.05609759 -0.08629595 0.07787908 0.056503277
0000b0 e9 7e c3 bd bd 4a 97 bc 88 c6 eb 3b 87 f3 34 3d
       -0.095456906 -0.018468255 0.0071952976 0.04417756
0000c0 55 6c eb 3c 2a 46 ba bd eb 32 98 3c fd f7 06 bd
       0.02873818 -0.09095414 0.018578967 -0.032951344
0000d0 30 1c 2c bd 31 0f 11 3c c1 ed 90 bd 71 25 32 bc
       -0.04201907 0.00885372 -0.07076598 -0.010873185
0000e0 18 bf f7 bc 34 e9 3c 3d ff 42 95 bd 11 3a 11 bd
       -0.030242488 0.046120837 -0.07288169 -0.035455767
0000f0 d4 f7 6b bd 81 e0 50 3c 3a 85 c9 bd 3e 8a 97 3d
       -0.057609394 0.012748838 -0.09839864 0.073994145
000100 d5 dc d7 bd a2 39 e2 bc e3 26 ee 3a 53 a9 12 3d
       -0.10540167 -0.027615372 0.0018169548 0.03580601
000110 f4 e9 eb 3c 52 e2 ad 3d 30 06 47 3d 88 07 f5 3c
       0.028798081 0.08490433 0.048589885 0.029910818
000120 ae 2f 84 3d 72 a2 19 3d 87 ca 44 3d d0 6b ad bd
       0.06454407 0.037508436 0.048044708 -0.08467829
000130 e5 7c 72 bd 57 7f 96 3d 1b df ed bc 58 85 aa bd
       -0.05920114 0.07348507 -0.029037049 -0.083262146
000140 46 0f 86 bd 2e c0 21 3c dd 1c 59 3c 74 8b b8 bb
       -0.06545882 0.009872479 0.01325151 -0.0056318585
000150 55 79 2f 3c 48 31 95 bd a8 4b a2 3d 26 3f 17 3c
       0.01071008 -0.0728479 0.079245865 0.009231364
000160 ba 00 11 3d 3f 6a 6c 3d 07 c1 58 3d d9 ff 69 bc
       0.035401084 0.05771851 0.05291846 -0.01428219
000170 26 43 ed 3d ac de 17 bd b4 09 32 3d e2 40 5b 3c
       0.11585073 -0.03707759 0.043466285 0.0133821685
000180 2e 0a a3 bd be bc 96 3d 07 c7 93 bd 8a 94 80 3d
       -0.07960926 0.073602185 -0.07215696 0.062783316
000190 a6 6b d0 3c e9 ca 09 bd 0f b5 35 3d 44 3a a7 bd
       0.025441956 -0.033640776 0.044362124 -0.0816541
0001a0 86 49 3d 3d 06 3a bf bd 10 6b 26 3d e6 78 53 3b
       0.046212696 -0.09337239 0.040629447 0.0032268106
0001b0 a5 9b 51 3d 8e d2 b9 bd 93 10 fa bc 1e 3e ee 3d
       0.051173825 -0.09073363 -0.030525481 0.11632942
0001c0 c9 2f 77 bd 14 da a4 3d 02 37 90 3d a5 8a 24 bd
       -0.060348306 0.080494076 0.07041742 -0.040171284
0001d0 0d 93 f3 3c 22 db 16 bd 31 1d e7 3d 24 21 8b 3d
       0.029733205 -0.036830075 0.11284865 0.067934304
0001e0 ac d3 9a bd de e0 70 3d a4 ac 37 bd 83 2f da bd
       -0.075599045 0.0588082 -0.044842377 -0.106535934
0001f0 6d 49 b5 3c d3 41 93 bd f8 cd 18 3d 52 3d 95 3d
       0.022129739 -0.07190289 0.037305802 0.072870865
000200 8a 4b 55 bc 42 19 c1 bd 18 38 62 bd bc 7f 9a bc
       -0.013018498 -0.09428646 -0.055229276 -0.018859737
000210 8e 90 77 3d b0 ca 8e bd 59 d5 b3 3d 53 7e 79 3d
       0.060440592 -0.06972253 0.08780927 0.060911488
000220 ea 65 a0 bd 32 62 0f 3c 6d 7d 2d 3c 3b cc a6 3c
       -0.078319386 0.008751439 0.010588986 0.020361057
000230 38 75 c8 3c 84 f5 bb bd c4 a2 87 bd 76 9f bc bd
       0.024469957 -0.09177688 -0.06622842 -0.09210102
000240 be 12 15 3e 2b 86 17 bd 14 f9 a8 bd ac 2e 18 3e
       0.14557931 -0.036993187 -0.08250633 0.14861554
000250 8b 35 94 3c 04 bd 1b be b6 42 6e 3c 9d 0f 30 be
       0.018091938 -0.15208822 0.014542272 -0.17193456
000260 db 90 bc bd a4 94 55 bd 04 cb 8c bd b1 09 a4 bd
       -0.092073165 -0.052143708 -0.0687466 -0.08009661
000270 11 49 bf 3d cf a2 0e 3d 1c 44 88 bd 3d ea be bc
       0.09340108 0.034823235 -0.06653616 -0.023305053
000280 14 57 17 bd 8d 7f 52 bd ef a8 c2 bd e7 43 8b 3d
       -0.03694828 -0.051391173 -0.09504878 0.06800061
000290 93 a1 b1 3d e7 90 13 3e eb b5 7f bc 4e db 15 bd
       0.08673396 0.14410745 -0.0156073375 -0.0365861
0002a0 21 ca da 3d 66 3f fa 3b 9c 72 ad bc 02 e4 28 bc
       0.10683084 0.007636952 -0.021172814 -0.010308268
0002b0 ee 93 20 bd 13 e7 f8 bc a8 97 f0 3d 39 60 8d 3d
       -0.039203577 -0.030383622 0.11747676 0.06903119
0002c0 b4 0e 81 bd 91 91 aa 3d a9 a4 a3 bd 39 ef 94 bd
       -0.063016325 0.08328546 -0.07990391 -0.072721906
0002d0 12 e2 96 3d 82 fe 73 3c 73 00 85 bc 2e 9c dd 3c
       0.07367338 0.014892222 -0.016235566 0.027052011
0002e0 52 ef 18 3d 9a 57 cd bc eb 81 63 bd 87 69 b4 bd
       0.03733761 -0.025066186 -0.05554382 -0.0880919
0002f0 b0 0f 29 3d 20 00 5c 3d 22 03 8d bd 47 63 5a bc
       0.041274726 0.053711057 -0.06885363 -0.013329334
000300 3d 7e b5 bd 89 ec 6e 3c 08 a9 a7 3d ce d3 1d bd
       -0.08861969 0.014582762 0.08186537 -0.03853207
000310 ed f2 3b 3c b9 67 d4 3c 62 e9 15 3e 21 67 9c 3c
       0.011471492 0.025928365 0.1463981 0.019092144
000320 a2 17 28 bc 56 a3 93 bc ba f4 b4 bd 83 45 52 bd
       -0.010259541 -0.01802222 -0.088357404 -0.051335823
000330 3c 6d 1c bd d9 74 32 3c 87 62 94 3d 3e 94 2c 3d
       -0.03819011 0.010892116 0.07245355 0.042133562
000340 86 63 fa 3d 48 d5 11 bc 19 9c 13 3e 51 29 91 bd
       0.12226014 -0.008900948 0.14415015 -0.070879586
000350 2c c7 1d bd bc 51 c8 bd d4 25 8f bd be 03 67 bd
       -0.038520023 -0.097812146 -0.06989637 -0.056400053
000360 50 52 0b bd 07 de 69 3c 7e 9c 98 bd fa ad 04 bd
       -0.034014046 0.014274127 -0.074517235 -0.03239248
000370 5d 21 ad 3d e5 26 df bd 7b 10 3d 3c b0 db 41 bd
       0.08453629 -0.108960904 0.011539574 -0.04732865
000380 01 d6 79 bd 65 c4 c0 bd 49 69 44 3d 2a b5 04 bd
       -0.060995106 -0.09412459 0.04795197 -0.032399334
000390 07 0d a9 bd 0b e1 3a 3d 93 b5 16 3e 32 d6 18 bd
       -0.08254438 0.045624774 0.14717703 -0.037313648
0003a0 3c 8f 40 3d c9 73 d8 3d a9 22 d2 bd 13 76 aa bc
       0.0470116 0.10568959 -0.10260517 -0.020808255
0003b0 eb cd 02 3e 16 8c ff 3b bc 5e 91 3d 47 6b 0e 3d
       0.12773864 0.007798682 0.07098147 0.034770276
0003c0 82 f7 8f 3d a6 ab 6f 3d 8a 97 23 3a 24 4e 3c bd
       0.0702963 0.058513306 0.00062405376 -0.04597296
0003d0 c8 c0 fe bd 06 b5 e7 bc 04 d2 42 bd ce e7 23 3d
       -0.12439114 -0.02828456 -0.047563568 0.040015988
0003e0 55 1e ea bd 44 02 91 3d 0f 95 d5 bd 2a 5e 63 3d
       -0.114315666 0.0708051 -0.10428821 0.055509724
0003f0 ac 6e b2 3c 52 d0 40 3b 8b ee 6e bd 2f bb 92 3d
       0.021781288 0.0029421044 -0.05833296 0.07164609

weight f4 [10, 20, 1, 1]
000000 03 7f 25 3e dd a2 e6 3d fe c2 41 be 13 bd 9f 3e
       0.16161732 0.112615325 -0.1892204 0.3119894
000010 c5 2f 2b 3e de 0f 86 3e 7b 84 e7 bd ac c0 02 be
       0.16717441 0.2618398 -0.113045655 -0.12768811
000020 f5 c5 bd bd 0d d3 2a bd 5b ab a8 bd 67 81 4d 3e
       -0.09266273 -0.04170518 -0.082358085 0.20068894
000030 73 32 e4 3d 30 27 ae ba 83 cd 87 be 95 2b 3c 3e
       0.11142435 -0.0013286825 -0.2652398 0.18376
000040 16 b4 13 3e b3 2a 6e 3e 5c 24 d9 3d c8 ac 91 3e
       0.14424166 0.23258476 0.10602638 0.28452134
000050 2d c2 8a bd 4a 43 3b be 8a 55 64 bd 32 64 c5 3d
       -0.06775317 -0.18287387 -0.05574564 0.09638251
000060 e5 b7 14 3c 7e 67 1b be 91 55 1e 3e 30 34 eb bd
       0.009077047 -0.15176198 0.15462328 -0.11484563
000070 8c d4 a2 bb bd 0f 8a bc 9b 28 ca bd a3 e8 69 be
       -0.004969185 -0.016853208 -0.09871026 -0.2284265
000080 f7 31 13 3e a0 69 b9 bd a5 38 77 be 35 f4 ce bd
       0.14374529 -0.090533495 -0.24142702 -0.101051725
000090 4c 8d f4 3d 2a 9a a1 3d 01 9a 50 be aa 60 9d bc
       0.11941013 0.078907326 -0.20371248 -0.019211132
0000a0 9a 73 ca bd dd 4b 93 be e7 53 e8 bc 91 60 54 be
       -0.098853305 -0.28768817 -0.02836032 -0.20739962
0000b0 bf 33 ed 3c d6 fb 2a be 69 7a 11 be 02 06 87 3e
       0.028955339 -0.1669763 -0.14206852 0.2637177
0000c0 30 b0 cb 3e c6 ae 00 be 02 54 c8 be b7 c0 05 be
       0.39782858 -0.12566671 -0.39126593 -0.13061796
0000d0 4c 10 d2 3e 7a c1 84 bd 93 c0 c9 3d fa e6 84 bd
       0.4102806 -0.06482215 0.09851184 -0.06489368
0000e0 45 d1 50 3e 71 16 89 3e bd da 18 3e ce 3a e5 bd
       0.2039233 0.26774934 0.14927192 -0.11192857
0000f0 fd 95 35 3e 3b d5 0d be 77 4a a8 bd bc 7c 14 3b
       0.17732997 -0.13850872 -0.08217328 0.0022657355
000100 86 ed 03 be 60 cd 47 3c d6 52 96 bd 8f 93 3c bd
       -0.12883577 0.012194961 -0.073400185 -0.04603916
000110 1c 9e 1d be 2c d7 49 be ca eb d4 bd a0 12 dd bd
       -0.15392345 -0.19710988 -0.10396536 -0.10794568
000120 3a 69 3c be 03 33 04 3d 29 39 80 3e ae d5 07 3e
       -0.18399516 0.03227521 0.2504361 0.13265106
000130 5d a3 f7 3d 3a 8e 21 be 43 7b 5e be cf 75 66 3e
       0.12091706 -0.15776911 -0.21726708 0.22505878
000140 fe c3 6a 3e f1 d2 24 be e7 0b 80 3e c7 ad 81 3d
       0.22926328 -0.16096093 0.2500908 0.063319735
000150 a3 aa 5d be 62 51 b3 bd c0 e5 57 bc a2 2e a8 3d
       -0.21647124 -0.08755757 -0.013177335 0.082120195
000160 12 f9 41 be 0b 55 ea bd 11 03 8c bd 93 3f 14 be
       -0.18942669 -0.11442002 -0.06836522 -0.14477377
000170 1c f0 17 be 94 81 44 be dc 89 f8 bd 28 ae 42 be
       -0.14837688 -0.19190055 -0.121356696 -0.19011748
000180 87 fc a0 bd b2 4b 06 3e 42 07 50 3e ea d8 42 3e
       -0.07860666 0.13114813 0.20315269 0.19028059
000190 52 db e5 3d 20 37 78 be ba 8a 5d bd 26 07 ec bc
       0.11223473 -0.24239779 -0.054087378 -0.028812002
0001a0 84 57 b1 3d 68 07 3b be 04 bd e5 bb cc 97 14 be
       0.086592704 -0.18264544 -0.007011058 -0.14511031
0001b0 f6 65 70 be ed 5c 6d 3e c2 59 84 be ec 37 11 bb
       -0.23476395 0.2317998 -0.2584973 -0.0022158576
0001c0 e1 27 66 3e dc 8f 99 3e c9 89 a9 3d 6d 71 b8 b9
       0.2247615 0.29992568 0.082782336 -0.00035179724
0001d0 45 75 8d 3d f5 5e 98 3e 43 ed d2 3c 17 49 51 be
       0.06907133 0.29759946 0.0257479 -0.20438038
0001e0 86 47 14 3e d1 d3 55 bc 00 34 47 be 71 39 fd 3d
       0.14480409 -0.013050989 -0.1945343 0.12364472
0001f0 fa 92 94 3d 87 42 11 bd db fd 5b be 88 d8 7b 3e
       0.07254596 -0.035463836 -0.21483557 0.24594319
000200 2e 02 73 3e e9 f9 2d be 8e cc 0c 3e ee 2d 52 be
       0.237313 -0.16989864 0.13749906 -0.20525333
000210 a0 36 21 be 94 00 13 3e 8c 45 0e bd d1 31 9f 3c
       -0.15743494 0.1435569 -0.034734294 0.019432934
000220 df 52 e2 3c 0f ad 16 be 34 3f d4 3d c8 79 b4 bc
       0.027627407 -0.14714454 0.103636175 -0.022030726
000230 2b ab 1c be 81 f6 4c 3e 16 24 3f be 98 b6 1f be
       -0.1529967 0.20015909 -0.1866611 -0.15596998
000240 41 ff 17 bd f0 07 c8 bd 26 da 13 be 73 d5 0e be
       -0.037108663 -0.09767139 -0.14438686 -0.13948612
000250 35 c8 e2 3d cd b5 db bd 57 9c df 3b d4 f3 04 be
       0.11073343 -0.10728035 0.006824057 -0.12983638
000260 39 7b 20 3e 2b dd 07 be b2 bb 02 be 14 43 4b 3d
       0.15672006 -0.13267963 -0.12766913 0.049624518
000270 0c 65 5f 3e 91 f7 1d be ea b7 6d be dd 5a a5 bc
       0.2181589 -0.1542647 -0.23214689 -0.020184929
000280 8c c6 d7 bc e5 e1 1e 3c 06 dd 52 3e da 15 c0 bd
       -0.026339792 0.009697412 0.20592126 -0.09379168
000290 b9 5d 6d 3d b0 37 0f be 3f ca 82 3d e6 d8 b3 3e
       0.05795071 -0.13986087 0.06386232 0.35126418
0002a0 31 2d 69 3d dc a1 80 be c5 e9 90 3e 03 55 27 be
       0.056927864 -0.2512349 0.28303352 -0.16341023
0002b0 44 50 29 be e3 40 91 be c1 de a6 3e cc dd 5c bd
       -0.16534525 -0.28369817 0.32591823 -0.05392246
0002c0 4f 80 cd 3e 93 5f e0 bd 17 12 70 3e 9c 6d 1e be
       0.40136954 -0.10955729 0.234444 -0.154715
0002d0 52 77 34 3d 78 33 09 bd bb 8a 18 3e 93 72 b8 be
       0.044059105 -0.03349635 0.14896671 -0.36024913
0002e0 e2 c8 3a be 09 d0 bf be 51 94 f6 bd 78 5e 93 3e
       -0.18240693 -0.37463406 -0.12040008 0.2878301
0002f0 b3 27 cb 3e 88 e0 41 be 8b 5d 9b be d0 1f 96 bd
       0.39678726 -0.18933308 -0.30344805 -0.073302865
000300 aa e0 b7 3e ae 09 c1 be b0 39 de 3e 96 5a a8 bd
       0.35913593 -0.37702698 0.43403387 -0.08220403
000310 a5 57 01 3e f6 aa 70 3e c0 e0 4a 3e 7d 72 26 be
       0.1263109 0.23502716 0.19812298 -0.16254611

weight f4 [10, 10, 3, 3]
000000 10 df b1 3a b8 47 8d 3d 3a 93 a4 3d 05 3d 9d bd
       0.0013570506 0.06898445 0.08035894 -0.07677654
000010 4a 05 cb bd 6c f6 d9 bd 46 47 72 3d 9f 6d c2 bb
       -0.09913118 -0.10642704 0.059150003 -0.005933478
000020 6a c9 05 3d 23 87 f8 3c 2f 6f 43 bd 3e 23 f7 bd
       0.032662787 0.030337876 -0.047713455 -0.12067269
000030 ca 23 a2 bc d2 3f 1d be 67 b5 4a be f8 92 4c bd
       -0.019792456 -0.15356377 -0.19795762 -0.049944848
000040 35 1c ef bd e5 22 54 be 76 ff d4 3b 27 66 a0 3d
       -0.11675302 -0.20716436 0.00650018 0.07831984
000050 b5 b9 f1 3c 35 ca 14 3d 33 2a 5e bc 4a dc e5 38
       0.029507497 0.036325652 -0.013559866 0.00010960603
000060 de 7e df bd 61 53 84 3d 00 7b 48 3d 62 07 19 bb
       -0.1091287 0.06461216 0.048945427 -0.0023350348
000070 8b b1 e8 bc e2 da 82 3d c4 d8 52 3d 5d cc f6 bc
       -0.028404972 0.06389405 0.051476255 -0.030126745
000080 74 a3 81 3d c5 c6 73 bd 06 a6 c2 3d c7 33 98 3c
       0.06330004 -0.059515733 0.09504323 0.018579377
000090 c8 55 8b bd 7b a5 94 bd 88 d6 b3 bb 67 e4 f5 bd
       -0.06803471 -0.072581254 -0.0054882206 -0.12006455
0000a0 81 11 48 3d b3 ac b9 bd 52 da 83 ba b0 66 a3 bd
       0.048844818 -0.09066143 -0.0010059571 -0.079785705
0000b0 a3 df 62 3d 90 8d ab 3d 9d cc 9e 3d a5 06 b8 3c
       0.055389058 0.0837661 0.07753871 0.022464106
0000c0 bf f5 ce 3d 53 74 75 3d a4 ba b3 bd cc a8 9d 3d
       0.10105466 0.05992539 -0.08775833 0.07698211
0000d0 4b cf d8 3c 31 f0 a5 3d 20 22 72 bd be 9d 39 bd
       0.026466032 0.081024535 -0.059114575 -0.04531645
0000e0 27 8a a8 3a 42 f0 b2 bd f7 6d bb 3c a1 5d d1 3d
       0.0012858555 -0.08737232 0.022879584 0.102229364
0000f0 36 e7 bd bc 34 60 49 3d 1b c9 ce bd d4 c6 d6 bd
       -0.023181539 0.049164012 -0.100969516 -0.10487142
000100 a6 d1 31 bc 8a cd 0b 3d fc 0a ec ba ce 3e a3 bd
       -0.010853207 0.034131564 -0.0018008645 -0.079709634
000110 59 2f b0 3c 14 2d b0 3c 3c 30 12 bd 1e ac d3 3d
       0.021506952 0.02150587 -0.03569053 0.10335563
000120 29 5b 89 bc bb 48 99 bd aa 99 b0 bd 68 c3 2a 3d
       -0.016767101 -0.07484575 -0.08623059 0.04169026
000130 95 93 c8 3d 80 e5 7a bc ae fc 8c 3d 7b 01 85 bd
       0.09793774 -0.015313506 0.06884132 -0.06494423
000140 27 bd b2 bd e3 e2 b4 b9 26 96 ae bd 87 d9 00 be
       -0.08727484 -0.0003450132 -0.08524732 -0.1258298
000150 61 53 7a bd e7 35 31 be bd f8 46 bd 80 96 4e be
       -0.061114673 -0.17305718 -0.04857706 -0.20174599
000160 0e f7 43 be ac 6a f1 bd 96 91 80 3d 4b d0 0a 3c
       -0.19137213 -0.11787924 0.06277768 0.0084725125
000170 51 55 95 bd 1f 95 ac bb 8a 3b 56 3d 55 c6 49 3e
       -0.072916634 -0.0052668 0.052302875 0.19704564
000180 82 83 6f bd 97 a0 91 bd 29 e7 c0 3d 77 4f 2b be
       -0.058475025 -0.07110708 0.0941909 -0.16729532
000190 c9 21 af bb b2 3c c7 3d 62 70 c0 3b 4f 31 b2 3d
       -0.0053446037 0.097283736 0.005872772 0.08700811
0001a0 52 64 d1 3c 6c b3 d2 3d 0d a2 ed bc fd 20 90 3d
       0.025560532 0.10288128 -0.029007936 0.07037542
0001b0 e9 1b 4f be f1 31 af be 1d cc 4c be 0c a3 84 be
       -0.2022549 -0.3421779 -0.19999738 -0.25905645
0001c0 bc a3 5e 3d 60 28 8f 3e 38 5d 11 bd 82 b0 83 3e
       0.054355368 0.2796049 -0.03548929 0.25720602
0001d0 ee 67 c9 3e 6f 24 49 3d b1 98 cb bc 94 d8 b0 3d
       0.39337105 0.04910701 -0.024853082 0.08635059
0001e0 1f 7a 14 bd f4 7e d4 bc ac 5c 97 bc db 4b 95 3d
       -0.036249276 -0.025939442 -0.018476807 0.07289859
0001f0 c1 63 9f 3d 3c 66 d7 bd f0 b3 b6 3d 4c 5c bb bd
       0.077826984 -0.105175465 0.08921039 -0.091484636
000200 1a ce b6 3d a1 c6 4c bd 67 d0 ba 3d 2a f2 e1 3d
       0.089260295 -0.049994115 0.09121781 0.11032517
000210 17 44 e1 3d b4 70 da 3d 9f 67 e7 3d 29 de 8c bd
       0.10999315 0.10666028 0.11299061 -0.06878311
000220 76 99 25 bd 67 1d df 3b 29 6a 6d 3d b5 38 db 3d
       -0.040429555 0.006808925 0.05796257 0.107041754
000230 11 a2 04 3e 13 4f 8a 3d 43 2e 8c bc 52 ca 81 bc
       0.12952448 0.067533635 -0.017111903 -0.015843544
000240 6b 25 96 3d ef 18 10 3c 25 16 59 3d 88 b6 80 bd
       0.07331356 0.008795007 0.052999634 -0.06284815
000250 4b d7 2f 3d a4 fb 34 3d d4 80 61 bd 66 57 7c bd
       0.04292993 0.044185296 -0.0550545 -0.061606787
000260 a9 15 22 bc 23 de 9c 3d ed 5c c8 3c 0b f1 82 3d
       -0.0098928595 0.07659557 0.024458373 0.063936315
000270 b0 11 c7 3d ba 6b 2a 3d 12 63 5d bd b2 8f 44 3d
       0.097201705 0.041606642 -0.05404956 0.0479886
000280 d9 09 84 bb e6 4c 37 3d b0 30 0a be d0 4d 44 bd
       -0.0040294942 0.04475107 -0.13495135 -0.04792577
000290 94 cd 09 3e 62 0f 1b be e3 34 28 bd f8 92 16 3e
       0.13457328 -0.15142587 -0.04106606 0.14704502
0002a0 9b 1d 14 bc 57 23 14 3e 6e 81 65 3e 74 d8 dc be
       -0.009040262 0.14466606 0.22412655 -0.4313389
0002b0 63 74 8d be 25 ea 4e bd 85 f0 b6 be cc fb 04 3e
       -0.2762786 -0.050516266 -0.35730377 0.12986678
0002c0 cb b0 52 3e 3a 00 ac bd 85 fa e3 3e 00 e9 cf 3e
       0.20575254 -0.08398481 0.4452707 0.40607452
0002d0 df 64 1d bd ae bd 8a 3d c9 ad 1c 3d 65 09 74 bd
       -0.038426276 0.0677446 0.038251672 -0.05957927
0002e0 9b b7 dd 3d f3 f0 7d 3d 93 4d 7c 3d f1 73 a0 bc
       0.108260356 0.061997365 0.061597418 -0.019586535
0002f0 f8 a8 6f bd c5 f8 8b 3b 23 58 05 bc 5c cf a4 3d
       -0.05851075 0.004271599 -0.008138689 0.08047363
000300 05 06 cd bd 7e 1f ad bc a4 77 07 3d af 26 22 be
       -0.10010914 -0.02113318 0.033073083 -0.15835069
000310 db 44 ee bd 67 9e e7 bb 7f ea 06 3e 4d bd 75 bd
       -0.11634227 -0.0070684436 0.1317539 -0.059994984
000320 13 2b 2e bd 9b 8c 39 ba e5 77 63 bc a9 42 d5 3a
       -0.042521548 -0.0007078142 -0.013883566 0.0016270477
000330 fa ed c3 3d 1e ce 64 3d ed 17 19 be 19 81 8f 3b
       0.09566875 0.05586063 -0.14950533 0.0043794033
000340 0a 0a 10 bd e6 86 04 bd 13 47 4e 3c 1c cd c7 3d
       -0.035165824 -0.03235521 0.012590188 0.097559184
000350 50 bc d8 3c d5 d8 21 3d 30 7a dd 3c 83 f1 a0 3c
       0.026456982 0.039513428 0.027035803 0.019646412
000360 49 ab d4 bd cc 7f 34 3d 41 1a 03 bd c4 a0 a8 bd
       -0.103842326 0.04406719 -0.03200746 -0.082337886
000370 ec b8 6d 3c 70 78 90 3d 2d 0a 01 bd 8c 86 80 bd
       0.014509421 0.07054222 -0.031503845 -0.06275663
000380 e5 dd 67 bc 3a 47 8d 3d f3 dd 54 3c e4 ef 01 3e
       -0.014152025 0.06898351 0.01299237 0.12689167
000390 1f 56 bb 3d 96 65 62 3d 46 a1 bd 3c 9b bc df 3d
       0.09147286 0.05527266 0.02314819 0.109246455
0003a0 14 2a af bc cb f2 b4 bc f2 6d 92 bd 04 3c 20 3d
       -0.02138237 -0.022088429 -0.07149877 0.039119735
0003b0 ff af 83 bd 78 29 24 bd 22 88 80 bd 3d ac 10 bc
       -0.06430053 -0.04007861 -0.06275965 -0.008830127
0003c0 bf 5e 83 bd 9c 20 a5 3d ba 33 95 bd 8a 70 aa bd
       -0.06414556 0.0806286 -0.07285257 -0.083222464
0003d0 ec ae 14 bd 9a 06 a5 bd c0 c4 55 bd 1c be 7a 3b
       -0.03629963 -0.080579 -0.05218959 0.0038260287
0003e0 6e c4 1e 3d cf 58 aa bc bc 96 cc bc 1a dd 1c 3d
       0.03876155 -0.0207943 -0.02497422 0.038296796
0003f0 38 cb a4 3d 6b 90 0b bd 4b 8f f1 bc e9 5f 99 3d
       0.080465734 -0.034073275 -0.029487273 0.074889965

weight f4 [20, 10, 3, 3]
000000 4d 17 d2 bc b8 8b 09 bd 17 71 1e 3d ee 67 82 bd
       -0.025645876 -0.03358051 0.03868207 -0.06367479
000010 1a 10 46 bd 0c 43 ac 3d a3 e4 a7 3d 61 12 05 bd
       -0.0483552 0.08411226 0.08197906 -0.03248823
000020 2e b4 09 bc 35 ef bc 3a 3c b1 d9 bd 5f 1d 17 3e
       -0.008404775 0.0014414551 -0.10629508 0.14757298
000030 54 63 1e bd 82 c7 0e 3e ec 14 31 3c 70 09 9f 3e
       -0.038668945 0.13943294 0.010808211 0.31061888
000040 88 d0 8f 3e fa 99 75 3e 4d 36 34 bd f3 6e 81 bd
       0.28088784 0.23984519 -0.043997098 -0.0631999
000050 db c2 a2 3d a6 00 4c 3d 55 1d 34 bd 4f c9 07 bd
       0.07947322 0.049805306 -0.043973286 -0.033150967
000060 77 1e 76 3d b1 64 22 bc 10 63 81 3d c9 0c 65 be
       0.060087647 -0.009911702 0.06317723 -0.22368158
000070 a6 6a 12 be a2 3a 25 bd bf 1d 1e be e9 53 de bd
       -0.14298496 -0.04033912 -0.15441035 -0.10855848
000080 44 d9 dc 3d 0d 1f 09 be 98 27 91 bc e0 a0 89 3d
       0.10783628 -0.13390751 -0.017719075 0.067201376
000090 38 ec 52 be 3c 42 18 be 4c c3 2e be ca b8 02 be
       -0.20597923 -0.14869016 -0.17066687 -0.12765804
0000a0 b6 5a 2b bd a4 7e cf bd fe 81 9d bd 4c da b1 bd
       -0.041834556 -0.10131577 -0.0769081 -0.08684215
0000b0 56 33 c4 bc 45 8a 30 be 06 f0 5b be 3c ab 28 be
       -0.02395026 -0.17240246 -0.2147828 -0.1647157
0000c0 da 23 10 be 49 73 16 bd 4b 3b 1a be 1c 25 5c bd
       -0.14076176 -0.03673104 -0.15061681 -0.053746328
0000d0 4b f6 0f 3e f6 06 b1 bd f6 33 2a bd 0a 25 1c be
       0.14058797 -0.08643906 -0.04155346 -0.15248504
0000e0 89 65 ca b9 0f f3 de bd 3d d2 bc 3c 0a b8 4b bd
       -0.00038604092 -0.108862035 0.023049468 -0.04973606
0000f0 69 96 09 ba 95 4b 78 3d b2 04 ab 3d 54 f1 73 bd
       -0.0005248548 0.060618956 0.08350505 -0.05955632
000100 23 1a 68 3d 5e 49 38 bd 81 d4 0f bc 08 26 2e bd
       0.05666555 -0.044991843 -0.008778692 -0.04251674
000110 93 7e 9e bd 7b 4e 31 3d 2e 1d 86 bd f4 f9 6d bd
       -0.07738986 0.043287735 -0.06548534 -0.058099702
000120 8b 92 b4 3d 1f 88 45 bd 0e cb 30 bc a0 49 8f 3d
       0.08817013 -0.04822552 -0.0107905995 0.06996465
000130 b9 f5 13 bc 16 8f 3c 3c 8f 47 8a 3d e1 ec 8b 3d
       -0.009030753 0.011508724 0.0675193 0.068322904
000140 ac 14 c4 3d ba cc fc bd 7b d4 23 be 6d 04 e8 bd
       0.09574255 -0.12343736 -0.15999024 -0.11328969
000150 0b a6 06 be d2 f8 2c be 45 43 d4 3d 80 d4 8b bd
       -0.13149278 -0.16891792 0.10364393 -0.068276405
000160 4b 43 13 3e 6d a1 3e 3e af 7e cd 3d 7b 97 a3 3d
       0.14381139 0.18616267 0.100339286 0.07987877
000170 c3 da 6f 3c 39 be 41 bd 00 59 38 bd bf 53 ed 3d
       0.014639559 -0.04730055 -0.045006752 0.11588239
000180 6e 8c 3c bd 3e 2c ee bc ce 91 43 bd 3d 19 9c bd
       -0.04603236 -0.02907383 -0.047746472 -0.07622001
000190 28 f6 9d 3c f6 21 38 be b5 92 c4 bd 35 91 ce bd
       0.019282416 -0.17981705 -0.09598295 -0.1008629
0001a0 62 47 ea bd 8f 8b 5e 3e 7f ab 20 3e dc ec 90 3d
       -0.114393964 0.21732925 0.1569042 0.07076427
0001b0 f1 8f 97 3d 52 e3 d8 3d 39 1b 0c 3e a6 cb d9 bd
       0.074005015 0.10590233 0.1368226 -0.10634546
0001c0 e3 62 0c 3d 4c d8 93 3d 8b 4a 44 3d 76 92 09 3c
       0.034273993 0.0721899 0.047922652 0.008396735
0001d0 89 00 6f bd e1 74 05 3e 23 db 04 3e 7e 50 34 3e
       -0.05835012 0.13032867 0.12974219 0.1760883
0001e0 15 a0 4d 3d 1f 62 20 bd 0b d2 de b8 3c 33 0b be
       0.050201494 -0.039156076 -0.000106249085 -0.13593763
0001f0 59 42 10 be 4d c7 ea bd 27 3d 15 3d 88 9e 0c be
       -0.1408781 -0.11463795 0.036435273 -0.1373235
000200 de fc da bd a6 9f 37 be 81 57 83 bd 5d cb eb bd
       -0.10692762 -0.17931995 -0.064131744 -0.11513398
000210 ed de 04 be 69 7a 89 bd eb 1c 1c be 85 fe de 3d
       -0.12975664 -0.06712801 -0.15245406 0.108883895
000220 18 a7 28 3e ea e5 87 3e ce 17 a5 3c bf 84 b8 bd
       0.16469991 0.26542598 0.020152953 -0.09009694
000230 5d 1b b7 bb 31 0f 37 be aa 56 70 bd 3d 48 a2 bd
       -0.0055879788 -0.17876889 -0.0586764 -0.079239346
000240 c1 d5 f3 bd 02 fe f1 3c 3a 95 24 3e c5 86 0d 3b
       -0.11906005 0.029540066 0.1607255 0.0021595221
000250 ab 61 7c 3e 94 58 6f 3e 93 c3 0c 3e 42 e4 cd bd
       0.24646632 0.23373634 0.1374648 -0.10053302
000260 95 f5 52 bd c7 48 a6 3d a3 97 d9 3b 0b cf ec 3d
       -0.051503737 0.0811935 0.006640391 0.11562928
000270 1d 31 00 3d 64 8d 3e 3d 99 e9 d1 bb 4e f7 5b 3d
       0.031296838 0.04652156 -0.006406021 0.053702645
000280 ee 99 bc bc 13 86 62 3d 0a b7 72 3d 63 4d d0 3d
       -0.023022618 0.055303644 0.05925659 0.1017101
000290 e9 76 64 bd 4d fa b6 3d ed 8d 28 bd 8c 3e 80 bc
       -0.055777464 0.0893446 -0.041150976 -0.015654825
0002a0 a0 64 4e 3c 8d 75 93 3d d1 c3 e6 3c d5 19 6f be
       0.012597233 0.072001554 0.028169544 -0.23349698
0002b0 af 51 80 bd 7f 6a 34 be 61 b3 3f be a1 9e 61 bd
       -0.0626558 -0.1761875 -0.18720771 -0.05508292
0002c0 c9 11 23 be a4 1a 22 bd b8 7b 46 3c 2c 8b 95 3e
       -0.15924753 -0.039576188 0.012114458 0.29207742
0002d0 78 7c af 3d cd 31 c3 bd 76 1e 26 bd 38 48 7a bd
       0.085686624 -0.09530983 -0.040556394 -0.06110403
0002e0 2d d1 d1 bd 32 ca 04 bd 61 f5 b2 bd 83 a8 d3 3b
       -0.10244975 -0.03241939 -0.087382086 0.006459297
0002f0 7c d1 9b ba d1 ca 4a be ba 4d 84 be 23 2c ed 3d
       -0.0011887993 -0.19803931 -0.2584055 0.11580684
000300 f6 d7 6c 3e 6b 99 9f 3e 4b 64 51 3e 47 35 5e be
       0.23129258 0.31171736 0.20448415 -0.21700011
000310 c4 e9 b0 bc fd aa 93 3c e8 27 4c bc 34 28 52 bc
       -0.021595843 0.01802587 -0.012460686 -0.012826968
000320 82 3f c1 bd 1f 52 db 3d 73 44 fa bc 79 9f 65 bd
       -0.09435941 0.10709023 -0.030550217 -0.056060288
000330 f8 fb 24 3e a5 d9 d8 3d 17 54 ac 3d 75 e0 90 3d
       0.16111743 0.105883874 0.08414476 0.07074062
000340 cf b7 da 3d 36 bd 0f be 71 7f 2f bb f4 f3 5d bd
       0.1067959 -0.14037022 -0.0026778842 -0.05418773
000350 22 5f 2e 3c 79 f6 0b 3d 96 b1 83 3e 25 98 ff 3d
       0.010642799 0.0341706 0.25721425 0.12480191
000360 ed 59 62 3d a0 b7 97 3b 18 aa 8a bd b2 73 11 be
       0.05526154 0.004630044 -0.06770724 -0.1420429
000370 c1 9b d8 3d e8 c1 9f 3d f4 03 eb 3d 85 87 ce 3e
       0.10576583 0.078006566 0.114753634 0.40337768
000380 76 65 19 3e 17 18 a7 3e ca b6 46 3e 0f dd d4 3b
       0.1498011 0.32635567 0.19405666 0.006496079
000390 f7 f5 a4 bd 0b 12 d1 bc 25 fc 99 3c 9d 8e 20 3d
       -0.080547266 -0.025521299 0.01879699 0.039198507
0003a0 cd 05 68 3e 09 c4 4e 3e 3d ed b8 bd 06 ac 8a be
       0.22658463 0.20191969 -0.090296246 -0.27084368
0003b0 05 46 04 be e8 64 ec bc 75 eb ef bc 45 00 6f 3e
       -0.12917335 -0.02885671 -0.02928708 0.23339947
0003c0 4d d8 81 be 9e f3 9a bd 4d 8f 05 3e 21 d5 9d 3d
       -0.25360337 -0.075659975 0.13042946 0.07706667
0003d0 0c b9 aa bc 65 cc 30 3b 5b 1c b2 bc c7 c0 cf bc
       -0.02084019 0.0026977297 -0.021742037 -0.025360478
0003e0 51 42 be bc 5c c9 bd bd 40 8b 26 bc 5f 35 b2 bd
       -0.023224982 -0.09266922 -0.010165036 -0.08701586
0003f0 9a 8e 03 bd d6 d0 ac bd 86 92 a1 3d 80 94 bb 3d
       -0.032118417 -0.0843827 0.07889275 0.091591835

weight f4 [10, 20, 1, 1]
000000 12 fa 70 3d 72 de 3d be 2f 9e c7 3c 30 ad cd bd
       0.058832236 -0.18541887 0.02436742 -0.100427985
000010 ce 8c 60 bd c7 c7 40 3e a7 70 6c bc 4e 68 80 bd
       -0.05482178 0.18826209 -0.014431155 -0.062698945
000020 f9 f5 fc bd d1 b2 8f be 3b 3a 6e bd 3d 8c 29 3e
       -0.12351603 -0.28066114 -0.058161 0.16557403
000030 1d a0 ca bd bb ef 4e be a0 80 0d be b0 51 d2 bc
       -0.098938204 -0.20208637 -0.13818598 -0.025673717
000040 ff 0c 23 be e0 be 64 be fc 7f 21 bd e0 ee 32 bd
       -0.15922926 -0.22338438 -0.039428696 -0.04368484
000050 7b a8 76 3e 66 1e 1c 3e 3b 8a 6f 3d 38 87 c2 be
       0.24087708 0.15245971 0.058481436 -0.3799379
000060 04 bd 58 be 71 4f 9c bb 12 88 55 be db 2a 3e 3e
       -0.21165854 -0.0047702123 -0.20852688 0.18571036
000070 58 d0 4e 3f 71 62 96 3e 42 5a d0 be e6 d4 cb 3c
       0.8078666 0.2937198 -0.4069386 0.024881791
000080 d9 fe e4 bd 3e 9d f8 3e 70 94 cc 3d 98 c4 a3 3d
       -0.11181421 0.48557466 0.0998925 0.07996482
000090 5c 69 ab 3d 79 73 25 bf b8 ad 18 3c 8d a0 03 bf
       0.08369705 -0.6462932 0.0093187615 -0.51416856
0000a0 5d 35 83 be 7d cc 5f bd ca 5d a4 3e a9 8c 16 be
       -0.2562665 -0.054638375 0.32102805 -0.14702095
0000b0 26 64 eb bd 3f c7 a4 bc a5 b7 53 3e bf a3 07 3f
       -0.11493711 -0.02011454 0.20675524 0.5298423
0000c0 32 f3 69 be a8 13 c5 3d b6 df 9e be ee f8 cd 3c
       -0.22846678 0.0962289 -0.31030053 0.025143113
0000d0 14 09 6e be be 0c 93 be ef 82 33 3e 3e a2 92 3e
       -0.2324565 -0.2872066 0.17530416 0.28639406
0000e0 dd d6 a6 3d 85 d3 65 3e 88 ec 1a 3e a1 1b fe bb
       0.08146451 0.2244397 0.15129292 -0.0077547585
0000f0 65 09 80 bd 8e dd 01 be c2 f6 41 be 7d 18 3e be
       -0.06251792 -0.12682173 -0.18941787 -0.18564029
000100 74 ca 23 3c c6 13 0f 3e f0 b6 4c 3c 51 57 0e 3e
       0.009996999 0.13972387 0.012494788 0.13900496
000110 d4 3c 86 3c 8e 5d cf 3d 2a 67 62 bd 86 b1 d7 3d
       0.016386427 0.10125266 -0.055274166 0.10531907
000120 df 9b 0b be 4a eb 48 be 8a 92 d5 bb 0a 6f 4a 3d
       -0.13633679 -0.19621006 -0.006517713 0.0494223
000130 3c 18 48 be 5f 5f 0b bd d9 e2 13 3e 24 e1 c0 bd
       -0.19540495 -0.0340265 0.14442004 -0.09417942
000140 0d aa 89 3e db ee 29 bd 52 3a 3f bd ce e4 db bd
       0.2688755 -0.041487556 -0.046686478 -0.107370004
000150 0b 6c 57 bd ba cd c4 bc 68 42 4e be 71 42 98 bd
       -0.052593272 -0.02402388 -0.2014252 -0.07434548
000160 85 16 94 bd 34 8b 54 be 5d c8 29 3f d1 23 b2 3d
       -0.07230858 -0.20756227 0.66321355 0.08698238
000170 19 6a c6 bc 1c 0f fc 3d 5d 00 98 bd d2 9a 52 3e
       -0.024220513 0.123075694 -0.07421944 0.20566872
000180 2d 8e df 3d f9 e9 f4 bd 4f 0f ec 3d fb 09 5c be
       0.1091579 -0.11958689 0.115263574 -0.21488182
000190 54 cb 0d 3f f7 c5 c6 3d 79 50 9b 3d 65 95 fb 3e
       0.5538838 0.097057275 0.07583708 0.49137416
0001a0 9d 12 26 bc b7 6b 8b bc a1 40 ba bd 8d d7 01 bf
       -0.010136274 -0.017019136 -0.09094358 -0.5071953
0001b0 0d be 82 3e 89 3c f3 be 5e 4f cf be c7 ff de 3e
       0.25535622 -0.47507122 -0.4049024 0.43554518
0001c0 50 e4 3b bd 67 6d 88 3d b0 a5 1b be 0b 99 be be
       -0.045872033 0.06661492 -0.15199924 -0.37226138
0001d0 3b f5 08 3e c8 43 19 bb 2c 35 97 3d 4a 34 f2 3e
       0.13374798 -0.0023386348 0.073831886 0.47305518
0001e0 ce 69 68 be 95 f2 0d bd 1a 3c 83 3e ee 48 5e be
       -0.22696611 -0.034655172 0.2563179 -0.21707508
0001f0 f3 e2 0a 3e 37 9d 43 be 72 29 8a be 38 8f cd be
       0.13563137 -0.19102941 -0.26984745 -0.4014833
000200 d3 f7 29 be 78 87 00 bd 71 f6 df be 49 57 88 be
       -0.16598444 -0.031379193 -0.43742707 -0.26629093
000210 90 c8 67 bd 29 e8 28 3f 9c 7f df 3d 1e eb 37 be
       -0.056587756 0.6597925 0.109130114 -0.17960784
000220 ac 33 14 3e d7 37 03 bf 5d 0e 1c 3e c1 35 40 3e
       0.14472836 -0.5125708 0.15239854 0.18770505
000230 69 ce f4 3c 45 76 35 3f d9 3f fb be 03 9f 53 be
       0.02988358 0.7088359 -0.4907215 -0.20666127
000240 ed 59 5e 3d 10 0e 33 be a5 26 94 3e 8a 5f 2c 3f
       0.05428498 -0.17485833 0.28935733 0.6733328
000250 40 18 23 3e 61 2e a2 3e 26 e2 82 3e 41 b7 7c be
       0.1592722 0.3167601 0.25563163 -0.24679281
000260 16 43 04 be e6 70 fc be d2 34 a2 3d d7 c8 60 be
       -0.12916216 -0.49304885 0.07920231 -0.21951614
000270 b3 95 1f be be 74 5c 3e 66 1c 11 3c 96 28 c0 3e
       -0.1558445 0.21528909 0.008856868 0.37530965
000280 b9 a5 b6 bc 9f ec 5d be aa b1 87 be 15 90 bc bd
       -0.02229582 -0.21672295 -0.26502734 -0.09207169
000290 ef 0b be bd 73 96 34 3e 3f 96 62 be b2 fa 85 3d
       -0.0927962 0.17635517 -0.22127627 0.06541957
0002a0 40 29 93 3d d6 63 37 3d d7 a9 80 bd 3c 8f d3 3c
       0.07185602 0.044772945 -0.062823944 0.025825135
0002b0 b8 c0 9c be b4 bb f9 bd cc 11 0b 3e 4c 31 01 bd
       -0.30615783 -0.12194005 0.13581008 -0.031541154
0002c0 79 3f b5 3c cf b5 e2 be 78 3b a4 3d c2 06 65 be
       0.022124993 -0.44279334 0.08019155 -0.22365859
0002d0 87 5d 25 3d ee 75 c0 3e 6f 08 a1 be f5 62 c6 3c
       0.040372398 0.37589973 -0.31451747 0.024217108
0002e0 83 d3 66 bd 9a 9d 76 be bc a7 c4 be f2 7f 42 3d
       -0.056354057 -0.24083558 -0.3840922 0.0474853
0002f0 4d 34 b2 3d cb cd 76 3e f0 ee 8c bd 48 d6 07 be
       0.08701382 0.24101941 -0.06881511 -0.13265336
000300 3c 49 12 be fb 6f a9 be 79 8b ba 3d 61 df 28 be
       -0.14285749 -0.33093247 0.091086335 -0.16491462
000310 95 d2 22 be 71 18 f9 be cf 7c 0f ba c9 36 16 3f
       -0.15900643 -0.4865146 -0.0005473615 0.58677346

weight f4 [10, 10, 7, 7]
000000 16 7c b1 39 b2 fd 5b bc 53 19 00 3b 6b cc a4 3d
       0.00033852522 -0.013427185 0.0019546344 0.08046802
000010 94 ca 78 3d 2b 38 8a 3d 2c ed dd 3d a6 d6 a5 bc
       0.06074007 0.067489944 0.108362526 -0.020243954
000020 bf 47 17 3c bf de c8 3d d9 f6 8d 3d 82 3d d3 3d
       0.009233414 0.098081104 0.06931848 0.10314466
000030 bc d6 0c 3e 8e 53 de 3d da 35 61 3d 3a f1 90 3d
       0.1375379 0.108557805 0.054982997 0.0707726
000040 6f 5b 0c 3e fb 5b f8 3d f9 07 23 3c 86 b9 62 3d
       0.13706754 0.12126919 0.009950631 0.05535271
000050 d2 82 a1 3d 2f 5f 32 3d e2 c9 78 3d cb 6f ea 3d
       0.0788628 0.043547805 0.060739405 0.11447104
000060 f4 ab 97 bc 62 1d f3 ba 5a a2 34 bd e2 2a cb 3d
       -0.01851461 -0.0018548185 -0.044100143 0.099202886
000070 07 bb 99 3d b6 9b 1f 3e 11 dc 82 3d 2f ba ac bb
       0.07506376 0.15586743 0.063896306 -0.0052712183
000080 f9 b0 10 bd 8a f4 e1 bc a3 7d a1 3d 30 9a 1c 3e
       -0.035325024 -0.027582426 0.078852914 0.15293193
000090 f3 19 a9 3d eb 3f 85 3d 38 cc a1 bd 59 a6 09 bd
       0.082569025 0.06506332 -0.0790028 -0.033605907
0000a0 1d a1 93 bc db 9f 47 3d b3 08 f7 3d 8f 98 2b 3e
       -0.01802116 0.048736434 0.12062206 0.16757415
0000b0 25 37 ed 3d 83 21 a8 bc 03 a8 39 3d 0c 84 68 3d
       0.115827836 -0.020523792 0.045326244 0.056766555
0000c0 42 8c f8 3d b6 51 3c 3d d6 e5 cb 3d 05 10 5b 3c
       0.12136127 0.045976363 0.09955947 0.013370519
0000d0 20 94 0a 3e 27 48 0b 3e 90 2d cf 3d f6 46 2d 3e
       0.13533068 0.13601743 0.10116112 0.169216
0000e0 d9 f5 b4 bb b5 6a c8 bc fa 0a 6f bc 43 3e 0d 3c
       -0.0055224714 -0.024464944 -0.014590019 0.008620801
0000f0 10 a1 6a 3d 20 c1 d2 3d 45 f0 c6 3d e2 4c b9 bb
       0.057282507 0.10290742 0.097137965 -0.005654917
000100 2a 17 b9 3c da d9 36 3d 67 d2 7b 3d 4a 4e 8e 3d
       0.022594053 0.044641353 0.061479952 0.06948526
000110 fe 72 5f 3c 24 66 8e 3c 58 8b dd bd 29 be 3b 3d
       0.013638256 0.017382689 -0.10817593 0.045835648
000120 68 67 38 3d 27 f1 16 3d a4 32 8a 3d 66 12 9c bd
       0.04502049 0.036851075 0.0674794 -0.07620697
000130 3b a4 18 be ef 93 e2 bd a6 e5 91 bd 74 50 26 bb
       -0.14906399 -0.11063372 -0.0712388 -0.0025377544
000140 2e 56 6d 3c f5 b5 a2 3d 43 31 8d bd f2 43 2c be
       0.014485879 0.07944862 -0.068941616 -0.16822794
000150 17 03 bc bc 4e 28 f5 3c 88 46 e7 ba 7f 85 20 3e
       -0.022950692 0.029926445 -0.0017644921 0.15675925
000160 f8 9f 8e 3c b9 56 11 be 29 0f 63 bd 75 d3 a9 3d
       0.017410263 -0.14193238 -0.05543438 0.08292285
000170 a0 0d ce 3d bc 43 86 3d 08 ad 88 3c 46 83 66 bd
       0.100611925 0.06555888 0.01668407 -0.056277536
000180 58 82 16 bd fb 70 90 3d de 34 9b bc 95 fb cf 3d
       -0.0367454 0.07052799 -0.018946107 0.10155407
000190 57 15 6a 3d 81 54 6f 3d 9c 2b 02 3e 2a e4 e9 3d
       0.057149258 0.0584302 0.12711948 0.11420472
0001a0 6a e9 3e 3e e5 7e f4 3c 65 50 23 3e ec 99 f1 3d
       0.18643728 0.029845664 0.15948637 0.117969364
0001b0 b8 6b c3 3d 59 d0 cf 3d 2a 4e 4e 3e 36 e3 b5 3e
       0.0954203 0.10147161 0.20147005 0.3552491
0001c0 18 d9 a0 bc 86 d4 8d bc 67 cc cf bb aa 73 c4 3d
       -0.019634768 -0.017313253 -0.0063415053 0.09592374
0001d0 6f d5 05 bd 33 97 9c bd cc 60 57 3e 4d 19 f6 3c
       -0.03267425 -0.076460265 0.21033019 0.030041361
0001e0 d3 56 14 3c 07 c4 1e 3e 34 b1 fb bd a5 6c 39 be
       0.009053904 0.15504466 -0.12289658 -0.18107851
0001f0 4b f5 24 be eb 61 3d 3e 7f 6b ee 3d 8e d0 40 3e
       -0.16109197 0.18494384 0.11641597 0.18829557
000200 95 6b 17 3e 37 db 98 be 2d f3 6a be a5 55 87 bc
       0.14787133 -0.29854748 -0.22944327 -0.01652033
000210 77 34 a0 3d f4 ea 01 3e 24 24 c0 3d 83 70 82 ba
       0.07822507 0.12687284 0.09381893 -0.0009951744
000220 5b 54 d9 be 30 80 91 be 50 48 50 be 65 c7 a8 3c
       -0.4244717 -0.28418112 -0.20340085 0.020602891
000230 56 cf 67 3e 51 a4 5c 3e f6 87 93 bd ee df 4c be
       0.22637686 0.21547057 -0.07203667 -0.20007297
000240 1b 83 19 be 75 d8 6b bd 29 2c ae bd 31 88 b1 39
       -0.14991419 -0.057579476 -0.08504517 0.0003386154
000250 7b 0c 80 3c 13 60 e7 bc 8e 39 9b bb 1d a5 27 3d
       0.015630951 -0.028244054 -0.0047370857 0.04092895
000260 a0 77 ff 3c 76 f6 38 3b 86 15 dc 3c 98 12 24 bd
       0.031184971 0.0028223074 0.026865732 -0.040056795
000270 d0 5e d9 bc 06 1e f1 bc 09 a3 15 bd 7a 66 38 3c
       -0.026534468 -0.029433262 -0.036532436 0.011254901
000280 db e8 36 bc 94 c6 8f bc e6 c8 0c 3d 71 81 44 3c
       -0.0111639155 -0.017550744 0.03437128 0.011993752
000290 87 89 23 bd b3 b2 18 bc 9c 56 ff bc e6 74 96 3b
       -0.03992608 -0.009319949 -0.031169228 0.004591572
0002a0 d0 84 31 3c a7 c1 a5 bb b6 b9 24 3b 5b 4e 03 bd
       0.010834888 -0.0050584855 0.0025135106 -0.032057147
0002b0 0a e4 1e 3d bf 8a 0c 3d 95 72 20 3d 25 f9 76 bc
       0.038791694 0.034312006 0.039171774 -0.015074049
0002c0 d2 34 ba bc 76 12 c6 3b 09 ba 1a bd 30 f3 6c bc
       -0.022730265 0.006044681 -0.037775073 -0.014462277
0002d0 36 11 6e 3c 9d 32 f9 3c 8d 5a c9 bb d2 15 ab 3c
       0.014530471 0.030419642 -0.0061448277 0.020884428
0002e0 d0 94 35 3c 91 a6 81 3c 6c f4 08 bc 1f bf 8a bc
       0.011082843 0.015826495 -0.008359056 -0.016936837
0002f0 c1 61 82 3c c1 30 13 3b b3 6b a6 bc 60 cc f3 3b
       0.015915753 0.002245948 -0.020315027 0.007440135
000300 d0 35 15 bd fc 75 91 bc e0 69 0d 36 ec 82 9a 3c
       -0.036428273 -0.017756455 2.1072265e-06 0.018861257
000310 52 00 2d bc 4a c8 84 bd 08 c1 a9 3c 8b d8 2a bd
       -0.010559158 -0.064835146 0.020721927 -0.041710418
000320 b3 ee b2 3c 81 4a 63 3c d7 e9 3d 3b da ab 1e bd
       0.021842336 0.013872744 0.002897849 -0.03873811
000330 17 96 73 bd 28 25 5d bd f2 59 04 3d 04 80 0c 3d
       -0.05946931 -0.053990513 0.03231234 0.034301773
000340 1f 8e 11 bc 1b 2c 36 bc ac bc de bc 17 5b e8 bc
       -0.008883982 -0.011118914 -0.027189575 -0.028363748
000350 66 78 3c bd 5e 0d 52 bc 09 30 61 bc f7 4a 48 3d
       -0.04601326 -0.01282057 -0.013744363 0.048899617
000360 5f a7 28 3b 93 13 bc 3a 84 d8 af bc 75 5d 45 bd
       0.0025734527 0.0014349095 -0.021465547 -0.04818483
000370 4b f3 8a 3b a6 a4 de 3a cc 47 28 bc 59 c2 fe 3a
       0.0042404286 0.0016986325 -0.010271024 0.0019436582
000380 75 9d 49 3d d2 03 32 3d 2e f7 d9 bd 81 ea 33 3d
       0.04922243 0.043460675 -0.10642849 0.043924812
000390 70 57 ef bc 4e 1d ec 3b 19 ff 25 bb 8a 3b 35 3c
       -0.029216498 0.007205642 -0.0025329052 0.0110615585
0003a0 a4 2c 26 3c 2e 81 dd 3c 09 1b 51 3d 2d e9 5d 3b
       0.010142479 0.027039137 0.051051173 0.0033860907
0003b0 95 97 36 bd 46 51 2b bb e1 f8 f8 bb d8 1e 34 bc
       -0.044578154 -0.0026140972 -0.007598028 -0.010993682
0003c0 58 51 be 3c 7a de 73 3c ed 03 53 bd 73 5c 3b bd
       0.023232147 0.0148845855 -0.051517416 -0.045742463
0003d0 a9 43 5f 3c e6 af 2d 3e e2 8e 94 3d ec 82 31 3d
       0.013626971 0.16961631 0.07253815 0.043337747
0003e0 6c 46 21 3e 2b 75 0d 3e 26 2f 37 3d 73 de e6 3d
       0.1574952 0.13814227 0.0447227 0.112728976
0003f0 87 5f 20 3d 4b 70 00 3d 6a f5 c3 3d c6 7c 97 3c
       0.039153602 0.03135709 0.095682934 0.018492114
