mlruns/271458266826723899/models/m-cfea801f33624553b53bc71d192489d1/artifacts/data/model.pth (torch, 791537 bytes, 8 tensors)

weight f4 [32, 1, 3, 3]
0	0x3eb4bec8	0.35301805
1	0x3eab0654	0.33403265
2	0x3ebe427f	0.37160107
3	0xbd31a750	-0.043372452
4	0xbe5de478	-0.21669185
5	0x3c7b12b2	0.0153242815
6	0xbe8d45cb	-0.2759231
7	0xbe4bbdac	-0.19896573
8	0xbe7edda6	-0.2488924
9	0x3e76de73	0.24108295
10	0x3c5de667	0.013543702
11	0xbce6c161	-0.028168382
12	0x3ea859ff	0.32881162
13	0x3db8795b	0.09007522
14	0xbea13fca	-0.3149398
15	0xbec9d4ca	-0.39420158
16	0x3ee61dcc	0.44944608
17	0xbe0efb39	-0.13963021
18	0xbe2a1992	-0.16611317
19	0x3ebcead3	0.36897907
20	0x3e924396	0.2856719
21	0xbde3d7fc	-0.1112518
22	0x3e58b7b5	0.21163829
23	0x3ed46aa5	0.41487613
24	0xbe8f6813	-0.2800909
25	0xbd04c076	-0.032410108
26	0x3dc0456f	0.093882434
27	0x3e457179	0.19281568
28	0xbe92c5f5	-0.28666654
29	0xbe25b7c1	-0.16183378
30	0xbe6e260d	-0.23256703
31	0x3ea2f254	0.31825507
32	0x3ea68cb9	0.32529238
33	0x3d913155	0.070894875
34	0xbecdc299	-0.4018753
35	0xbdd8bfce	-0.10583459
36	0x3ea2347a	0.3168066
37	0xbd9551f5	-0.07291023
38	0x3d981bfa	0.07427211
39	0x3eb5b70b	0.35491213
40	0xbeb6ab2f	-0.35677478
41	0xbe92e449	-0.28689793
42	0x3d593f63	0.053038966
43	0xbebe735d	-0.3719739
44	0xbe8616ea	-0.26189357
45	0xbea7e77d	-0.327938
46	0xbe4179d9	-0.18894137
47	0xbe32b396	-0.17451319
48	0x3d9e61b4	0.07733479
49	0xbe41bc58	-0.18919504
50	0xbe5475dc	-0.20748085
51	0xbe052c97	-0.13005291
52	0xbe754534	-0.2395218
53	0xbc8d2b08	-0.017232433
54	0x3dedf261	0.11618496
55	0xbe8a37c4	-0.2699567
56	0xbe899257	-0.2686946
57	0xbdfac290	-0.12244141
58	0xbd02a76a	-0.03189794
59	0xbe88c79d	-0.26714793
60	0x3e024acb	0.12723844
61	0x3e7c6001	0.24645998
62	0xbe98443f	-0.29739568
63	0xbe8afcbe	-0.27145952
64	0xbe852dba	-0.2601145
65	0xbea612cc	-0.32436216
66	0xbe4bce6f	-0.19902967
67	0xbe36fcad	-0.17869826
68	0xbdcdd997	-0.100512676
69	0x3dd80ff9	0.105499215
70	0xbd3fecf4	-0.046856835
71	0x3eb8538b	0.36001238
72	0xbd1a1b89	-0.037623916
73	0xbe485026	-0.19561824
74	0x3dbf4c47	0.093407206
75	0xbea3e427	-0.32010004
76	0xbea05d68	-0.31321263
77	0x3e6f5222	0.23371175
78	0xbe8b1337	-0.27163097
79	0xbced8893	-0.028995788
80	0x3e130fa4	0.14361435
81	0x3e42ab42	0.19010642
82	0x3e57db1f	0.21079682
83	0x3e88831c	0.2666253
84	0x3eb99c1b	0.36251912
85	0x3ee25115	0.44202486
86	0xbd7a1eef	-0.061064657
87	0xbe1082d2	-0.14112404
88	0x3df69a0f	0.12041103
89	0xbea3859c	-0.31937873
90	0x3ec5c2ef	0.38625285
91	0xbe76a75e	-0.24087283
92	0x3e4358f0	0.19076896
93	0xbe9b4bc5	-0.30331245
94	0xbe87974a	-0.26482612
95	0xbe7c610c	-0.24646395
96	0xbe01e2f8	-0.12684238
97	0xbe69c647	-0.22829543
98	0x3e961643	0.2931386
99	0xbea57917	-0.32318947
100	0x3e4c7d27	0.19969617
101	0x3c115f03	0.00887275
102	0x3d5f17ca	0.054466046
103	0x3e04d6ce	0.12972566
104	0xbcfd21bc	-0.030899875
105	0xbdd647b7	-0.10462897
106	0x3e699a09	0.22812666
107	0xbe8abe10	-0.2709813
108	0xbdbdf031	-0.092743285
109	0xbde407a1	-0.111342676
110	0xbde42ccb	-0.11141356
111	0xbea20468	-0.31643987
112	0x3e9745d2	0.29545456
113	0xbcdf6f72	-0.027274821
114	0xbe9f0a41	-0.3106251
115	0xbd2fdaf7	-0.04293343
116	0xbe6b0181	-0.22949792
117	0xbd79738f	-0.06090122
118	0x3ec163ad	0.3777136
119	0x3e86ee6d	0.2635378
120	0x3ddca63d	0.10773895
121	0x3d4843c7	0.048892763
122	0xbddbf837	-0.107407026
123	0xbe88425d	-0.2661313
124	0x3dff1a81	0.12456227
125	0x3baca7d0	0.0052690282
126	0x3db0d78a	0.08634861
127	0xbe231b05	-0.15928276
128	0xbe5308ac	-0.20608777
129	0xbc7e16ba	-0.015508348
130	0x3e0eeadc	0.13956779
131	0xbe1c9cb0	-0.15294147
132	0x3e66645e	0.22499225
133	0xbe594d3c	-0.21220869
134	0x3e96853d	0.29398528
135	0xbe983ab9	-0.29732302
136	0x3d9e5189	0.07730395
137	0x3d68b7fc	0.056816086
138	0x3e098387	0.1342908
139	0xbdca071f	-0.098646395
140	0x3e09d13e	0.13458726
141	0x3e946be9	0.2898858
142	0xbea0c2e1	-0.3139868
143	0xbe8a6fbb	-0.2703837
144	0xbd4f939b	-0.050677877
145	0xbe77d990	-0.24204087
146	0xbe2a012c	-0.1660201
147	0xbe2c0297	-0.16797863
148	0xbe306e13	-0.1722949
149	0xbe0f4fe6	-0.13995323
150	0x3ea88240	0.32911873
151	0xbca2293c	-0.019795053
152	0xbde9ce98	-0.11416358
153	0x3bc7de8d	0.006099528
154	0x3e9027e2	0.28155428
155	0x3e3dcde0	0.18535566
156	0xbe0dc05a	-0.13842908
157	0x3e2866fc	0.16445535
158	0xbe83761e	-0.25676054
159	0x3e883562	0.26603228
160	0x3e82469b	0.25444493
161	0xbece7ea5	-0.40330997
162	0xbe97f20f	-0.29676864
163	0x3e7694d5	0.24080212
164	0x3e3760d0	0.17908025
165	0x3e9ca2bf	0.30592915
166	0xbe6fbef0	-0.2341268
167	0x3e7708a1	0.24124385
168	0xbe786590	-0.24257493
169	0xbdc56d1a	-0.0963995
170	0x3e22961f	0.15877579
171	0x3e227b00	0.15867233
172	0xbe29f8ff	-0.1659889
173	0x3e598e0d	0.21245594
174	0xbeba95c2	-0.3644238
175	0xbea59026	-0.3233654
176	0x3cc7ff01	0.024413588
177	0xbe1be9ad	-0.15225859
178	0xbeb3995a	-0.35077935
179	0x3e2edaae	0.17075607
180	0x3e0854ff	0.13313673
181	0xbe919af3	-0.2843853
182	0x3e85b669	0.2611573
183	0xbeaa7566	-0.33292693
184	0x3e20599a	0.1565918
185	0x3edccc9b	0.43124852
186	0x3e10e0c0	0.14148235
187	0x3df99859	0.12187261
188	0x3e873dfe	0.26414484
189	0xbdc84525	-0.09778813
190	0xbe85636a	-0.2605241
191	0xbdccc7cb	-0.09999045
192	0x3e853802	0.26019293
193	0x3dd052f8	0.10172075
194	0x3d708eeb	0.058730047
195	0x3e947ee1	0.2900305
196	0xbe5f01da	-0.2177805
197	0x3e497900	0.19675064
198	0xbd407f2e	-0.046996288
199	0x3e96275c	0.29326904
200	0x3e89e99e	0.26936048
201	0x3cf7f326	0.03026731
202	0xbea43352	-0.32070404
203	0xbee37914	-0.44428313
204	0x3d0e317a	0.034715153
205	0x3dd32a3f	0.10310792
206	0x3efc090d	0.49225655
207	0xbea6ce10	-0.32579088
208	0xbea489b4	-0.3213631
209	0xbe900210	-0.28126574
210	0xbea275e1	-0.3173056
211	0xbe4eb1be	-0.20184991
212	0xbd2ac515	-0.04169186
213	0x3cd6fb13	0.026242768
214	0xbe928bba	-0.28622228
215	0xbe8f8c75	-0.28036848
216	0x3e33c39d	0.1755509
217	0x3ec8c6a7	0.3921406
218	0x3e80c2e2	0.25148684
219	0x3d97d080	0.07412815
220	0xbe5dad2f	-0.21648096
221	0x3e495cdf	0.19664334
222	0x3d1a39a2	0.03765262
223	0xbe5a482a	-0.21316591
224	0x3d86a021	0.06573511
225	0x3df3fc0a	0.11913307
226	0xbd54cd26	-0.051953457
227	0xbeb9c7a7	-0.36285135
228	0xbdb0c32c	-0.08630976
229	0xbe980e6c	-0.29698503
230	0x3ea8a34d	0.3293709
231	0x3e8d523d	0.27601805
232	0x3d04d325	0.032427926
233	0x3dd84653	0.10560288
234	0x3e22bfdf	0.15893506
235	0xbecdb372	-0.40175968
236	0xbec78d7d	-0.38975134
237	0x3dbed0bc	0.09317157
238	0xbe7a65b8	-0.24452865
239	0x3e45d2e2	0.19318727
240	0xbbdd4f60	-0.006753847
241	0x3e920787	0.28521368
242	0x3ea28408	0.31741357
243	0xbe8c3a33	-0.27388152
244	0xbd991ae5	-0.07475833
245	0x3e6aa43b	0.22914211
246	0xbe49e2c0	-0.19715405
247	0xbe4dbb1f	-0.20090912
248	0x3d366065	0.044525523
249	0x3b9bc9d6	0.0047542853
250	0xbe54d075	-0.20782645
251	0xbea6ade2	-0.32554537
252	0x3e297fe9	0.165527
253	0xbeaaf266	-0.3338806
254	0xbe89bada	-0.2690037
255	0xbe46c23d	-0.19410034

weight f4 [64, 32, 3, 3]
0	0x3d0b2d6d	0.03397887
1	0x3d9000a5	0.07031373
2	0x3a7cad0e	0.0009638824
3	0x3d84c39e	0.064826235
4	0xbd3afc46	-0.045650743
5	0xbc4eb170	-0.012615547
6	0xbd0a08cb	-0.033699792
7	0xbb374004	-0.002796174
8	0xbd32eac3	-0.043680917
9	0x3d44aaeb	0.048014563
10	0x3ca99f1c	0.020705752
11	0xbd1791b5	-0.03700419
12	0x3c5787fb	0.013154979
13	0x3d23012e	0.039796047
14	0xbb9b143c	-0.0047326367
15	0xbd814368	-0.06311685
16	0xbd4bd934	-0.049767688
17	0xbcec6bfd	-0.028860087
18	0xbd0af8fb	-0.033928853
19	0xbba7dc3c	-0.0051226895
20	0x3d901539	0.07035298
21	0x3c0bd916	0.008535644
22	0xbc50aaf6	-0.012736073
23	0x3cbbc9c5	0.02292336
24	0x3c614be3	0.013751003
25	0x3c56ed2d	0.013118071
26	0x3d2fb654	0.04289849
27	0x399b6c32	0.00029644516
28	0xbd231beb	-0.039821547
29	0x3d00bd03	0.031430256
30	0xbc00bcc3	-0.007857504
31	0xbd3e28da	-0.046425678
32	0xbc93d827	-0.018047405
33	0xbbf2990b	-0.007403498
34	0x3cf43a31	0.029812904
35	0x3d1e76d5	0.038687546
36	0xbcceaeb3	-0.025229787
37	0x3d133cbf	0.035946604
38	0x3b514896	0.0031934134
39	0x3d312983	0.04325248
40	0xbd152ee3	-0.036421668
41	0x3c922b62	0.017842952
42	0xbc0d7a6c	-0.008635145
43	0x3c94db63	0.018171018
44	0x3d177341	0.03697515
45	0xbd4d804e	-0.05017119
46	0xbcab08ea	-0.020878274
47	0xbcd26324	-0.02568204
48	0xbd0b350c	-0.033986136
49	0x3b951c63	0.004550503
50	0xbaa24677	-0.0012380619
51	0x3d632a42	0.055460222
52	0x3d8b85a0	0.06812596
53	0x3d3b60ad	0.045746494
54	0x3c9b82b2	0.018983219
55	0x3bdabdf3	0.0066754757
56	0x3d484f9d	0.04890405
57	0xbaf4e347	-0.0018683457
58	0x3d1bb8cb	0.03801803
59	0xbd2142cd	-0.039370347
60	0x3d6e8edd	0.058241714
61	0xbc463d4e	-0.012099577
62	0x3d5311a3	0.05153049
63	0xbc220513	-0.009888905
64	0xba482f70	-0.0007636463
65	0xbce2dad6	-0.02769224
66	0x3ccdbecd	0.025115395
67	0xbcf726d6	-0.030169886
68	0xbd52c33b	-0.051455718
69	0xbb962504	-0.0045820493
70	0x3d3797d9	0.044822548
71	0xbd30f4eb	-0.043202322
72	0x3bd4ed71	0.006498032
73	0xbd50b31d	-0.050952066
74	0x3d0301f7	0.031984296
75	0xbd887019	-0.06662006
76	0x3c350f04	0.011050943
77	0xbc8829cf	-0.016621498
78	0xbc0a2708	-0.008432157
79	0x3ad27c2d	0.0016058736
80	0xbd432d22	-0.047650464
81	0xbd0f24b8	-0.034947127
82	0x3c13aac5	0.009012883
83	0x3d898598	0.06714934
84	0xbd4e83b6	-0.050418578
85	0x3c4fd1de	0.012684314
86	0xbc068706	-0.008210903
87	0xbd68a4bb	-0.056797724
88	0x3c9119d5	0.017712513
89	0xbd16d3ad	-0.036822964
90	0x3bf19a9e	0.007373168
91	0x3c6c7315	0.014431735
92	0xbbb2174b	-0.0054349056
93	0xbb1b1052	-0.002366085
94	0xbd35a331	-0.044345085
95	0x3c64682e	0.013940854
96	0x3d8889d8	0.066669166
97	0xbd056f93	-0.03257711
98	0x3cdcbaac	0.02694448
99	0x3c958a36	0.01825438
100	0xbc841908	-0.016125217
101	0x3c68c239	0.014206463
102	0xbd5299c0	-0.05141616
103	0x3d496df3	0.04917712
104	0xbd5499a6	-0.051904343
105	0xbcbce5d3	-0.023058807
106	0xbd03dbd8	-0.03219208
107	0x3b58b539	0.0033067001
108	0x3cbf4eea	0.023353059
109	0x3b3f45c7	0.0029185878
110	0x3cc47cf7	0.02398537
111	0x3d55daa0	0.05221045
112	0x3d81c52d	0.063364364
113	0xbc8d948f	-0.017282752
114	0x3d8338d5	0.06407324
115	0x3d588b49	0.052867208
116	0x3d6d3431	0.0579111
117	0xba0063e4	-0.00048976974
118	0x3b8788f1	0.0041361977
119	0x3d067943	0.032830488
120	0xbc5be292	-0.013420718
121	0xbc069c0e	-0.008215917
122	0x3be487c2	0.0069741914
123	0xbd37f8e7	-0.044915106
124	0x3cc4b8fc	0.024013989
125	0xbd0c69c7	-0.034280565
126	0x3d1ff228	0.039049298
127	0xbd62d281	-0.055376533
128	0x3cd21430	0.025644392
129	0x3d2fffe3	0.042968642
130	0xbd467667	-0.04845276
131	0x3d376d24	0.04478182
132	0xbd59bf1d	-0.053160775
133	0xbd176660	-0.036962867
134	0x391971d0	0.00014633616
135	0x3c4ed7e1	0.012624712
136	0x3c85fbe9	0.016355472
137	0xbd3a958a	-0.045552768
138	0x3c9773c5	0.01848782
139	0x3d697e93	0.057005476
140	0xbc938dad	-0.018011892
141	0x3d1830ce	0.03715592
142	0xbd1fc403	-0.03900529
143	0xbd6b2291	-0.057406012
144	0xbcbc9487	-0.023020042
145	0xbcc24d62	-0.02371854
146	0x3c85555b	0.016276052
147	0xbcf67060	-0.030082881
148	0xbc9b4e57	-0.018958254
149	0x3d0dc097	0.034607496
150	0xbcaf937f	-0.021432636
151	0x3d32e395	0.04367407
152	0x3d648b8b	0.05579714
153	0x3d46cfda	0.048538066
154	0x3c8ca1b5	0.017166952
155	0xbd1ce646	-0.038305543
156	0xbd5eca45	-0.054392118
157	0x3d0d5a85	0.034510154
158	0xbd810070	-0.062989116
159	0x3d319593	0.043355536
160	0xbd0d7d81	-0.034543518
161	0xbd890c6a	-0.06691821
162	0xbd3f506d	-0.04670756
163	0xba8c1a76	-0.0010689038
164	0xbcad9c80	-0.02119279
165	0x3c704b53	0.014666396
166	0x3c8e0d24	0.01734025
167	0x3c9d227c	0.019181482
168	0xbd16ed1e	-0.036847226
169	0x3d0bea2a	0.034158863
170	0x3c06d9fb	0.0082306815
171	0xbcc7265c	-0.024310283
172	0x3cc29789	0.023753898
173	0xbcbacb9b	-0.022802165
174	0x3d15ea30	0.03660029
175	0xbca20b96	-0.019780915
176	0xbcdad162	-0.02671117
177	0x3bbb1bde	0.005710109
178	0x3c9ccbba	0.019140113
179	0x3d730c0d	0.059337664
180	0xba00e516	-0.0004916949
181	0x3ca23ba5	0.019803831
182	0x3d91742c	0.07102236
183	0xbc902454	-0.017595448
184	0xbd719c85	-0.05898716
185	0x3d1081b2	0.035279937
186	0xbced102b	-0.028938374
187	0x3d08dae7	0.033411887
188	0x3dc137a5	0.094344415
189	0x3c917865	0.017757604
190	0xbd66f80e	-0.056388907
191	0x3ba4a473	0.0050244867
192	0x3c9f5765	0.019450853
193	0xbcf56372	-0.029954646
194	0xbb06f258	-0.0020591225
195	0xbcc8d62a	-0.024516184
196	0xbaa48600	-0.0012552142
197	0xbccc411e	-0.024933394
198	0xbb8663f2	-0.00410127
199	0xbc104d14	-0.008807439
200	0x3d690c03	0.05689622
201	0xbd81b640	-0.063335896
202	0x3d7a645d	0.06113087
203	0xbd0284dd	-0.03186499
204	0xbd195645	-0.03743579
205	0xbb4e5428	-0.0031483267
206	0xb99fbf16	-0.00030469213
207	0x3b141fe1	0.002260201
208	0xbca930e8	-0.020653203
209	0x3d473165	0.04863109
210	0xbd0c6bad	-0.034282375
211	0x3c1f4e73	0.009723294
212	0x3a2f8833	0.00066960155
213	0xbc2e6a35	-0.010645439
214	0x3cadea65	0.021229932
215	0xbc955b3c	-0.01823198
216	0xbcd8bb57	-0.026456518
217	0x3d250369	0.040286455
218	0x3c874b33	0.01651535
219	0xbcabb458	-0.020960018
220	0x3d0c65aa	0.034276642
221	0x3c8c76c2	0.017146472
222	0xbc86d9d8	-0.016461298
223	0xbd050292	-0.032473154
224	0x3c275bd6	0.0102147665
225	0x3ca308cc	0.019901656
226	0x3c870ad3	0.016484654
227	0xbd1212ab	-0.035662334
228	0xbc790a01	-0.015200139
229	0xbd1f93aa	-0.038959183
230	0x3ce0769a	0.027400304
231	0x3d26ca04	0.04072
232	0x3d4001e9	0.04687682
233	0x3c1c628d	0.009544981
234	0xbd853237	-0.06503718
235	0xbd19f358	-0.037585586
236	0xbd41dc3f	-0.047329184
237	0x3cd43ab2	0.025906894
238	0xbd56c47d	-0.05243348
239	0xbd584ea0	-0.052809358
240	0x3d4e35ab	0.05034415
241	0x3cc921f5	0.024552325
242	0x3d39acce	0.045330815
243	0x3d43e331	0.04782409
244	0xbbb1ea6e	-0.0054295575
245	0x3ce2f986	0.027706873
246	0xbc754ac1	-0.014971436
247	0x3c5939f8	0.01325845
248	0xbd190b91	-0.037364546
249	0x3cff1f7a	0.031142939
250	0xbc9d3066	-0.019188117
251	0x3ceb8828	0.028751448
252	0xbd0e6175	-0.03476091
253	0x3ce068b0	0.027393669
254	0x3d1dd123	0.038529526
255	0x3d325259	0.043535564

weight f4 [128, 64, 3, 3]
0	0xb8d27665	-0.00010035633
1	0xbc4866d2	-0.0122315455
2	0xbc5a0d5e	-0.013308851
3	0xbd1bc9b1	-0.038034145
4	0xbb5c0ac2	-0.0033575748
5	0xbd218ef2	-0.039442964
6	0x3a410d51	0.000736435
7	0x3d13403b	0.035949927
8	0xbd3add00	-0.04562092
9	0xbcc9fcd5	-0.024656693
10	0xbd293d5e	-0.04131829
11	0xbc9287a0	-0.017886937
12	0xbd1d3608	-0.038381606
13	0xbd0c4af4	-0.03425117
14	0xbd1b0c7e	-0.03785371
15	0x3c948a5c	0.018132381
16	0x3a4347f0	0.0007449379
17	0xbbc89281	-0.0061209803
18	0xbc062595	-0.008187671
19	0x3b660a90	0.003510151
20	0x3c149aac	0.00907008
21	0xbd048c67	-0.03236046
22	0xbd272efc	-0.040816292
23	0x3b778ce4	0.0037773186
24	0x3c68c7f6	0.014207831
25	0x3c91528f	0.017739562
26	0xbbba8c1d	-0.0056929723
27	0xbce163b2	-0.027513359
28	0x3d2b276f	0.041785654
29	0xbbc6406f	-0.0060501616
30	0xbcbf25a8	-0.023333386
31	0xbd09aa65	-0.033609767
32	0xbd010eef	-0.031508382
33	0x3b8bd1ed	0.0042669685
34	0xbc3dde22	-0.011588605
35	0xbcbedd71	-0.02329895
36	0x3cfa68f8	0.030567631
37	0xbbfa79a4	-0.007643895
38	0xbb3245fc	-0.0027202358
39	0x3c5d38f6	0.01350235
40	0xbc12632f	-0.00893478
41	0xbd215dd4	-0.039396122
42	0x3b96dbac	0.0046038236
43	0xbc8e3456	-0.01735894
44	0xbbec3be9	-0.0072092903
45	0xbd2f9543	-0.042866956
46	0xbbfa39c2	-0.00763628
47	0xbb1d1e91	-0.0023974518
48	0xbd249cf3	-0.04018874
49	0x3c0ec541	0.008714021
50	0xbba608c0	-0.005066961
51	0xbb8ed9f7	-0.0043594795
52	0xbbf350a0	-0.0074253827
53	0xbc818fb0	-0.015815586
54	0x3c1ea420	0.009682685
55	0x3c590ebb	0.013248141
56	0x3c71fe38	0.014770083
57	0x3d160eb6	0.036635123
58	0xbca78f6f	-0.020454137
59	0xbd100ab4	-0.035166457
60	0xbd088d46	-0.033337854
61	0xb9f50885	-0.0004673639
62	0xbcbd899c	-0.023136906
63	0x3d00e453	0.031467747
64	0x3d068a99	0.03284702
65	0x3c23d8b9	0.010000401
66	0xbcd4fa69	-0.025998311
67	0xbd1c6d3a	-0.038190104
68	0x3cf2d401	0.029642107
69	0x3b5da3cc	0.0033819554
70	0xbcbbf64e	-0.022944596
71	0x3a827c23	0.0009955209
72	0x3d1bcfbf	0.03803992
73	0xbb3ee185	-0.002912612
74	0x3cfb1cec	0.03065344
75	0xbcfcd25b	-0.030862024
76	0x3d0d9d43	0.034573805
77	0xbb82c9e9	-0.0039913547
78	0xbd082ca6	-0.033245705
79	0x3c5e98ae	0.013586206
80	0x3ce3611a	0.027756263
81	0x3d105e6c	0.035246298
82	0xbd164521	-0.03668702
83	0x3cd26992	0.025685105
84	0xbd1c63c1	-0.03818107
85	0xbd09acdb	-0.033612113
86	0x3cc119dc	0.023571901
87	0xbc273e0a	-0.010207662
88	0x3ce937cb	0.028468987
89	0xbcd3f3a2	-0.02587301
90	0xbae77319	-0.0017658203
91	0xbc65caed	-0.014025432
92	0xbc60683b	-0.0136967255
93	0x3d304f80	0.043044567
94	0xbd1175ee	-0.035512857
95	0xbcfdee5f	-0.030997453
96	0xbd064b44	-0.032786623
97	0xbcfe0ec6	-0.031012904
98	0x3c8971ba	0.016777862
99	0x3cbca295	0.023026744
100	0xba6e2e35	-0.0009085865
101	0x3d26ce52	0.040724106
102	0x3caf486f	0.021396844
103	0xbcc33a18	-0.023831412
104	0x3d384f2e	0.044997387
105	0xbb67ae24	-0.0035351599
106	0xbd188702	-0.03723813
107	0x3a9c2a75	0.0011914509
108	0xbbccf59e	-0.006254866
109	0xbcddecdb	-0.02709048
110	0xbd0169f7	-0.031595197
111	0x3ce1ab0f	0.027547387
112	0x3c0b93b4	0.008519102
113	0xbc87e683	-0.016589409
114	0x3d1365b9	0.035985682
115	0x3cf4524e	0.029824402
116	0xbcfcf9b6	-0.03088079
117	0x3ca8244d	0.020525122
118	0xbaafe270	-0.0013418924
119	0xbca40f40	-0.020026803
120	0x3ca07db6	0.019591194
121	0xbbff3f29	-0.0077895117
122	0x3cd41585	0.025889168
123	0x3d275abd	0.04085802
124	0xbbaa1a83	-0.0051911487
125	0x3d414d9a	0.047193147
126	0xb92850d2	-0.00016051836
127	0x3ca16d20	0.019705355
128	0x39ecf8e9	0.0004519888
129	0xba3c2ec0	-0.0007178597
130	0xbcc9a9e2	-0.02461714
131	0x3cc122bc	0.023576133
132	0x3cee1ff3	0.029067969
133	0x3b5fe8c4	0.0034165839
134	0xbc8ec5cb	-0.0174283
135	0xbcab81db	-0.020935943
136	0x3d264d42	0.040601023
137	0x39fd5ca3	0.0004832494
138	0xbc52fc53	-0.012877542
139	0xbcc2d7a0	-0.023784459
140	0xbc2541e7	-0.010086513
141	0x3cf30c02	0.029668812
142	0x3be5e874	0.007016236
143	0x3d14e0c2	0.03634716
144	0x3c20e2ac	0.009819668
145	0x3bcafb8c	0.0061945375
146	0xbc41215d	-0.01178774
147	0x3d1bb8fb	0.038018208
148	0xbcc6e3a7	-0.024278475
149	0x3d28bd6f	0.041196283
150	0x3c8ae773	0.016956067
151	0xbb26eaeb	-0.0025469612
152	0xbc87b323	-0.016564911
153	0x3c6ef4c4	0.014584724
154	0x3d270ed0	0.04078561
155	0x3d24f96e	0.040276937
156	0x3cda4149	0.026642459
157	0xbc790ef3	-0.015201318
158	0xbcf928b1	-0.030414911
159	0x3d2bea80	0.041971684
160	0x3c359ed1	0.011085228
161	0x3cd752ca	0.026284594
162	0xbcff767a	-0.031184424
163	0x3cadd680	0.021220446
164	0xbcaedf03	-0.021346575
165	0x3cb966f1	0.022632094
166	0x3b9887f5	0.004654879
167	0x3cfae592	0.030627046
168	0xbca9c09a	-0.020721722
169	0x3d0661b9	0.03280804
170	0x3c7419d6	0.014898738
171	0xbc3fe36d	-0.011711937
172	0x3c1f83f8	0.009736054
173	0xbae8aba5	-0.0017751349
174	0x3cf082ba	0.02935921
175	0x3c94ad8a	0.018149156
176	0xbc0297ff	-0.007970809
177	0x3d3498a7	0.044090893
178	0xbc655328	-0.013996877
179	0xbc9b76fc	-0.018977635
180	0x3c78e628	0.015191592
181	0x3b5524c0	0.0032523125
182	0xbcefe187	-0.029282345
183	0x3cc007c0	0.023441195
184	0xbceb43d0	-0.028718859
185	0x3d232dbf	0.03983855
186	0x3d16941b	0.036762338
187	0xbb51999e	-0.0031982432
188	0x3c0aa504	0.008462194
189	0xbcd8623c	-0.02641403
190	0xbd25a5f1	-0.040441457
191	0xbc991db9	-0.01869093
192	0xbc5aafae	-0.013347549
193	0xbd1a1e87	-0.03762677
194	0xbd0be11e	-0.034150235
195	0xbce79847	-0.028270854
196	0x3ba46e87	0.0050180587
197	0xbd0aab99	-0.033855055
198	0xbd0345a2	-0.03204883
199	0x3bca922e	0.0061819768
200	0xbc361aa9	-0.011114755
201	0x3d0ab29a	0.033861734
202	0x3cc0d587	0.023539318
203	0xbccb3cc2	-0.024809245
204	0xbcc5887f	-0.024112938
205	0x3cf0b0ad	0.02938112
206	0x3d1bb801	0.038017277
207	0x3d2e36b5	0.04253264
208	0xbcc5feb0	-0.024169296
209	0x3cf4373a	0.02981149
210	0x3c937ae7	0.01800294
211	0x3cc16e6d	0.023612225
212	0xbc8adc9b	-0.016950896
213	0x3c731b5c	0.014838066
214	0x3c7c3f08	0.015395887
215	0xbc8683f6	-0.016420346
216	0xbbcee91a	-0.006314409
217	0x397eebee	0.00024311218
218	0x3c01ee79	0.0079303915
219	0x3ce8655a	0.02836864
220	0x3ca881b4	0.02056966
221	0x3c2d32d3	0.0105711995
222	0x3bd56e65	0.006513404
223	0x3d3eb10e	0.04655557
224	0xbd3ed000	-0.046585083
225	0xbbf05121	-0.00733389
226	0xbcda6037	-0.026657207
227	0x3d4157d0	0.047202885
228	0x3d036e4d	0.032087613
229	0x3d4dc3e0	0.05023563
230	0xbcd547ab	-0.02603515
231	0x3bbd0e6b	0.005769541
232	0xbc1ebe2a	-0.009688893
233	0xbc5b2f50	-0.013377979
234	0x3d087779	0.033317063
235	0x3bb5aadd	0.00554405
236	0xbc7b1849	-0.015325614
237	0xbc342e36	-0.010997346
238	0xbb4c8351	-0.00312062
239	0x3a8557f1	0.0010173303
240	0xbcc0cadb	-0.023534229
241	0xbc489bc0	-0.012244165
242	0xbd1b6b04	-0.037943855
243	0xbcf62c0c	-0.0300503
244	0xbc9bc0c7	-0.019012822
245	0x3d303570	0.043019712
246	0x3c9bf0b6	0.019035678
247	0x3bc8e355	0.0061306157
248	0xbccae2a0	-0.024766266
249	0x3c00b853	0.007856446
250	0xbc0c33ca	-0.008557269
251	0xbb10f009	-0.0022115728
252	0xbc2dc7d2	-0.010606723
253	0x3d326812	0.04355628
254	0x3c1a0ccd	0.009402466
255	0xbcf74b11	-0.030187162

weight f4 [32, 128, 1, 1]
0	0x3d8ab7fd	0.06773374
1	0xbd0df31c	-0.034655675
2	0x3dab9763	0.08378484
3	0xbd560798	-0.052253336
4	0xbd8f3fac	-0.06994566
5	0x3c2cd9cf	0.0105499765
6	0xbc61ad6d	-0.013774258
7	0x3d87d9f2	0.06633367
8	0xbd959598	-0.07303923
9	0xbd8bab87	-0.068198256
10	0x3b37d6fc	0.0028051725
11	0x3d531322	0.05153192
12	0xbd84e83d	-0.064896084
13	0x3ce94a16	0.02847771
14	0x3d7b76a0	0.061392426
15	0x3d703247	0.0586417
16	0x3d8019ca	0.06254919
17	0xbd3b047e	-0.04565858
18	0xbcc77d37	-0.0243517
19	0x3c8d42e4	0.01724381
20	0xbcafbbda	-0.02145188
21	0xbda15b64	-0.078787595
22	0x3c424957	0.011858306
23	0xbc45815e	-0.012054769
24	0xbd1adf18	-0.037810415
25	0xbdaaa1ea	-0.08331664
26	0x3bcd4c79	0.0062652198
27	0xbcfa1060	-0.030525386
28	0x3c383fc8	0.011245675
29	0xbd3b221f	-0.045686837
30	0xbd01ba00	-0.031671524
31	0x3d861192	0.0654632
32	0x3cf77563	0.030207342
33	0xbc6d03dd	-0.014466253
34	0x3d02fe38	0.031980723
35	0x3d65a939	0.056069586
36	0x3db4385c	0.08799812
37	0xbd9bfd8e	-0.07616721
38	0x3cbf334b	0.023339888
39	0x3d5d4588	0.05402139
40	0x3d72ce3f	0.059278723
41	0xbc80a40b	-0.015703222
42	0xbd3635aa	-0.04448477
43	0x3c7f543e	0.01558405
44	0x3da9bbdf	0.08287787
45	0x3ca29230	0.019845098
46	0xbc865d9a	-0.016402055
47	0x3d994012	0.074829236
48	0xbd9fc615	-0.07801453
49	0xbd9d7e82	-0.07690145
50	0x3d117e55	0.03552087
51	0x3d09fce7	0.033688452
52	0x3d9acdb0	0.07558763
53	0xbb804fe6	-0.0039157746
54	0xba9246ac	-0.0011159978
55	0xbd6a517a	-0.05720661
56	0xbd673283	-0.056444656
57	0xbc2bdfee	-0.010490401
58	0x3c02fbda	0.007994616
59	0x3d809ef1	0.06280316
60	0x3d8de35b	0.0692813
61	0x3d2983ea	0.04138557
62	0x3d84f6d0	0.06492388
63	0xbda807bc	-0.082046
64	0x3c2d80ec	0.010589819
65	0x3db2e26f	0.08734595
66	0x3d932ec4	0.07186654
67	0xbdaf7078	-0.085663736
68	0x3d757a58	0.05993113
69	0xbd68f031	-0.05686969
70	0x3d4b5ab0	0.049647033
71	0x3d463783	0.048392784
72	0x3bd7a29b	0.0065806634
73	0x3d9bd188	0.07608324
74	0x3d8f8f9f	0.070098154
75	0xbd37953e	-0.044820063
76	0xbd6473e9	-0.055774603
77	0xbd68bf81	-0.056823257
78	0x3d8acbdc	0.06777164
79	0xbd29f09b	-0.041489225
80	0x3c6d5d89	0.014487633
81	0x3bfe2533	0.0077558993
82	0x3d8e7064	0.069550306
83	0x3d1c2088	0.03811696
84	0x3cdfe63f	0.02733147
85	0x3c95836a	0.01825114
86	0x3cfee0ee	0.031113114
87	0x3be29388	0.0069145598
88	0xbaf048eb	-0.0018332278
89	0xbc824ac9	-0.015904801
90	0x3ba2036e	0.0049442565
91	0xbd4280b3	-0.04748602
92	0xbcdd0b6f	-0.026982991
93	0x3acaae48	0.0015463317
94	0xbd277aec	-0.04088871
95	0xbd360778	-0.044440717
96	0x3da0a74d	0.0784441
97	0xbc1b222c	-0.009468596
98	0x3cc05e76	0.023482542
99	0xbd672673	-0.056433152
100	0xbc0cca83	-0.008593204
101	0xbd1fbab8	-0.03899643
102	0x3bc21b4b	0.0059236637
103	0x3c6a971e	0.014318256
104	0x3d83895b	0.06422683
105	0xbb37103c	-0.002793326
106	0x3d5e4a0c	0.054269835
107	0xbd6264bc	-0.05527185
108	0xbd8ed296	-0.0697376
109	0x3bb1cdc6	0.0054261414
110	0x3b35f9ad	0.0027767227
111	0xbd064285	-0.03277828
112	0xbd4f4db4	-0.050611213
113	0x39e4726d	0.00043572803
114	0xbced5ae8	-0.028974012
115	0x3b89223c	0.0041849893
116	0xbdb46dd1	-0.08810008
117	0x3d9e1c42	0.077202335
118	0xbd89717a	-0.06711097
119	0x3d4957b4	0.049155906
120	0xbd74e3ca	-0.05978755
121	0xbc8d43c9	-0.017244237
122	0xbdb33581	-0.087504394
123	0xbd843bff	-0.06456756
124	0x3d917816	0.07102983
125	0xbd7a1316	-0.061053358
126	0x3ca114b0	0.019663185
127	0xbd66489e	-0.056221597
128	0xb9c3e99c	-0.0003736735
129	0x3d96b1df	0.07358145
130	0x3dca4bbb	0.09877726
131	0xbd4eaae0	-0.050455928
132	0xbd32568c	-0.04353957
133	0x3e1569a2	0.14591077
134	0x3d9cf58d	0.076640226
135	0xbd8bed35	-0.06832353
136	0xbdaa716a	-0.08322413
137	0x3e2ec965	0.17069013
138	0xbe5212d3	-0.20514993
139	0x3b23adf1	0.0024975503
140	0x3e348c60	0.17631674
141	0x3d5a28a0	0.0532614
142	0x3d2a62a1	0.041597966
143	0xbcf17bea	-0.029478032
144	0xbd8f8e6a	-0.07009585
145	0x3c05f935	0.008177091
146	0x3e0d5ba1	0.13804485
147	0x3d2f6dfa	0.04282949
148	0xbdba5268	-0.09097749
149	0x3bebcdef	0.00719618
150	0x3d21d875	0.03951307
151	0xbcfdb044	-0.030967839
152	0x3d898e43	0.067165874
153	0xbd0fb953	-0.03508885
154	0x3cc157c2	0.023601416
155	0x3d351286	0.04420712
156	0xbd50fc5a	-0.05102191
157	0xbbf2772d	-0.0073994608
158	0x3e32aa67	0.17447816
159	0xbd9a6474	-0.07538691
160	0xbd3b403c	-0.045715556
161	0xbd8b0861	-0.067887075
162	0x3d1dab95	0.03849371
163	0x3d14ae07	0.036298778
164	0x3d996d45	0.07491545
165	0x3d074f06	0.033034347
166	0x3dea529e	0.11441539
167	0x3d37160a	0.044698752
168	0x3d67658e	0.056493334
169	0xbd741eea	-0.059599794
170	0xbdccc14a	-0.099978045
171	0xbd231b82	-0.039821155
172	0x3da0d199	0.078524776
173	0x3e5695e2	0.20955613
174	0xbd93572f	-0.07194363
175	0x3d934833	0.07191505
176	0x3dd4ab62	0.10384251
177	0xbd01da58	-0.03170237
178	0x3dedaee5	0.11605624
179	0x3d6ff397	0.058581915
180	0xbd6456f7	-0.055747
181	0xbc2892d1	-0.01028891
182	0x3dff3163	0.12460592
183	0x3d837073	0.06417932
184	0xbd425b07	-0.04745009
185	0x3cf4f935	0.029903987
186	0xbd2ddcb5	-0.04244681
187	0xbc0a5d56	-0.008445105
188	0xbd22e1bf	-0.03976607
189	0x3daf4e26	0.085598275
190	0x3d870b6a	0.06593974
191	0x3d97f1cf	0.07419168
192	0x3d26c24b	0.040712636
193	0xbd91de72	-0.07122506
194	0x3e04cea8	0.12969458
195	0x3df54c6c	0.11977467
196	0x3ca420b4	0.020035125
197	0xbe168b21	-0.14701511
198	0x3d719ccf	0.058987435
199	0x3d8f9c9a	0.07012291
200	0x3d49e86b	0.049293917
201	0x3746a0ee	1.1839189e-05
202	0xbc4b57d2	-0.012411075
203	0x3dbf718e	0.09347831
204	0xbdc078f8	-0.09398073
205	0xbd87f97a	-0.06639381
206	0xbb2aeaf1	-0.0026079977
207	0x3d21f231	0.039537612
208	0xbdeddb44	-0.11614087
209	0xbbac9a83	-0.0052674427
210	0xbe3aea8e	-0.18253538
211	0xbcb67f75	-0.022277573
212	0xbdb90363	-0.09033849
213	0x3e4d6f2b	0.20061938
214	0xbb562f97	-0.0032682174
215	0x3d9ec3b1	0.07752169
216	0x3dda217a	0.106509164
217	0xbd2b6d0b	-0.04185204
218	0x3def1d7c	0.116755456
219	0xbcba63f3	-0.022752738
220	0xbdb08764	-0.08619574
221	0x3dd83d72	0.10558595
222	0xbd999e3e	-0.075008854
223	0x3e377fef	0.17919897
224	0x3c471ad2	0.012152391
225	0xbd010544	-0.031499162
226	0x3bebd3a6	0.0071968613
227	0x3b95c3da	0.0045704665
228	0x3d244a4a	0.04010991
229	0x3df96abd	0.12178562
230	0xbc5a6763	-0.013330313
231	0xbd31b1f9	-0.04338262
232	0xbd6e522f	-0.058183845
233	0x3e0d0066	0.13769683
234	0xbdedf125	-0.1161826
235	0x3c0edad1	0.008719162
236	0x3d09e7a6	0.033668183
237	0xbc484f8e	-0.012225999
238	0x3da5cb20	0.08095384
239	0x3d76754f	0.060170468
240	0xbd0526f3	-0.032507848
241	0xbd11f503	-0.035634052
242	0x3d03b3d7	0.03215393
243	0x3c484894	0.012224335
244	0x3d720609	0.059087787
245	0xbd31ff89	-0.043456588
246	0x3d200a68	0.039072424
247	0x3d9fd6b6	0.07804625
248	0xbd1f5020	-0.038894773
249	0xbc90b636	-0.01766501
250	0xbd2b19b4	-0.04177256
251	0xbccb4713	-0.024814164
252	0xbd925292	-0.07144655
253	0x3bfd3550	0.0077273026
254	0xbc76bf7d	-0.015060303
255	0x3c3d03cd	0.011536551

weight f4 [64, 32, 3, 3]
0	0xbd4c5ad3	-0.049891304
1	0x3c91ddd7	0.017805977
2	0xbd2067dc	-0.039161548
3	0xbbc01bc6	-0.005862686
4	0xbd465a94	-0.048426226
5	0xbd5d5d64	-0.054044142
6	0x3d2e9739	0.042624686
7	0x3c4eecfe	0.0126297455
8	0xbd2ea32b	-0.042636078
9	0x3da6a671	0.08137215
10	0xbdf3f7c6	-0.119124934
11	0xbda7d2b7	-0.081944875
12	0x3dc66cc8	0.09688717
13	0xbd996f45	-0.07491926
14	0x3d84323a	0.064548925
15	0x3d729313	0.059222292
16	0x3cf82d17	0.030294938
17	0x3db0c732	0.086317435
18	0x3cacfc05	0.021116266
19	0x3cf102a2	0.0294202
20	0xbd163d87	-0.03667977
21	0x3d61e2fe	0.055148117
22	0xbd2f21ad	-0.042756725
23	0x3ce84cab	0.02835687
24	0xbcf0214f	-0.029312758
25	0xbd86d159	-0.06582899
26	0x3d2279b6	0.039666854
27	0x3d3418cf	0.04396897
28	0xbda96a69	-0.08272249
29	0xbd9a8356	-0.075445816
30	0x3d83ba24	0.06431988
31	0xbd2442a4	-0.040102616
32	0xbce62866	-0.028095435
33	0x3d1bf16d	0.03807204
34	0x3d01a5c5	0.03165223
35	0x3db06d50	0.086146
36	0x3c33bca7	0.010970271
37	0x3cb55918	0.02213721
38	0x3d451601	0.048116688
39	0x3d1ae03e	0.03781151
40	0xbd67a72d	-0.056555916
41	0x3b45eeb3	0.003020209
42	0xbd7423f7	-0.05960461
43	0xbcb841fe	-0.022492405
44	0x3d703723	0.058646332
45	0xbd1a4762	-0.037665732
46	0xbd182c6a	-0.03715173
47	0xbcd662aa	-0.026170094
48	0x3d11bb21	0.03557885
49	0x3d864593	0.06556239
50	0x3cedc197	0.029022975
51	0xbcc113b7	-0.023568971
52	0xbc6c22c4	-0.014412586
53	0x3d315491	0.04329354
54	0xbc2769e7	-0.01021812
55	0x3cf5565c	0.029948406
56	0x3d179c45	0.037014265
57	0xbd0cd5a3	-0.034383427
58	0xbc4c86f6	-0.012483349
59	0x3c27f034	0.01025014
60	0xbaf0cc86	-0.00183715
61	0x3ccb4052	0.024810944
62	0x3b926520	0.0044676214
63	0x3d0afc71	0.033932153
64	0x3ce4c3c4	0.02792538
65	0xbce20275	-0.027589062
66	0xb9a834c4	-0.0003208277
67	0xbd7142f9	-0.05890176
68	0xbd780877	-0.060554948
69	0x3cb1a445	0.021684775
70	0xbbf87289	-0.007582013
71	0xbd0f9252	-0.03505165
72	0x3b65b543	0.0035050667
73	0xbda779db	-0.08177539
74	0xbd43ad43	-0.047772657
75	0x3b9bc789	0.004754011
76	0xbd40a535	-0.047032554
77	0xbc938f67	-0.018012716
78	0x3a7b7621	0.0009592493
79	0xbd5116a8	-0.051046997
80	0x3cc6ec24	0.024282522
81	0xbc5a8063	-0.013336274
82	0x3b852c6c	0.0040641334
83	0x3d3001b3	0.04297037
84	0x3c2dffba	0.010620052
85	0x3ae91d51	0.0017785226
86	0x3cdbf51c	0.026850276
87	0x3cda7077	0.026664956
88	0xbd2bd00f	-0.041946467
89	0xbd54d5c1	-0.051961664
90	0x3d43d43c	0.047809824
91	0xbbe7eca0	-0.0070777684
92	0xbd17f0f5	-0.03709503
93	0x3d634a52	0.0554908
94	0xbd613c09	-0.054988895
95	0x3d1c67d8	0.03818497
96	0x3d7bebd7	0.06150421
97	0x3ce738c6	0.028225314
98	0x3d6fe9b8	0.0585725
99	0x3d550533	0.05200691
100	0x3cafcf39	0.021461116
101	0xbc91dc84	-0.017805345
102	0x3cb75431	0.022379013
103	0xbc763166	-0.015026426
104	0x3bee42f1	0.0072711636
105	0x3ccbbaaa	0.024869282
106	0x3cb433e6	0.021997403
107	0x3d24f5f2	0.040273614
108	0x3c6789f1	0.014132009
109	0xbd121317	-0.035662737
110	0xbb2ce781	-0.0026383104
111	0xbc900f3e	-0.017585393
112	0x3d1620d9	0.03665242
113	0xbd4eac10	-0.05045706
114	0xbb5f953b	-0.0034116048
115	0xbd5020c4	-0.050812498
116	0x3d4b18d4	0.049584225
117	0x3d83ace0	0.06429458
118	0xbc589947	-0.013220138
119	0x3c303270	0.010754213
120	0x3cf33611	0.029688867
121	0xbd245ef4	-0.040129617
122	0x3d4fec5b	0.050762516
123	0x3d901c1d	0.07036612
124	0x3c8ec546	0.017428052
125	0xbcad74c3	-0.02117384
126	0xbc0946e6	-0.00837872
127	0xbcc2f932	-0.023800466
128	0xbd0af40b	-0.033924144
129	0x3d356e7c	0.04429482
130	0xbd041ec6	-0.03225591
131	0xbd66c5d2	-0.056341
132	0x3d0d1d14	0.03445156
133	0x3d16c6b0	0.036810577
134	0xbc9d86a3	-0.019229239
135	0x3cd7909e	0.026314076
136	0xbc887b9c	-0.016660504
137	0x3b9411e1	0.004518733
138	0x3d005de3	0.031339537
139	0xbb869aa9	-0.0041077924
140	0x3d88ae88	0.06673914
141	0xbb454e8f	-0.003010664
142	0xbd9b8023	-0.075927995
143	0xbccf6479	-0.025316464
144	0xbc9a2f72	-0.018821452
145	0xbc936127	-0.017990662
146	0xbd6140e6	-0.054993533
147	0xbc355309	-0.01106716
148	0xbc1ad63f	-0.009450494
149	0xbd7ae4a7	-0.061253216
150	0x3cc8296c	0.024433814
151	0xbce655fd	-0.028117174
152	0x3d44ed76	0.048078023
153	0xbd5e08b8	-0.054207534
154	0xbca03beb	-0.019559821
155	0xbc25a496	-0.010110041
156	0xbd3f00c6	-0.046631597
157	0x3c3d4aca	0.011553476
158	0x3d044a3f	0.03229737
159	0xbd052e40	-0.03251481
160	0xbd086d36	-0.033307277
161	0x3c320dd8	0.010867558
162	0x3d2251ad	0.039628673
163	0x3d31b405	0.04338457
164	0x3d68dd6f	0.0568518
165	0xbc8706ff	-0.016482828
166	0xbb9c266a	-0.0047653215
167	0x3d1587e6	0.036506556
168	0x3b1b8f8a	0.002373668
169	0x3cc60837	0.024173839
170	0x3cd0a16f	0.025467603
171	0xbd65618c	-0.05600123
172	0xbb0e0660	-0.002167128
173	0xbd151059	-0.036392543
174	0x3a8bce05	0.0010666257
175	0x3d4f83af	0.050662693
176	0xbcc4c17e	-0.024018046
177	0xbc2ef075	-0.010677447
178	0xbcd598bf	-0.026073812
179	0xbc80060d	-0.015627885
180	0x3d57ada6	0.05265584
181	0xbd8401a0	-0.064456224
182	0xbcba99c2	-0.022778396
183	0x3d07b551	0.0331319
184	0x3d4318ce	0.047631077
185	0xbc0afac9	-0.008482643
186	0xbcc2ba92	-0.023770604
187	0xbcc420d7	-0.02394144
188	0x3d709e33	0.05874462
189	0xbd1bbb62	-0.0380205
190	0xbac7e2bc	-0.0015250067
191	0x3aa1ee4a	0.0012354341
192	0xbd920d02	-0.07131387
193	0x3d1b39a0	0.037896752
194	0xbd5a956e	-0.053365164
195	0x3cc9d41c	0.024637274
196	0x3d6025dc	0.054723606
197	0x3cc0b493	0.023523604
198	0x3dacd597	0.084391765
199	0xbddeeec0	-0.10885382
200	0xbd858869	-0.06520159
201	0x3d7d34a3	0.061817776
202	0xbc9c7cc2	-0.019102458
203	0xbd7e106f	-0.06202739
204	0xbcbd9fb0	-0.023147434
205	0xbd076ef2	-0.03306479
206	0x3c93c6d3	0.018039143
207	0x3d5dc8a6	0.05414643
208	0xbd7d98fa	-0.061913468
209	0xbcbab492	-0.02279118
210	0x3d625966	0.05526104
211	0xbd0dd669	-0.034628306
212	0x3d362e9b	0.04447804
213	0xbd44fdb8	-0.048093528
214	0x3d0b6e12	0.034040518
215	0xbc9bc045	-0.01901258
216	0xbd5eb3df	-0.054370757
217	0xbc0d0b91	-0.008608715
218	0x3d1458f0	0.03621763
219	0x3d419230	0.047258556
220	0xbd4693fd	-0.048480976
221	0x3c019a87	0.007910377
222	0x3d46d345	0.048541326
223	0x3cf5f58b	0.03002431
224	0x3c396a69	0.011316874
225	0xbce3a47e	-0.027788397
226	0xbd2bff8f	-0.041991767
227	0xbc610d76	-0.0137361195
228	0xbd02e383	-0.031955253
229	0x3c43184a	0.011907646
230	0xbd6f91a7	-0.058488514
231	0xbd6db33b	-0.058032256
232	0xbd458e37	-0.04823133
233	0x3d2f67fb	0.042823773
234	0xbd3a0c38	-0.04542181
235	0xbd2ecd3a	-0.042676188
236	0xbb8702b7	-0.0041201967
237	0x3b98affe	0.004659652
238	0xbc0c02db	-0.008545603
239	0x3c8b42d0	0.016999632
240	0x3c91bf86	0.01779152
241	0x3d96013c	0.07324454
242	0x3c083791	0.008314029
243	0x3c45462b	0.012040655
244	0x3c76dd79	0.015067452
245	0xbc8a0b44	-0.016851075
246	0x3d36ac4b	0.044597905
247	0x3b2b2624	0.0026115263
248	0xbd5fde5d	-0.05465542
249	0xbc2c8798	-0.010530375
250	0x3d15d452	0.036579438
251	0xbce57624	-0.028010435
252	0x3c7c4435	0.015397121
253	0x3cc37f27	0.023864342
254	0x3b79a7e3	0.0038094453
255	0x3d67bdf0	0.056577623

weight f4 [128, 64, 3, 3]
0	0xbc219f6f	-0.009864672
1	0x3d8cf7c1	0.06883193
2	0x3d06c2f6	0.032900773
3	0xbb8db3e1	-0.0043244218
4	0x3c4f2612	0.012643354
5	0xbc08a085	-0.008339052
6	0xb9fae693	-0.00047855507
7	0xbd21aea6	-0.0394732
8	0x3c96053d	0.018313045
9	0x3caa8f92	0.020820413
10	0x3d735957	0.059411373
11	0x3bb01f93	0.0053748577
12	0xbc9e2a3b	-0.019307246
13	0x3cca9e3f	0.02473366
14	0x3bc5afea	0.0060329335
15	0x3cc86b29	0.02446516
16	0xbd12e7d2	-0.035865612
17	0x3cb2ab73	0.021810269
18	0x3bcaf2c7	0.006193492
19	0xbc82eef2	-0.015983079
20	0xbce132c4	-0.027490027
21	0xbc899ed2	-0.016799364
22	0x3c3c3b2e	0.011488719
23	0xbd0395dc	-0.03212534
24	0xbc0bce0d	-0.008533013
25	0xbb1b5f7f	-0.0023708043
26	0xbcc3e402	-0.023912434
27	0x3d2b58d3	0.041832756
28	0x3d0bd9b7	0.034143176
29	0x3d741c66	0.059597395
30	0xbd4435ab	-0.047902744
31	0x3bae15b0	0.005312644
32	0x3d82db47	0.0638948
33	0xbb888922	-0.004166738
34	0xbd19eaba	-0.03757737
35	0xbc97fa4b	-0.018551966
36	0xbd678a23	-0.05652822
37	0x3c943d10	0.018095523
38	0xbcd6d865	-0.026226232
39	0xbd2ff29f	-0.04295599
40	0x3a6e324c	0.00090864743
41	0x3bce8f92	0.006303736
42	0xbcc57957	-0.02410571
43	0xbc8c6ce3	-0.017141765
44	0xbcc533c9	-0.024072545
45	0x3c97a6f8	0.018512234
46	0x3ab18e1b	0.0013546379
47	0x3c6b6d71	0.014369355
48	0xbd135441	-0.035969023
49	0x3ce91beb	0.028455695
50	0xbcd1384d	-0.025539542
51	0xbd595041	-0.05305505
52	0xbc8218a3	-0.015880888
53	0x3d021ac9	0.031763826
54	0xb9b03897	-0.000336115
55	0x3954fa3f	0.0002031112
56	0xbc5f6a89	-0.01363624
57	0xbd11e6cd	-0.0356205
58	0xbd0eb4fc	-0.03484057
59	0xbcd1c080	-0.025604486
60	0x3d1641a7	0.036683705
61	0xbcc01b3b	-0.023450484
62	0x3c8bbe81	0.017058613
63	0x3d17eb73	0.037089776
64	0xbcefed88	-0.029288068
65	0x3d1866a2	0.037207253
66	0x3d04dc8f	0.032436904
67	0xbd114d81	-0.035474304
68	0x3c631e98	0.013862275
69	0x3d188005	0.037231464
70	0x3c6aa3f2	0.014321314
71	0x39b07352	0.00033655256
72	0xbcb55194	-0.022133626
73	0x3cb0acda	0.021566797
74	0x3d1c2d31	0.038129035
75	0xbcdf668d	-0.02727058
76	0x3d87184a	0.0659643
77	0x3b93cd96	0.0045105917
78	0xbc822270	-0.015885562
79	0x390f2500	0.00013651326
80	0xbce8b591	-0.02840689
81	0xbd064f8e	-0.032790713
82	0xbc0a3acb	-0.008436869
83	0xbce94f52	-0.028480206
84	0xbd2f2bbf	-0.04276633
85	0x3be09cac	0.0068546142
86	0xbcec7e0f	-0.028868703
87	0xbbbe5270	-0.005808167
88	0xbd152ce6	-0.03641977
89	0xbd031c2a	-0.03200928
90	0x3d580829	0.052742157
91	0x3d61bc48	0.0551112
92	0x3d13e047	0.03610256
93	0xbd31aa6d	-0.04337542
94	0x3ced708e	0.028984334
95	0xbbd02823	-0.006352441
96	0x3d9b68d7	0.07588356
97	0x3cc23572	0.023707125
98	0x3c990281	0.018677952
99	0x3c44b6a2	0.012006434
100	0xbd2fbac2	-0.042902716
101	0xbc97481e	-0.018467005
102	0xbbee4475	-0.0072713443
103	0xbd0cad42	-0.03434492
104	0x3ca01e5b	0.019545725
105	0xbc8919b9	-0.016735898
106	0xbd189ffe	-0.037261955
107	0xbc413604	-0.0117926635
108	0xbac5446f	-0.0015050302
109	0xbcf43912	-0.02981237
110	0xbbd3b0f8	-0.0064603053
111	0x3cbdeef4	0.02318523
112	0xbce27aba	-0.027646411
113	0xbc5b77cd	-0.013395262
114	0x3d20484b	0.039131444
115	0xbc3c2fb1	-0.01148598
116	0x3c15ae12	0.00913574
117	0xbb93b750	-0.0045079365
118	0x3d133c04	0.035945907
119	0xbd03fbe3	-0.03222264
120	0xbd1f866c	-0.038946554
121	0x3c24664b	0.010034154
122	0xbd4b1949	-0.04958466
123	0x3d8d8117	0.069093876
124	0x3d13875c	0.03601776
125	0x3cffa615	0.031207124
126	0xbcefc544	-0.029268868
127	0x3c39c423	0.011338267
128	0xbc4f917a	-0.012668962
129	0xbc2820eb	-0.0102617545
130	0xbc3ba77e	-0.0114535075
131	0x3c9cc280	0.019135714
132	0x3d21e870	0.03952831
133	0x3b49aca3	0.0030773066
134	0xbb245c2e	-0.0025079357
135	0xbd8fde5a	-0.07024832
136	0x3d2bd8ea	0.041954912
137	0x3cffee0a	0.031241436
138	0x3c90d159	0.01767795
139	0xbb99d6ee	-0.004694811
140	0x3d7f24f9	0.06229112
141	0x3cd6c170	0.026215285
142	0x3cbc406e	0.022979941
143	0xbd1d8c39	-0.038463805
144	0xbce15d16	-0.027510207
145	0xbb060ccf	-0.0020454412
146	0x3d3f31a0	0.046678185
147	0x3c8af487	0.016962303
148	0x3b373d60	0.0027960166
149	0x3d4792d8	0.048724025
150	0xbc1afe62	-0.009460064
151	0x3cd16d54	0.025564827
152	0xbcb1f3a7	-0.021722628
153	0x3ad4efcc	0.0016245781
154	0xbba069b0	-0.0048954114
155	0xbc893d92	-0.016752992
156	0xbd17085b	-0.036873203
157	0xbd146eed	-0.0362386
158	0x3cc4b875	0.024013737
159	0xbc238685	-0.009980802
160	0x3c6aaba8	0.014323153
161	0xbc8e5bc3	-0.01737774
162	0xbd490857	-0.04908022
163	0xbd4d2ace	-0.05008965
164	0xbd20ae51	-0.03922874
165	0x3cc501e4	0.024048753
166	0x3cac9497	0.021066947
167	0xbd2b6c65	-0.04185142
168	0xbd315a2d	-0.04329889
169	0x3d160533	0.036626052
170	0x3b56e45d	0.0032789924
171	0x3ba9c7af	0.005181275
172	0x3c07dfbf	0.008293091
173	0xbcbfdc5c	-0.023420505
174	0xbd0cd2ec	-0.03438084
175	0x3c86efda	0.016471792
176	0x3d6a2dc9	0.05717257
177	0xbd0c8fa8	-0.03431669
178	0xbc001052	-0.007816391
179	0xbd39ff2e	-0.045409374
180	0xbc49760b	-0.01229621
181	0xbcbd5b12	-0.023114715
182	0x3b3c6c70	0.0028751157
183	0xbc94c05e	-0.018158134
184	0x3be6eb7a	0.007047114
185	0xbbf133b5	-0.0073609003
186	0xbc1d7239	-0.009609752
187	0x3c110c0a	0.008852968
188	0xbcddc05a	-0.02706926
189	0xbcbabbcc	-0.022794627
190	0xbc9b9b29	-0.018994885
191	0xbd04edac	-0.032453224
192	0xbd9f97dc	-0.07792637
193	0xbcf71c18	-0.030164763
194	0x3d17aff3	0.037033033
195	0xbcf75627	-0.030192448
196	0xbc8dbfb0	-0.017303318
197	0xbc3f1c11	-0.011664406
198	0xbcc0b679	-0.02352451
199	0x3bb8c3ac	0.0056385603
200	0x3c6c2c38	0.014414839
201	0x3c3c0c95	0.011477609
202	0xbd249ea2	-0.040190347
203	0xbc8aeb32	-0.016957853
204	0x3c3c3aaa	0.011488596
205	0xbca845ab	-0.020541033
206	0x3bee57f8	0.0072736703
207	0xbd45cfdb	-0.04829393
208	0xbc8ba247	-0.017045153
209	0x3c86c60a	0.016451854
210	0xbc30bad4	-0.010786731
211	0x3cac4d00	0.02103281
212	0xbc54caf2	-0.012987839
213	0xbd0e4339	-0.034732077
214	0xbca0f973	-0.019650197
215	0x3c8b7f63	0.017028516
216	0x3c906a8c	0.01762893
217	0xbd065539	-0.03279612
218	0x3cb66866	0.022266578
219	0xbc8c35cc	-0.017115496
220	0x3d15a705	0.036536235
221	0xbca9e782	-0.020740274
222	0xbd0a8bf0	-0.03382486
223	0xbd60ff6a	-0.05493108
224	0xbd593b3e	-0.053035013
225	0x3cc25cc5	0.023725877
226	0xb78004b0	-1.5260972e-05
227	0x3cf87108	0.030327335
228	0xbd208224	-0.03918661
229	0xbcae47c6	-0.021274459
230	0x3d82eb5a	0.06392546
231	0xbd1a9681	-0.037741188
232	0xbd1ddbfc	-0.03853987
233	0x3bd6132e	0.006533048
234	0x3d865d04	0.0656071
235	0xbd7f6102	-0.062348373
236	0xbcad2c84	-0.02113939
237	0xbc0ed50e	-0.008717788
238	0xbd13c143	-0.03607298
239	0xbcd6914a	-0.026192326
240	0xbc844e40	-0.016150594
241	0x3c3079b6	0.010771206
242	0x3d01397f	0.031548973
243	0xbd822cc7	-0.06356197
244	0x3cbdbc3e	0.02316105
245	0xbc2277d2	-0.009916263
246	0xbd10bd6c	-0.035336897
247	0x3c4fa6db	0.012674059
248	0x3b4027c3	0.0029320575
249	0x3bb41055	0.005495111
250	0xbccd1e0b	-0.02503874
251	0x3c44a493	0.012002128
252	0xbcc142a8	-0.023591354
253	0x3b858503	0.004074694
254	0x3bc0ee44	0.0058877785
255	0x3ce0f550	0.027460724

weight f4 [10, 128, 1, 1]
0	0x3d063a16	0.03277024
1	0xbcd01095	-0.025398532
2	0x3d9bcb3a	0.07607122
3	0xbdbca05f	-0.09210276
4	0xbe3255ad	-0.17415495
5	0x3d978714	0.07398811
6	0xbd298202	-0.04138375
7	0x3db8ee71	0.09029854
8	0xbe33e23a	-0.17566767
9	0x3b832393	0.0040020435
10	0x3e23805e	0.15966937
11	0xbc129ba3	-0.0089482395
12	0x3d388c8e	0.04505592
13	0x3dae4762	0.08509709
14	0x3cda2b3b	0.026631942
15	0x3c8f96db	0.017527988
16	0x3d048aa0	0.032358766
17	0xbe22dcc3	-0.15904526
18	0xbded5a4f	-0.115894906
19	0xbddee5e6	-0.108836934
20	0x3d8400dc	0.064454764
21	0x3d1fa3a1	0.038974408
22	0x3dc8a32b	0.09796747
23	0x3d976998	0.07393187
24	0xbbe79323	-0.0070671006
25	0x3e207dbc	0.15672964
26	0x3d3e2926	0.04642596
27	0x3dbf0629	0.09327347
28	0x3d0a41c1	0.033754114
29	0xbdaffd4c	-0.085932344
30	0xbd14ad0b	-0.03629784
31	0xbe26dc38	-0.16294944
32	0x3dabd629	0.08390457
33	0x3da62351	0.08112205
34	0xbeb1f175	-0.3475453
35	0xbc9ea3eb	-0.019365272
36	0xbe2c2016	-0.16809115
37	0x3e2260e5	0.15857275
38	0x3de33773	0.110945605
39	0x3d3cd89c	0.046105012
40	0xbdba863a	-0.09107633
41	0x3bd2b7bb	0.006430594
42	0xbe92b9fe	-0.28657526
43	0xbd2e0ce1	-0.04249275
44	0x3e106719	0.14101829
45	0x3daec781	0.08534146
46	0x3d78d661	0.060751323
47	0x3bab97dd	0.0052366094
48	0x3e11f784	0.14254576
49	0x3d0b12df	0.033953544
50	0xbc7c30a6	-0.015392458
51	0xbdcaa943	-0.09895565
52	0xbde71261	-0.112828024
53	0xbdba0332	-0.09082641
54	0x3be0f628	0.0068652816
55	0x3da54002	0.08068849
56	0x3de6ea14	0.112751156
57	0xbd839c89	-0.06426341
58	0x3de80313	0.11328711
59	0x3dc8db67	0.09807473
60	0xbc4e407e	-0.012588618
61	0x3d9a541b	0.07535573
62	0x3cafa33c	0.02144014
63	0xbc95e678	-0.018298373
64	0xbd726481	-0.05917788
65	0xbda52ae1	-0.08064819
66	0x3e6781ba	0.2260808
67	0x3d04310e	0.032273345
68	0x3d5a1a72	0.053247876
69	0xbe0ec8a7	-0.1394373
70	0x3e0128a6	0.12613162
71	0x3d604410	0.05475241
72	0xbd03dcb3	-0.032192897
73	0xbdf4d1a6	-0.1195405
74	0x3c621a3e	0.013800202
75	0xbd721056	-0.05909761
76	0xbe341948	-0.17587769
77	0xbd6efe36	-0.058347903
78	0x3d643415	0.05571373
79	0xbdaf6e32	-0.0856594
80	0x3d834bc4	0.064109355
81	0xbd8f8b5c	-0.070090026
82	0x3e3f9e0d	0.18712635
83	0xbc990d3b	-0.018683067
84	0x3b842aa6	0.0040334044
85	0xbd5fc181	-0.0546279
86	0x3caea59f	0.021319209
87	0xbdc6d50a	-0.09708603
88	0xbd8dfe02	-0.06933214
89	0xbdba52bc	-0.090978116
90	0xbd757472	-0.059925504
91	0x3d9cb92e	0.07652508
92	0x3dc913fb	0.09818264
93	0xbe164818	-0.14675939
94	0xbcb3c45e	-0.021944221
95	0x3e5ad14d	0.21368904
96	0x3d50d913	0.050988268
97	0x3d0847b5	0.03327151
98	0x3e0145e0	0.12624311
99	0xbcec5fd3	-0.028854286
100	0xbd48dfa4	-0.049041405
101	0x3c8540d6	0.016266268
102	0xbe2adfce	-0.16686937
103	0x3c4c4de9	0.012469747
104	0xbbe3ed3b	-0.0069557703
105	0x3c27ee16	0.010249635
106	0x3dc040e2	0.093873754
107	0xbd66eb66	-0.056376837
108	0x3db428a7	0.08796816
109	0x3dfd5577	0.12369817
110	0x3e2dd6a4	0.1697641
111	0xbc86e60a	-0.016467113
112	0x3e081328	0.13288558
113	0xbe094850	-0.13406491
114	0xbd992178	-0.07477087
115	0x3cbfa741	0.023395183
116	0xbe1d3c05	-0.15354927
117	0x3e15611d	0.14587827
118	0x3dc83da0	0.09777379
119	0xbe818cb6	-0.25302666
120	0x3d82a2aa	0.06378682
121	0x3b7f0523	0.0038912974
122	0x3daf4165	0.08557395
123	0xbc760f65	-0.015018319
124	0xbdbd7882	-0.09251501
125	0xbdaa8582	-0.08326246
126	0x3a08ae41	0.0005213954
127	0xbd974c1a	-0.07387562
128	0xbd2777f9	-0.0408859
129	0x3db8395b	0.08995315
130	0x3e07bb40	0.13255024
131	0x3e1a03d9	0.1504053
132	0x3c5d128d	0.013493192
133	0x3c650dee	0.013980372
134	0xbdb00da1	-0.085963495
135	0xbd85700f	-0.06515514
136	0xbda5a311	-0.08087743
137	0xbd74ad20	-0.059735417
138	0xbd83e32c	-0.06439814
139	0x3d2724ab	0.040806454
140	0x3e82dd87	0.25559637
141	0x3c7ed890	0.015554562
142	0xbc32a1d6	-0.0109028425
143	0xbe8e608e	-0.2780804
144	0x3c116653	0.008874494
145	0xbce8dc9b	-0.028425505
146	0x3d42ef51	0.04759151
147	0x3da09d45	0.07842497
148	0x3d50d076	0.050980054
149	0x3e4e1701	0.20125963
150	0xbd674f42	-0.05647207
151	0x3ccb2948	0.024799958
152	0xbdf06a4a	-0.11739023
153	0x3b3b9be2	0.002862685
154	0xbe2c0c4a	-0.16801563
155	0xbd7b046a	-0.061283506
156	0xbd83ddb2	-0.064387694
157	0x3b7ea715	0.0038856913
158	0xbb3c6a41	-0.0028749856
159	0xbdaae2a0	-0.083440065
160	0xbde9a423	-0.1140826
161	0x3d8d585e	0.0690162
162	0x3e4fb7d4	0.20284969
163	0x3d52a4e1	0.051426772
164	0x3db5bfe3	0.0887449
165	0xbe0149e4	-0.12625843
166	0x3dbaff9f	0.09130787
167	0x3ce1fdfe	0.027586933
168	0x3bc05da4	0.005870538
169	0xbcf05c01	-0.029340746
170	0x3e19d50b	0.15022676
171	0x3e4439d7	0.19162689
172	0x3e694bb4	0.22782785
173	0xbd3665c3	-0.04453064
174	0x3e025638	0.12728202
175	0xbcb85195	-0.022499839
176	0xbe407f48	-0.18798554
177	0xbe4d88c9	-0.2007171
178	0xbd417db3	-0.047239017
179	0x3e284743	0.16433434
180	0x3df57a52	0.119862214
181	0xbc57dee7	-0.013175703
182	0x3ddfdd9e	0.10930942
183	0x3dc47947	0.09593444
184	0x3ce9e959	0.028553652
185	0xbdd98947	-0.10621887
186	0xbd904eca	-0.07046278
187	0xbe1bc6e6	-0.15212592
188	0x3d671cd0	0.056423962
189	0x3d911120	0.070833445
190	0xbde1e6b0	-0.11030328
191	0x3cb9d862	0.022686187
192	0x3c5ba904	0.013406996
193	0x3c9fa633	0.01948843
194	0x3c5c6a24	0.01345304
195	0x3ca8f54a	0.020624775
196	0xbd554584	-0.05206825
197	0xbdade247	-0.084904246
198	0xbd98da21	-0.0746348
199	0xbd21be7b	-0.039488297
200	0x3c1d1caa	0.009589354
201	0x3d3bbb29	0.045832787
202	0xbdeb4a3f	-0.11488771
203	0xbc3660e4	-0.011131499
204	0xbdb3ef2a	-0.08785851
205	0x3c3ad13b	0.0114024235
206	0xbd34912f	-0.04408377
207	0xbb80a1ae	-0.0039255237
208	0xbd8be909	-0.06831557
209	0xbdb0e4dd	-0.08637402
210	0xbcb4589f	-0.022014914
211	0xbdac1bb2	-0.0840372
212	0xbe431eba	-0.1905469
213	0x3c9b9d6b	0.018995961
214	0xbcc6acfb	-0.024252405
215	0x3c3b7134	0.011440564
216	0x3d96ccc2	0.07363273
217	0x3d1af043	0.037826788
218	0x3cd5b39d	0.026086623
219	0x3dc132df	0.09433531
220	0xbd832a9c	-0.064046115
221	0x3e1b54b1	0.15169026
222	0x3c05d150	0.00816758
223	0xbd70b322	-0.058764584
224	0xbd779fa5	-0.060454983
225	0x3dd05b41	0.10173655
226	0xbe3b9c27	-0.18321286
227	0xbcfe7fd5	-0.031066814
228	0xbe0c1db6	-0.13683209
229	0x3d84d86e	0.06486593
230	0xbded4403	-0.11585238
231	0xbda87d4f	-0.08227026
232	0xbd05aad0	-0.032633603
233	0x3dd87b2a	0.10570367
234	0xbb4fe271	-0.0031720663
235	0x3d88f148	0.06686646
236	0xbd5c7bf4	-0.05382915
237	0xbc1c0600	-0.009522915
238	0xbd2b0d0a	-0.041760482
239	0xbda98738	-0.08277744
240	0x3db17a5b	0.086659156
241	0xbaa05996	-0.001223373
242	0x3d7f3db6	0.06231471
243	0xbdd8f1b4	-0.10592976
244	0xbd4d9c05	-0.05019762
245	0x3d9b9b78	0.07598013
246	0x3e3f9092	0.18707493
247	0xbe16b7c0	-0.14718533
248	0xbd9c0417	-0.076179676
249	0x3e3a7d2e	0.18211815
250	0x3c6f2e3e	0.014598427
251	0xbd8ce56a	-0.06879695
252	0x3d9c6f28	0.07638389
253	0x3d5c7fa7	0.053832676
254	0xbd5820ea	-0.052765764
255	0x3cb84043	0.02249158
