mlruns/271458266826723899/models/m-b95ef98a6d3340a98666458bc5bc6064/artifacts/data/model.pth (torch, 67712 bytes, 36 tensors)

weight f4 [10, 1, 3, 3]
0	0x3ee7a3f4	0.45242274
1	0xbe9d1afc	-0.3068465
2	0xbddcfb4c	-0.107901186
3	0x3e75d758	0.24007928
4	0x3df7d747	0.12101608
5	0x3e3f7a02	0.18698886
6	0xbe6efef2	-0.23339441
7	0x3e2a1d29	0.16612686
8	0x3cd5d02e	0.026100244
9	0x3e6dea20	0.23233843
10	0x3df7c478	0.1209802
11	0xbe27f382	-0.16401485
12	0x3e4190e5	0.18902929
13	0xbf06a1aa	-0.5259043
14	0xbcfcb7c8	-0.030849352
15	0xbec57bd2	-0.3857103
16	0xbd301224	-0.04298605
17	0x3e8877a5	0.26653782
18	0x3d507c72	0.05089993
19	0x3ed6a45e	0.41922277
20	0x3ed16bb6	0.4090249
21	0x3d57947c	0.05263184
22	0xbe4cc59b	-0.19997256
23	0x3e38f789	0.18063177
24	0xbedd2540	-0.43192482
25	0xbe9ee027	-0.3103039
26	0xbd005007	-0.03132632
27	0xbd96ca1f	-0.0736277
28	0xbed5572b	-0.41668066
29	0xbe1674c2	-0.14692977
30	0x3d4394b8	0.04774925
31	0xbe0a61db	-0.13513891
32	0x3e982eb8	0.29723144
33	0x3e9007e0	0.28131008
34	0x3e4c83b7	0.1997212
35	0x3e168c9d	0.14702077
36	0x3ea20811	0.3164678
37	0xbdca3180	-0.098727226
38	0xbe48c2d0	-0.19605565
39	0xbd38113f	-0.044938322
40	0xbec41ee0	-0.38304806
41	0xbd355347	-0.044268873
42	0xbde6edd2	-0.112758294
43	0xbe8b05ea	-0.2715295
44	0x3e49559a	0.1966156
45	0xbe5dad49	-0.21648134
46	0x3e90c095	0.28271928
47	0x3ea2fc05	0.318329
48	0xbec5b1ce	-0.38612217
49	0xbd5ba70b	-0.0536261
50	0x3ee7de7a	0.45286924
51	0xbe0e60b4	-0.13904077
52	0xbd75ff07	-0.060057666
53	0x3e313521	0.17305423
54	0x3d88dba0	0.06682515
55	0xbd675a0e	-0.056482367
56	0x3d5482c7	0.05188253
57	0xbe9bb055	-0.30407968
58	0x3e382c55	0.17985661
59	0xbeadb7c9	-0.3392928
60	0xbe44b3a0	-0.19209146
61	0xbe8c224d	-0.2736992
62	0xbe67580b	-0.2259218
63	0xbe623982	-0.2209225
64	0xbdaeaac5	-0.085286655
65	0x3e955d79	0.29172876
66	0xbddea512	-0.108713284
67	0xbeb32c8c	-0.34994924
68	0x3ddb5cce	0.107110605
69	0xbe76d0bf	-0.24103068
70	0xbd9274cc	-0.071511835
71	0x3d3bcdaf	0.045850452
72	0xbd67b8f4	-0.05657287
73	0x3e64092d	0.22269125
74	0xbea90df8	-0.3301847
75	0xbe9f83ae	-0.3115515
76	0xbe99312e	-0.29920334
77	0xbd1dff1b	-0.038573366
78	0xbde0853b	-0.10962912
79	0xbd2d51eb	-0.04231445
80	0xbe1e8859	-0.154817
81	0xbe944570	-0.28959227
82	0x3dc42aff	0.09578513
83	0xbd8210dc	-0.06350872
84	0xbe65ee0c	-0.22454089
85	0xbe5694b1	-0.20955159
86	0x3db7da91	0.08977235
87	0x3ea36bba	0.31918126
88	0xbe0971f4	-0.13422376
89	0xbe6152cf	-0.22004245

weight f4 [10]
0	0x3f432967	0.7623505
1	0x3f881823	1.0632366
2	0x3f87499c	1.0569339
3	0x3f6d3630	0.9266081
4	0x3f89450e	1.0724199
5	0x3f744823	0.9542257
6	0x3f801387	1.0005959
7	0x3f875541	1.0572892
8	0x3f855cc8	1.041894
9	0x3f86135a	1.0474656

bias f4 [10]
0	0xbd2f5b42	-0.04281164
1	0x3d6c5be1	0.05770481
2	0x3c190a03	0.009340766
3	0x3d0bea5f	0.03415906
4	0x3dd56ccb	0.10421141
5	0xbd8a581e	-0.06755088
6	0xbb98b21f	-0.0046599056
7	0xbb6de0d0	-0.0036297329
8	0x3c62c5ae	0.013841076
9	0x3d6e7083	0.05821277

running_mean f4 [10]
0	0x3d0d73da	0.034534313
1	0xbc993b0a	-0.01870491
2	0x3be9f614	0.0071399305
3	0x3c6705e3	0.014100525
4	0xbd20ea6a	-0.039286055
5	0x3cbc87e1	0.02301401
6	0xbd8cad98	-0.06869048
7	0xbd214558	-0.039372772
8	0xbd8fe496	-0.07026021
9	0xbd23f4fa	-0.04002855

running_var f4 [10]
0	0x3e9f0aee	0.31063026
1	0x3e9c201f	0.30493256
2	0x3f1dea3f	0.61685556
3	0x3ec5f6a3	0.3866473
4	0x3f0e6970	0.55629635
5	0x3f348af5	0.7052453
6	0x3f7abe69	0.9794679
7	0x3f0d6900	0.5523834
8	0x3f7c0df0	0.98458767
9	0x3eb3c775	0.3511311

weight f4 [10, 10, 3, 3]
0	0x3d228c41	0.039684538
1	0x3d20d775	0.039267976
2	0x3da6d48c	0.08146009
3	0x3dd72f95	0.105071224
4	0x3cff2207	0.031144155
5	0xbcda6fea	-0.026664693
6	0xbdc917c7	-0.09818988
7	0xbdcff564	-0.101542264
8	0x3dce0245	0.10059027
9	0xbcb5551e	-0.022135314
10	0x3ccad07f	0.024757622
11	0xbd44af78	-0.048018903
12	0x3c79f98c	0.0152572505
13	0xbd94a755	-0.072584786
14	0xbdd10d64	-0.10207632
15	0xbd2c4b44	-0.042063966
16	0xbd5c2611	-0.05374724
17	0x3ce20939	0.027592288
18	0x3e02d7a1	0.12777568
19	0x3dcc9ad9	0.09990472
20	0x3e2eaeba	0.1705884
21	0x3e34b3ed	0.17646761
22	0x3dbd8e90	0.09255707
23	0x3d267433	0.04063816
24	0x3e84cc5a	0.25937158
25	0x3d6155b9	0.055013392
26	0x3cdebb63	0.027188962
27	0xbd8d15b4	-0.06888905
28	0xbd3ed298	-0.046587557
29	0x3bc9cbbd	0.0061583207
30	0xbd754558	-0.059880584
31	0xbd1de19b	-0.038545232
32	0xbdc07450	-0.09397185
33	0x3af28126	0.0018501624
34	0xbd707de4	-0.05871381
35	0x3b380cb9	0.0028083755
36	0x3d9e3c9f	0.07726406
37	0xbd500c0f	-0.05079275
38	0xbd848bbd	-0.064719655
39	0x3e0045da	0.12526646
40	0xbd08198b	-0.033227485
41	0xbc8e0bfe	-0.017339703
42	0x3cb26a94	0.021779336
43	0x3c9b1d98	0.01893501
44	0xbdc24aef	-0.09486949
45	0x3e0ed2fa	0.13947669
46	0x3e4500e1	0.19238617
47	0x3d596f22	0.0530845
48	0x3d62ad7d	0.055341233
49	0x3db5bbea	0.088737324
50	0x3de75922	0.112962976
51	0x3dafa8ed	0.08577142
52	0x3dce22b9	0.100652166
53	0x3d853d10	0.065057874
54	0xbc73eb6d	-0.014887673
55	0x3cae993e	0.021313306
56	0x3d3fba0a	0.04680828
57	0x3d8f0060	0.069824934
58	0x3da29672	0.079388514
59	0xbc34b885	-0.011030321
60	0x3dbbc5a2	0.09168555
61	0xbd844d7e	-0.06460093
62	0xbe01cc85	-0.12675674
63	0xbdc4b36c	-0.096045345
64	0xbcbfbb42	-0.023404721
65	0x3ddb9b61	0.107229955
66	0x3d5c9c6f	0.053860124
67	0x3d96078e	0.0732566
68	0x3e11bc4e	0.14231989
69	0x3d8d8c32	0.06911506
70	0x3dd6273d	0.10456703
71	0xbd47fef1	-0.048827115
72	0x3cf8de90	0.030379564
73	0xbdccfe52	-0.10009445
74	0xbd9f7077	-0.07785123
75	0x3da041dd	0.078250624
76	0xba8bab32	-0.0010655879
77	0xbd90bce4	-0.07067278
78	0x3d2182c4	0.03943135
79	0x3ce70779	0.028201805
80	0xbaf95389	-0.0019022088
81	0xbd9c393d	-0.07628105
82	0xbddf49a0	-0.10902715
83	0x3c477562	0.012173982
84	0x3d46edc9	0.048566613
85	0xbd81a507	-0.063303046
86	0xbc4581bb	-0.012054856
87	0x3dfc9816	0.123336956
88	0xbd6f502e	-0.058426075
89	0xbda68dff	-0.08132552
90	0x3d2d9045	0.042373914
91	0x3cf580ce	0.029968645
92	0x3dc53567	0.09629326
93	0x3c809ced	0.015699828
94	0xbe038efe	-0.12847516
95	0x3d756a2e	0.059915714
96	0xbdd492b1	-0.10379542
97	0xbb1a176d	-0.0023512498
98	0x3e055e26	0.13024196
99	0x3d975158	0.07388562
100	0x3cb346a0	0.021884263
101	0x3c3ab259	0.01139506
102	0x3daed14c	0.08536014
103	0xbc448c35	-0.011996319
104	0xbda46488	-0.08026987
105	0x3e26b022	0.16278127
106	0x3e00c139	0.12573709
107	0x3e236475	0.1595629
108	0xbc91a42c	-0.017778479
109	0x3d4e34ca	0.050343312
110	0x3c63ec92	0.013911383
111	0x3d88a70d	0.066724874
112	0x3df64446	0.12024741
113	0x3e1c8e93	0.15288763
114	0x3c8f6d0f	0.017508058
115	0x3e50ea4f	0.20401882
116	0xbd8d434f	-0.06897604
117	0x3dd2d5cc	0.10294685
118	0x3e3d3526	0.18477306
119	0x3d5bcc2d	0.053661514
120	0x3d9dc24a	0.07703073
121	0xbde9e4a3	-0.11420562
122	0xbe0f566c	-0.13997811
123	0xbddf0bd6	-0.108909294
124	0xbe38d398	-0.18049467
125	0xbe2ae5c3	-0.1668921
126	0xbd3f9ce8	-0.046780497
127	0xbde5cf0f	-0.11221134
128	0xbe0ab78f	-0.13546585
129	0xbc2ebadf	-0.010664671
130	0xbd93235f	-0.07184481
131	0xbdb3de56	-0.087826416
132	0x3ac2afec	0.0014853454
133	0x3da6038d	0.08106146
134	0xbda5f7c2	-0.08103897
135	0x3d98d56d	0.07462583
136	0x3d10ad00	0.035321236
137	0x3d012dd4	0.031537846
138	0xbe07271c	-0.13198513
139	0xbd869c83	-0.06572821
140	0x3d117783	0.035514366
141	0xbe3f3310	-0.18671823
142	0xbdaabe84	-0.08337119
143	0xbcd581cb	-0.026062867
144	0xbcc793d1	-0.024362477
145	0xbe024e48	-0.12725174
146	0xbb927070	-0.00446897
147	0x3db01328	0.08597404
148	0xbd7cab9c	-0.061687097
149	0x3d5b0c4b	0.05347852
150	0xbb105eb3	-0.0022029101
151	0x3b786b02	0.0037905579
152	0xbdd8f299	-0.10593147
153	0xbb883685	-0.00415689
154	0xbe18cd1f	-0.14921997
155	0xbe52036c	-0.20509118
156	0xbe3a3ab8	-0.18186462
157	0xbe278642	-0.16359809
158	0xbc5533c5	-0.013012831
159	0xbdd0945c	-0.10184547
160	0xbca318b2	-0.019909237
161	0xbd8f332a	-0.06992181
162	0xbe0bd264	-0.13654476
163	0xbcc8293e	-0.024433728
164	0xbd76daec	-0.060267374
165	0x3cf65ae6	0.03007264
166	0xbd675a87	-0.056482818
167	0xbb19e905	-0.0023484838
168	0xbd4514e3	-0.048115622
169	0x3b07fd4c	0.0020750342
170	0xbc2cbbb2	-0.010542797
171	0xbd03ddd2	-0.032193966
172	0xbd1dc4b0	-0.038517654
173	0xbdd30634	-0.103039175
174	0xbc3e8d50	-0.011630371
175	0x3cb2d64d	0.021830702
176	0xbdbceeac	-0.092252105
177	0x3da0444d	0.07825527
178	0xbdb96e0f	-0.09054195
179	0x3da96b98	0.08272475
180	0xbdc3117e	-0.09524821
181	0x3cb2f3e8	0.02184482
182	0x3c75b39a	0.014996434
183	0xbd6cbf2f	-0.057799514
184	0xbdddfff7	-0.10839837
185	0xbd8c60aa	-0.06854375
186	0xbc0b6f3a	-0.008510405
187	0xbac7c15c	-0.0015240121
188	0x3d498dd1	0.049207512
189	0xbe5c03a1	-0.2148576
190	0xbdec4394	-0.11536327
191	0xbc1bec63	-0.009516808
192	0xbe300681	-0.17189981
193	0xbc826f54	-0.015922226
194	0xbdd7d534	-0.10538712
195	0xbd94c2a0	-0.07263684
196	0xbdecb475	-0.11557857
197	0xbd4b8481	-0.049686912
198	0x3db1826f	0.08667456
199	0x3de11ef5	0.10992233
200	0x3dae9865	0.08525161
201	0xbe236562	-0.15956643
202	0xbd8e851c	-0.06958982
203	0x3dbea1c6	0.093081996
204	0xba902844	-0.0010998328
205	0xbdbbb944	-0.09166196
206	0x3c57ce93	0.01317181
207	0xbc8beb18	-0.017079875
208	0xbde2524c	-0.11050853
209	0xbe205f2c	-0.15661305
210	0x3e35a4a0	0.1773858
211	0x3d4e49dd	0.05036341
212	0xbd4555d5	-0.04817756
213	0x3ccef3f4	0.02526281
214	0x3c96e0e1	0.018417777
215	0x3ce69b64	0.028150268
216	0xbd098a18	-0.033578962
217	0x3cfcb066	0.030845832
218	0x3d2e132b	0.04249875
219	0xbcf9800f	-0.03045657
220	0xbde33da3	-0.11095741
221	0xbcc3b676	-0.023890715
222	0xbb284fa5	-0.0025682237
223	0x3d6e1ff4	0.05813594
224	0xbd06b2d3	-0.032885384
225	0x3dd6865e	0.10474847
226	0xbd8090ea	-0.0627764
227	0x3becd2ce	0.0072272783
228	0xbdbd3df4	-0.09240332
229	0xbdce4822	-0.10072352
230	0xbd63c6fc	-0.05560969
231	0xbd40d167	-0.0470747
232	0xbd9910d8	-0.07473916
233	0xbda6a9dd	-0.081378676
234	0x3d8d497b	0.06898781
235	0xbd8830f6	-0.066499636
236	0x3d639092	0.055557795
237	0xbd20a29a	-0.03921757
238	0xbd868d16	-0.06569879
239	0x3ca47c75	0.020078877
240	0xbdb8d5cf	-0.09025156
241	0xbd3f9edc	-0.04678236
242	0x3dc1258b	0.09430989
243	0xbc2963b5	-0.010338713
244	0xbc97d47e	-0.018533941
245	0x3d0a0619	0.03369722
246	0xbc45017e	-0.012024282
247	0x3d8f0036	0.06982462
248	0xbda0dfd2	-0.0785519
249	0x3d7099b3	0.05874033
250	0xbd9a77bb	-0.07542368
251	0xbd500a9e	-0.050791375
252	0x3e1b54d1	0.15169074
253	0x3ce2e78c	0.0276983
254	0x3e07d3aa	0.13264337
255	0x3dbd12cb	0.092321

weight f4 [10]
0	0x3f617761	0.8807278
1	0x3f79afde	0.9753398
2	0x3f8f3546	1.1188133
3	0x3f84b71f	1.0368384
4	0x3f868ee9	1.0512363
5	0x3f7f5ca6	0.99750745
6	0x3f7eb286	0.99491155
7	0x3f7ac9a0	0.97963905
8	0x3f721eb8	0.94578123
9	0x3f816b31	1.0110837

bias f4 [10]
0	0x3d6de4f0	0.05807966
1	0x3d5e0db6	0.054212295
2	0x3dbcfb00	0.09227562
3	0xbcec2eef	-0.028830973
4	0x3df93cfd	0.12169836
5	0x3d64d17b	0.05586384
6	0x3d6cf4b0	0.05785054
7	0xbd0b92e7	-0.034075644
8	0x3d260d87	0.040540244
9	0x3c8a0c9f	0.016851721

running_mean f4 [10]
0	0x3ef8fd12	0.48630577
1	0xbf121ef7	-0.570785
2	0xb9b95c18	-0.00035354565
3	0xbf3b5b3b	-0.7318608
4	0x3d649752	0.055808373
5	0xbf4b746e	-0.7947453
6	0x3e18b202	0.14911655
7	0xbf7db82d	-0.99109155
8	0xbf6965e5	-0.91171104
9	0xbe0febe9	-0.14054836

running_var f4 [10]
0	0x3fab1d84	1.3368382
1	0x3f3bc54f	0.73347944
2	0x3f3c5f65	0.7358306
3	0x3ebec69f	0.3726091
4	0x3f48baaf	0.78409857
5	0x3ed15b18	0.40889812
6	0x3f424e16	0.759004
7	0x3ef12909	0.4710162
8	0x3edb221d	0.42799464
9	0x3f105b05	0.56388885

weight f4 [20, 10, 3, 3]
0	0xbe1b77f1	-0.15182473
1	0xbdb698b5	-0.08915845
2	0xbcfb05c2	-0.030642394
3	0x3d1dc8e2	0.038521655
4	0xbce5ebf6	-0.028066617
5	0xbd74ce0b	-0.05976681
6	0x3dfac7fb	0.122451745
7	0x3c9bcd12	0.019018684
8	0x3d931d37	0.07183307
9	0xbc453b4c	-0.012038063
10	0x3a1a4bb8	0.0005885917
11	0x3cd3143a	0.02576648
12	0xbc79c537	-0.015244774
13	0xbc5e96f0	-0.013585791
14	0xbd5b0602	-0.053472526
15	0xbcbefa6d	-0.023312772
16	0xbd120328	-0.03564754
17	0xbbeb54d8	-0.007181745
18	0xbd269ddb	-0.040677886
19	0xbde853dc	-0.1134412
20	0xbd83548b	-0.0641261
21	0x3bc86a28	0.0061161704
22	0xbdc7954d	-0.09745274
23	0x3c3625c5	0.011117403
24	0x3d941019	0.07229633
25	0x3db8854b	0.090097986
26	0x3deaba0c	0.11461267
27	0x3c7665c9	0.015038916
28	0x3d53ce29	0.05171028
29	0xbc92855f	-0.017885862
30	0x3cef55da	0.029215742
31	0xbcc232c3	-0.023705846
32	0x3df8d244	0.1214948
33	0x3e0599ea	0.13046995
34	0x3e1d5db4	0.15367776
35	0x3d8cf65c	0.06882927
36	0xbe1020fb	-0.14075081
37	0x3c3dd598	0.011586569
38	0xbc999152	-0.018746052
39	0x3b4a1f98	0.0030841585
40	0xbcdecda0	-0.027197659
41	0xbdac7fbf	-0.08422803
42	0xbd7ad9ca	-0.061242856
43	0x3db80a3c	0.08986327
44	0xbdba47a6	-0.09095697
45	0x3def660c	0.11689386
46	0x3da90035	0.082519926
47	0x3cd06ee5	0.025443504
48	0x3e1802d4	0.14844829
49	0x3d5717f6	0.052513085
50	0xbc629362	-0.013829084
51	0x3d2f7b7a	0.042842366
52	0x3dee58a4	0.116380006
53	0x3cb9fa38	0.022702321
54	0x3dbd7e9d	0.09252665
55	0x3dc9f2d3	0.09860768
56	0xbd38b2a7	-0.04509225
57	0x3d9d9358	0.07694119
58	0xbd2949e8	-0.041330248
59	0xbda7dd8c	-0.081965536
60	0xbd840330	-0.064459205
61	0x3ca6f419	0.020380067
62	0xbd909932	-0.0706047
63	0x3c04f4b6	0.008114984
64	0xbdfc08c2	-0.12306358
65	0xbe2e027c	-0.16993135
66	0xbe0f53f9	-0.13996877
67	0xbd2ccdfa	-0.042188622
68	0x3d26fcf9	0.040768597
69	0x3cb5a845	0.022174964
70	0x3d8f714c	0.070040315
71	0x3e03cde7	0.12871514
72	0x3abb1278	0.0014272472
73	0x3ad95180	0.0016580075
74	0xbb5462df	-0.0032407565
75	0x3d8fc23b	0.070194684
76	0x3e110a00	0.14163971
77	0xbc652cea	-0.013987759
78	0x3d77b83e	0.06047844
79	0xbd28873b	-0.04114459
80	0xbd88bba2	-0.06676413
81	0xbd73f6ac	-0.059561417
82	0x3cb3d575	0.02195237
83	0xbd945077	-0.0724191
84	0xbca818db	-0.020519665
85	0x3d1ac356	0.037783943
86	0xbe05b408	-0.13056958
87	0xbe1fb1bf	-0.15595149
88	0xbde6c328	-0.11267692
89	0xbe3b491e	-0.1828961
90	0x3c91271c	0.017718844
91	0x3b92ebee	0.0044836914
92	0xbdd5a412	-0.104316846
93	0x3b863f80	0.0040969253
94	0x3d0354ab	0.032063168
95	0xbd7ce42b	-0.061741035
96	0x3d4a5c93	0.049404692
97	0x3dbca2d4	0.092107445
98	0xbc370ce1	-0.011172504
99	0xbcd2f446	-0.025751244
100	0xbe06cb00	-0.13163376
101	0xbcaa3eac	-0.020781837
102	0xbdb95889	-0.0905009
103	0xbc6a9b38	-0.014319234
104	0xbd1269f1	-0.035745565
105	0xbba17c6d	-0.004928163
106	0xbd400725	-0.046881814
107	0xbe111b75	-0.1417063
108	0xbca6c71a	-0.02035861
109	0x3c30168e	0.010747565
110	0x3c254b3e	0.01008874
111	0xbcec3279	-0.028832661
112	0xbdbad70b	-0.091230474
113	0x3d66a874	0.056312993
114	0x3d8ee3aa	0.06977017
115	0x3d42a06a	0.047516264
116	0xbdb1d233	-0.086826704
117	0x3c07d0a4	0.00828949
118	0xbe084ccf	-0.1331055
119	0x3da09442	0.07840778
120	0x3d5477c7	0.05187204
121	0x3db62130	0.08893049
122	0x3d4828d8	0.048867077
123	0x3e2016b5	0.15633662
124	0x3de49a62	0.11162259
125	0x3e3cf646	0.18453321
126	0xbbdd99f4	-0.0067627374
127	0xbdda6a0d	-0.10664759
128	0xbd6f0cd0	-0.05836183
129	0xbdac828b	-0.084233366
130	0xbd598548	-0.053105623
131	0xbc72deb5	-0.014823605
132	0x3c80d063	0.015724367
133	0xbd838fbf	-0.06423902
134	0xbe0616df	-0.13094662
135	0xbd99fe16	-0.07519166
136	0xbc3c39c1	-0.011488379
137	0xbdad7a1d	-0.08470557
138	0xbd84b899	-0.06480522
139	0xbd1dd67d	-0.03853463
140	0x3d351eff	0.044219013
141	0x3d99123a	0.074741796
142	0x3d00f48f	0.03148323
143	0x3dcb8839	0.09938092
144	0x3cc68b47	0.024236334
145	0xbd8a2c97	-0.06746786
146	0x3bdb3b1a	0.006690395
147	0xbdf9d2ea	-0.12198432
148	0xbdfd54ed	-0.12369714
149	0xbdcd035a	-0.10010405
150	0xbca0361b	-0.01955705
151	0xbb9eac20	-0.0048422962
152	0xbc226bf9	-0.009913438
153	0xbe0ce47a	-0.13759032
154	0x3d903b1f	0.070425265
155	0xbd713fa2	-0.058898576
156	0xbe07ceb9	-0.13262452
157	0xbc394d82	-0.011309983
158	0x384f09bb	4.9361708e-05
159	0xbd484146	-0.048890375
160	0xbd4f8dd9	-0.050672386
161	0x3d8b1a45	0.0679212
162	0x3d23a9a7	0.039956715
163	0xbcd19b82	-0.025586847
164	0x3dafb053	0.08578553
165	0x3b591c1a	0.0033128322
166	0x3d4df429	0.050281677
167	0x3d03667d	0.032080162
168	0x3d12b436	0.035816394
169	0x3ac7fb18	0.0015257327
170	0x3d983cc2	0.07433464
171	0xbd649e43	-0.055814993
172	0x3cecab26	0.028890204
173	0x3d4157f3	0.047203016
174	0x3cc31760	0.023814857
175	0xbdc35301	-0.09537316
176	0xbd0b8f9b	-0.0340725
177	0xbc7e5b93	-0.015524763
178	0xbd7e9765	-0.0621561
179	0xbd1eb6c0	-0.038748503
180	0xb95a6107	-0.00020826246
181	0xbd0ad94f	-0.033898648
182	0xbdd3fcf1	-0.10350979
183	0xbc9170a2	-0.017753903
184	0xbe03c8ae	-0.12869522
185	0xbda049e1	-0.07826591
186	0xbd1d9018	-0.038467497
187	0xbcfda8f1	-0.030964347
188	0x3d50a349	0.05093697
189	0x3da949b2	0.082660094
190	0x3e2ee14f	0.17078136
191	0xbb4b04a5	-0.003097811
192	0x3d425148	0.047440797
193	0xbc084ad7	-0.008318624
194	0x3ceca086	0.028885137
195	0x3e168fdb	0.14703314
196	0xbd44a294	-0.04800661
197	0x3dfb4966	0.12269859
198	0x3db42516	0.08796136
199	0x3d3f6d3d	0.046735037
200	0xbcb37c5e	-0.021909889
201	0xbd7898f9	-0.06069276
202	0xbdd3f65d	-0.103497244
203	0xbb9c29cd	-0.004765725
204	0xba205fa2	-0.0006117766
205	0xbdb2932e	-0.087194785
206	0x3d67a4b5	0.05655356
207	0xbd0d553c	-0.034505114
208	0x3e2bb851	0.1676953
209	0x3b871308	0.0041221417
210	0x3dadbb62	0.08483006
211	0xbc3f7384	-0.011685256
212	0x3e029544	0.12752253
213	0x3d1e8695	0.038702566
214	0x3be47ed2	0.006973126
215	0x3cee389e	0.029079732
216	0xbd88f33a	-0.06687017
217	0x3ca699dc	0.020337038
218	0xbe097754	-0.13424426
219	0x3d1b655d	0.037938464
220	0xbccc1595	-0.024912635
221	0xbde538b6	-0.111924574
222	0xbdbef985	-0.09324936
223	0x3d43d84d	0.047813702
224	0xbd8c6ff6	-0.06857292
225	0x3dffd112	0.12491049
226	0x3e0d372c	0.13790578
227	0xbd417a44	-0.047235742
228	0xbd85fd25	-0.06542424
229	0xbc0ed00f	-0.008716597
230	0x3d0496ff	0.032370564
231	0xbd0e37ee	-0.034721307
232	0xbb7c13b2	-0.0038463888
233	0xbe13d011	-0.1443484
234	0x3d1ea725	0.03873362
235	0xbd2f4d06	-0.042798065
236	0xbc8e951a	-0.017405082
237	0xbd47375f	-0.04863679
238	0xbd1e1edf	-0.03860366
239	0xbd444428	-0.04791656
240	0x3d7a4e11	0.061109606
241	0x3ca1a130	0.01973018
242	0xbdc33fab	-0.09533628
243	0x3e11b153	0.142278
244	0xbd0bbe4f	-0.03411704
245	0x3c97b3ae	0.018518295
246	0xbd21ba2f	-0.0394842
247	0xbcb1aadd	-0.02168792
248	0x3de2dfc3	0.110778354
249	0x3e10ea3a	0.1415185
250	0xbc68354c	-0.014172863
251	0x3dfb1103	0.12259104
252	0x3d9dbf93	0.077025555
253	0x3dc95271	0.098301776
254	0x3db38cbf	0.087670796
255	0x3cad5787	0.0211599

weight f4 [20]
0	0x3f7faf3f	0.9987678
1	0x3f7ce126	0.9878105
2	0x3f786bff	0.9703979
3	0x3f83cacb	1.0296263
4	0x3f7d133c	0.98857474
5	0x3f818dcf	1.0121402
6	0x3f7f8783	0.9981615
7	0x3f838548	1.0275049
8	0x3f7dc6ef	0.99131674
9	0x3f80ecce	1.0072267
10	0x3f816903	1.0110172
11	0x3f7dd8f8	0.99159193
12	0x3f7f512b	0.9973323
13	0x3f788779	0.97081715
14	0x3f84369e	1.0329168
15	0x3f7fcb25	0.9991935
16	0x3f818ffc	1.0122066
17	0x3f7a9572	0.97884285
18	0x3f8328d2	1.0246832
19	0x3f7b441c	0.981508

bias f4 [20]
0	0xbcfff024	-0.031242438
1	0x3c07a738	0.008279614
2	0xbc49e7bc	-0.012323316
3	0xbbf25194	-0.007394979
4	0xbb755ad5	-0.0037438173
5	0x3badd356	0.005304734
6	0x3cafad51	0.021444948
7	0xbc194399	-0.009354495
8	0x3c96efac	0.018424831
9	0xbcdd5c12	-0.027021442
10	0x3bce0f5e	0.006288453
11	0x3c3934b3	0.011304068
12	0xbcb7540c	-0.022378944
13	0xbcddb546	-0.027063977
14	0xbbe0fba2	-0.0068659345
15	0xbcf587aa	-0.029971916
16	0x3ada8153	0.0016670622
17	0xbc441b79	-0.011969441
18	0x3990796b	0.00027556284
19	0x3c3b408e	0.011428965

running_mean f4 [20]
0	0xbe0d42b4	-0.13794976
1	0xbef8363e	-0.48478884
2	0xbcb3c95c	-0.021946602
3	0xbf39cb61	-0.72575957
4	0xbec02809	-0.37530544
5	0xbeef73c2	-0.46768004
6	0x3d178184	0.03698875
7	0x3e70c3c2	0.23512176
8	0x3ceca86a	0.0288889
9	0xbd8f0d9b	-0.06985017
10	0xbf0dbbec	-0.5536487
11	0x3e8f2093	0.2795454
12	0xbe9bb3b2	-0.30410534
13	0xbd417692	-0.047232218
14	0xbede76cf	-0.4345002
15	0x3e55628a	0.20838371
16	0xbe0050c4	-0.1253081
17	0xbebe5bad	-0.37179318
18	0x3d31d58f	0.043416556
19	0x3d8d6175	0.06903354

running_var f4 [20]
0	0x3ec9e31d	0.39431086
1	0x3ee86e98	0.45396876
2	0x3eec23d5	0.46121088
3	0x3ea8b60a	0.32951385
4	0x3eb57f45	0.3544866
5	0x3e7c2a6d	0.24625559
6	0x3f069d8a	0.52584136
7	0x3f025689	0.5091329
8	0x3e4e5d5e	0.20152804
9	0x3e4f943e	0.20271394
10	0x3eae8177	0.3408315
11	0x3e86f820	0.2636118
12	0x3ea651c1	0.32484248
13	0x3eab34e6	0.33438796
14	0x3eca601f	0.3952646
15	0x3eaa0786	0.33208865
16	0x3e6a6cc1	0.22893049
17	0x3f047f13	0.517564
18	0x3eec023e	0.4609546
19	0x3eb28a3b	0.34871086

weight f4 [10, 20, 1, 1]
0	0x3deb25a2	0.11481787
1	0x3dc8676a	0.0978535
2	0x3daa30a2	0.08310057
3	0x3e9c0f77	0.3048055
4	0x3d10507d	0.03523301
5	0x3e5e993a	0.21738139
6	0xbd13198c	-0.035913035
7	0xbe0a65c4	-0.13515383
8	0x3aa8f19b	0.0012889387
9	0x3ddc7a70	0.107655406
10	0x3e0a62c8	0.13514245
11	0x3c994e92	0.018714223
12	0x3e8f841f	0.28030488
13	0x3cbc6994	0.022999562
14	0xbe5e3e4b	-0.2170345
15	0xbe2344bb	-0.15944187
16	0xbe4a150e	-0.19734594
17	0xbe648816	-0.22317538
18	0xbe76f6ec	-0.2411763
19	0xbe0f61c8	-0.14002144
20	0x3dfeb521	0.12436891
21	0x3e8c64c8	0.2742064
22	0x3c9d783a	0.019222368
23	0x3d3ea462	0.046543486
24	0xbd8fc08f	-0.070191495
25	0xbe32a57b	-0.17445938
26	0x3cc4f0fd	0.024040693
27	0xbd5eb940	-0.054375887
28	0x3e215e75	0.15758689
29	0xbc2ee7f7	-0.010675422
30	0xbd56077f	-0.052253243
31	0x3e5bb514	0.21455795
32	0xbddb5cc9	-0.10711057
33	0xbda17ef0	-0.078855395
34	0x3dded633	0.10880699
35	0x3d988e44	0.0744901
36	0xbd8d7400	-0.06906891
37	0x3e492747	0.1964389
38	0xbe963988	-0.29340768
39	0x3e95d0bb	0.2926081
40	0xbe625373	-0.22102146
41	0xbe1a9a3f	-0.15097903
42	0x3beed0fa	0.0072880955
43	0xbde791f4	-0.11307135
44	0x3e7b6fbf	0.24554347
45	0xbdbd208b	-0.09234723
46	0xbdbcd03d	-0.09219406
47	0xbe863b42	-0.26217085
48	0x3dbee694	0.09321323
49	0x3d16d378	0.036822766
50	0xbe0e9d3f	-0.13927172
51	0xbdfb168d	-0.122601606
52	0x3d9dd23f	0.07706117
53	0x3e5dc0d2	0.21655586
54	0xbe817367	-0.25283358
55	0x3db527b1	0.08845461
56	0x3e6cc425	0.23121698
57	0xbc37156f	-0.011174544
58	0xbc8f65f6	-0.017504673
59	0x3e96c416	0.29446477
60	0xbd83161c	-0.064007014
61	0xbd7ea677	-0.062170472
62	0xbda6eab0	-0.08150232
63	0xb69bdd95	-4.6451555e-06
64	0x3e817179	0.25281885
65	0xbe126e8a	-0.1429998
66	0x3cea96bc	0.028636329
67	0xbe35773a	-0.17721263
68	0x3deca2ba	0.11554475
69	0xbe021910	-0.12704873
70	0x3e158489	0.1460134
71	0x3e7cdf59	0.24694575
72	0x3e61f489	0.22065939
73	0xbe2683a7	-0.16261159
74	0x3cd8d889	0.02647044
75	0x3ea31441	0.3185139
76	0x3e039e81	0.12853433
77	0xbe0afbd5	-0.13572629
78	0xbe33ac32	-0.17546156
79	0xbd7a5c10	-0.061122954
80	0xbe5528f0	-0.20816398
81	0xbdb8e924	-0.09028843
82	0xbe58701f	-0.21136521
83	0xbd975f71	-0.07391251
84	0xbe23555b	-0.1595053
85	0x3e38565c	0.18001693
86	0x3963930c	0.00021703186
87	0x3d03540a	0.032062568
88	0x3e889fd7	0.26684448
89	0xbbfd7e1e	-0.0077359816
90	0xbe2b1336	-0.16706547
91	0xbd21839f	-0.039432164
92	0x3c9685bc	0.018374316
93	0xbe21c446	-0.15797529
94	0x3d386d17	0.04502591
95	0x3d4e3de5	0.050351996
96	0xbe33551f	-0.1751294
97	0xbba23cc7	-0.004951093
98	0xbc319682	-0.0108391065
99	0xbe658893	-0.2241538
100	0x3e0406a9	0.12893166
101	0xbdb99984	-0.09062484
102	0xbe2c1fda	-0.16809025
103	0x3d1d537d	0.0384097
104	0x3e1bd7f3	0.15219097
105	0xbe1842ce	-0.14869234
106	0x3e39d000	0.18145752
107	0x3dfa15e9	0.1221121
108	0xbd07816e	-0.03308242
109	0x3e9b9d83	0.3039361
110	0xbe58df9e	-0.21179053
111	0xbe553a19	-0.20822944
112	0x3e238f1b	0.15972559
113	0x3e175fae	0.14782593
114	0x3e449b32	0.19199827
115	0xbc39dc95	-0.011344095
116	0xbe82e1e9	-0.2556298
117	0xbe4fb11f	-0.2028241
118	0x3ceaa17d	0.028641457
119	0xbdc62890	-0.096757054
120	0xbe4bdb8d	-0.1990797
121	0xbe51df2e	-0.20495293
122	0xbdafc2a0	-0.08582044
123	0x3da1a573	0.07892885
124	0x3bfb0082	0.0076599726
125	0xbe4145ff	-0.18874358
126	0x3e8508a5	0.25983158
127	0xbe609f39	-0.21935739
128	0x3e0ed4c1	0.13948347
129	0xbcb76859	-0.022388624
130	0xbe7e48d3	-0.24832468
131	0xbcaad8d8	-0.020855352
132	0x3dbc1792	0.09184183
133	0xbdc0923d	-0.09402893
134	0xbe3296c2	-0.17440322
135	0x3bedd535	0.0072580823
136	0xbd44e088	-0.048065692
137	0xbe64e082	-0.22351268
138	0x3ddddfda	0.10833712
139	0x3cea0f91	0.028571876
140	0x3df1600f	0.117859
141	0x3e846191	0.25855687
142	0x3d64c416	0.055851065
143	0xbebd6702	-0.3699265
144	0xbc2d30b1	-0.010570691
145	0x3e486b0a	0.19572082
146	0x3e3801df	0.17969464
147	0x3e09cbe9	0.13456692
148	0x3d78c45e	0.060734145
149	0xbc94a6cf	-0.018145947
150	0x3da3dbc3	0.080009006
151	0xbd9eb288	-0.07748896
152	0xbdb496fb	-0.0881786
153	0xbcb0502e	-0.021522608
154	0x3db23ee2	0.087034
155	0x3cc47b34	0.02398453
156	0xbe12a637	-0.14321218
157	0xbdbd3ea5	-0.09240464
158	0x3e92f106	0.2869951
159	0xbdeee445	-0.11664633
160	0x3d1a1387	0.03761628
161	0xbd24598c	-0.04012446
162	0xbcb884f4	-0.022524334
163	0xbe6de18e	-0.23230574
164	0xbd7ca6a9	-0.061682377
165	0xbe6e06ca	-0.23244777
166	0xbda2902c	-0.07937655
167	0x3e34463e	0.1760492
168	0xbe34b3f5	-0.17646773
169	0x3e2e7683	0.17037396
170	0xbdf34d9c	-0.11880037
171	0xbd91fc6e	-0.07128225
172	0xbcb4dd26	-0.022078108
173	0xbdf691c0	-0.12039518
174	0xbe5011c0	-0.20319271
175	0xbd3082cb	-0.043093484
176	0xbe3189dc	-0.17337745
177	0xbe4e0a9c	-0.20121235
178	0xbe8da1a8	-0.27662396
179	0xbe21354e	-0.1574299
180	0x3e93cfe1	0.28869537
181	0x3bc3ea95	0.005978892
182	0x3e966b4c	0.29378736
183	0x3e3757ea	0.1790463
184	0x3e0b6b44	0.13615137
185	0xbd589e1d	-0.052885164
186	0xbe509c25	-0.20372064
187	0xbe089e7a	-0.13341704
188	0x3e4a0c06	0.19731149
189	0xbe01c394	-0.12672263
190	0x3eae832d	0.34084454
191	0x3dbe034b	0.09277972
192	0xbe2ee530	-0.17079616
193	0x3e3cf9b0	0.18454623
194	0x3d583c04	0.05279161
195	0xbe293e55	-0.16527684
196	0xbe1927b5	-0.14956553
197	0xbcce8f80	-0.02521491
198	0x3da9aca8	0.08284885
199	0xbc895c67	-0.016767694

weight f4 [10]
0	0x3f6ed6de	0.9329661
1	0x3f7dbb79	0.99114186
2	0x3f6b49d8	0.9190955
3	0x3f7913fe	0.9729613
4	0x3f84ac1f	1.0365027
5	0x3f7e570b	0.9935157
6	0x3f88a274	1.0674577
7	0x3f814d36	1.0101688
8	0x3f89bd8a	1.0760968
9	0x3f81ba4d	1.013498

bias f4 [10]
0	0x3c90e056	0.017685097
1	0x3d1c6f16	0.038191877
2	0x3d7b207a	0.06131027
3	0x3d479e03	0.048734676
4	0x3cd707ff	0.02624893
5	0x3dd14bfe	0.102195725
6	0x3d499a3f	0.049219366
7	0xbdd5a5b4	-0.10431996
8	0x3d6064d6	0.054783665
9	0x3ddf1c9b	0.10894128

running_mean f4 [10]
0	0x3d807acd	0.062734224
1	0x3ee1d7c4	0.4410993
2	0xbe26e2b1	-0.16297413
3	0x3e3c15d4	0.18367702
4	0xbf2078db	-0.6268441
5	0xbcba27bf	-0.02272403
6	0xbf2a8ce6	-0.66621244
7	0x3ea592ff	0.32338712
8	0xbfa32bf7	-1.2747792
9	0x3f0f49cb	0.55971974

running_var f4 [10]
0	0x3f4d5d3c	0.8022039
1	0x3fbbf327	1.4683579
2	0x3fa519e8	1.2898531
3	0x3fb1d8e9	1.3894321
4	0x3f426edf	0.75950426
5	0x3f83f860	1.0310173
6	0x3f3d76c0	0.74009323
7	0x3f4114d7	0.75422424
8	0x3fc2acd5	1.5208994
9	0x400d2445	2.2053387

weight f4 [10, 10, 3, 3]
0	0xbc856f2c	-0.016288362
1	0xbd18122b	-0.0371267
2	0xbe0821c5	-0.13294132
3	0x3db4e0c9	0.08831937
4	0x3e190759	0.14944209
5	0xbceccbc4	-0.028905757
6	0x3e26b8c6	0.16281423
7	0x3ce19636	0.027537446
8	0xbe2ef347	-0.1708499
9	0xbd7e996f	-0.062158044
10	0xbe4578d3	-0.19284372
11	0x3e4e1c82	0.20128062
12	0xbdec8eba	-0.115506604
13	0xbda27dc7	-0.079341464
14	0x3dc7566e	0.09733282
15	0xbe039b22	-0.12852147
16	0xbe1ea0cb	-0.15491025
17	0x3dae6c7c	0.085167855
18	0xbd8b33f1	-0.067970164
19	0xbc02e152	-0.007988291
20	0xbdeea530	-0.11652601
21	0xbd2709ee	-0.040780954
22	0x3ce12ee4	0.02748818
23	0x3e04141d	0.12898298
24	0x3d3d1c2b	0.04616944
25	0x3ddf53a4	0.10904625
26	0x3e05d3a8	0.13069022
27	0xbcd791aa	-0.026314575
28	0xbd272aa3	-0.040812146
29	0xbc32da2c	-0.010916274
30	0xbdb926b1	-0.09040583
31	0x3d999cfc	0.075006455
32	0xbddf9d17	-0.109186344
33	0xbb90aa20	-0.0044148117
34	0x3d16824b	0.03674535
35	0x3deb8dd8	0.11501664
36	0x3d9450e1	0.07241989
37	0xbd3ebd77	-0.046567407
38	0x3da93602	0.08262254
39	0xbd3f6967	-0.04673138
40	0xbd9b083c	-0.0756993
41	0xbd839d42	-0.06426479
42	0xbda71a98	-0.08159369
43	0x3d9330a8	0.07187015
44	0x3da18102	0.078859344
45	0xbcba1ed5	-0.02271978
46	0x3afbb1ae	0.0019202733
47	0x3c0948f0	0.008379206
48	0x3b73f8a2	0.0037227054
49	0x3d1dd0f5	0.038529355
50	0x3d1147ec	0.03546898
51	0xbc4e6a06	-0.01259852
52	0x3cb87004	0.02251435
53	0xbbe44c49	-0.0069671017
54	0xbcb5a7a1	-0.022174658
55	0x3e06ae77	0.1315249
56	0x3d868df7	0.065700464
57	0xbdc36f63	-0.0954273
58	0x3db49fd8	0.0881955
59	0x3d46d5f8	0.0485439
60	0x3cc2b4bf	0.023767827
61	0xbce165b3	-0.027514314
62	0xbc96c9b1	-0.01840672
63	0xbd70c377	-0.05878016
64	0x3e148442	0.14503577
65	0x3e324b98	0.17411649
66	0x3db3a29d	0.087712504
67	0x3dcb9d32	0.09942092
68	0x3dd85c04	0.105644256
69	0x3ca0e33c	0.019639604
70	0x3c312f6e	0.010814531
71	0xbd9949d1	-0.074847825
72	0x3dbfabee	0.09358965
73	0x3bc75e91	0.0060842712
74	0x3d4f34fa	0.05058763
75	0xbd9c9026	-0.07644682
76	0xbd21fcc9	-0.039547715
77	0xbcf8c72f	-0.030368416
78	0x3c7512ae	0.014958067
79	0x3dcebe3f	0.1009488
80	0x3e021330	0.12702632
81	0x3d127521	0.035756234
82	0x3a596423	0.00082928146
83	0x3d8d6824	0.06904629
84	0xbc82852d	-0.015932644
85	0x3e22eaf4	0.1590994
86	0x3d5a0bd0	0.05323392
87	0x3d9641d9	0.07336778
88	0x3e2d32a6	0.16913852
89	0x3dbea7e2	0.09309365
90	0xbe335239	-0.17511834
91	0xbe0dae92	-0.13836125
92	0x3dc5ef5e	0.09664796
93	0xbe288b8f	-0.16459487
94	0xbde755ec	-0.11295685
95	0xbe879c72	-0.26486546
96	0xbd78fe53	-0.060789417
97	0xbd0428a2	-0.032265313
98	0xbcbbcaa7	-0.02292378
99	0xbcdb0ace	-0.02673855
100	0x3e4f4d0b	0.20244233
101	0x3e3510b3	0.17682151
102	0xbe365bd5	-0.17808469
103	0x3d44cdb9	0.048047755
104	0x3def8bf4	0.11696616
105	0xbc98ac17	-0.018636746
106	0xbdadb41f	-0.08481621
107	0xbe261597	-0.16219173
108	0xbe068fb4	-0.13140756
109	0xbcb6c2f9	-0.022309767
110	0xbbc687af	-0.006058655
111	0x3e2dabec	0.16960114
112	0x3ddc9502	0.107706085
113	0x3e2891ce	0.1646187
114	0x3b297c44	0.0025861422
115	0xbcf21b67	-0.029554082
116	0xbc093516	-0.008374473
117	0x3cde194e	0.027111676
118	0x3b3b9d48	0.0028627682
119	0x3e2e93be	0.17048547
120	0xbcac6c78	-0.021047816
121	0x3cd6f20e	0.026238468
122	0x3d8dc825	0.0692294
123	0xbdefe393	-0.11713328
124	0xbe260a3b	-0.1621484
125	0xbdb1c6e6	-0.08680515
126	0x3ce6d7e3	0.028179115
127	0xbc1f195c	-0.009710636
128	0xbe52cf47	-0.20586883
129	0x3da7ae6d	0.08187566
130	0x3df7b6fd	0.12095449
131	0xbbdef219	-0.0068037626
132	0xbcb31d2b	-0.021864494
133	0xbdcef4b2	-0.10105266
134	0x3dfa88d0	0.12233126
135	0x3e068904	0.13138205
136	0x3d765918	0.06014356
137	0x3e081968	0.13290942
138	0x3caf0966	0.021366786
139	0x3d71d2ce	0.05903893
140	0x3e0453a0	0.12922525
141	0xbb370379	-0.0027925654
142	0xbc407760	-0.011747211
143	0x3d8f10a8	0.06985599
144	0xbd187415	-0.03722008
145	0x3c2ef1c8	0.010677762
146	0x3ca553d7	0.02018158
147	0xbde6ec36	-0.112755224
148	0x3c27b46c	0.010235887
149	0x3d0fde00	0.035123825
150	0xbe1cc3ad	-0.1530902
151	0xbe1d557b	-0.1536464
152	0xbdd604c8	-0.10450131
153	0x3e59515e	0.21222445
154	0x3de98840	0.11402941
155	0xbc47930d	-0.012181056
156	0x3e19ee33	0.15032272
157	0xbccf8ca6	-0.025335621
158	0xbdd3675e	-0.1032245
159	0x3e1e78e2	0.154758
160	0x3d6b6a98	0.057474703
161	0x3dba73f9	0.09104151
162	0x3e1e4bad	0.15458556
163	0x3d777004	0.06040956
164	0xbd1e8333	-0.03869934
165	0x3dd4103c	0.10354659
166	0x3e1a1199	0.15045775
167	0x3e3da297	0.18519054
168	0xbd78ad5b	-0.0607122
169	0x3d66cef4	0.05634971
170	0xbd0392ca	-0.03212241
171	0xbd26e6f6	-0.040747605
172	0x3df727f6	0.12068169
173	0x3e195c89	0.14976706
174	0x3ddd29b5	0.107989706
175	0xbe05c700	-0.13064194
176	0xbe2aeec0	-0.16692638
177	0x3d1a951f	0.03773987
178	0x3ce8aeb3	0.028403616
179	0x3e25bf66	0.16186294
180	0x3c278fb0	0.010227129
181	0x3e49863d	0.19680114
182	0x3dd32be0	0.10311103
183	0xbe3c6553	-0.18398027
184	0xbca27e61	-0.019835653
185	0xbca59a03	-0.02021504
186	0xbe39b8ec	-0.18136948
187	0xbdff77ff	-0.12474059
188	0xbdda3c69	-0.106560536
189	0xbd002e76	-0.03129431
190	0x3da4fccd	0.080560304
191	0xbc2e8941	-0.010652841
192	0xbdde31f8	-0.108493745
193	0x3d1ea9ab	0.038736027
194	0xbe4e808b	-0.20166223
195	0xbe4664ad	-0.19374342
196	0x3ce970f0	0.028496236
197	0xbdcf4d6b	-0.10122188
198	0x3dd4c37b	0.103888474
199	0x3d50b3c5	0.05095269
200	0x3d511e4a	0.051054277
201	0x3df669f4	0.12031928
202	0xbd4340f5	-0.04766937
203	0xbd303138	-0.04301569
204	0x3e22447f	0.15846442
205	0x3cba8194	0.022766866
206	0xbd492fb3	-0.049117755
207	0x3d0cd7cc	0.034385487
208	0x3dc08cdd	0.094018675
209	0x3dc07cad	0.0939878
210	0x3d92ac4b	0.071617685
211	0x3cd2a3ba	0.025712837
212	0x3a941fdb	0.0011300998
213	0xbde30335	-0.11084596
214	0xbe35f0ac	-0.1776759
215	0xbdd74830	-0.105118155
216	0x3dc2726b	0.0949448
217	0x3c0a2660	0.008432001
218	0xbdb3b013	-0.08773818
219	0x3dacf248	0.08444649
220	0xbda4346c	-0.08017811
221	0x3d758230	0.05993861
222	0xbd4d5f1d	-0.050139535
223	0x3c8d3c6e	0.01724073
224	0x3e33b019	0.17547645
225	0xbd5ef4a1	-0.054432515
226	0xbde36c42	-0.11104633
227	0x3d10653f	0.035252806
228	0x3e24d9fc	0.1609878
229	0x3e061040	0.13092136
230	0x3e5a05ad	0.21291228
231	0x3d3bc63e	0.045843355
232	0x3cf3e57e	0.029772516
233	0x3e81f571	0.2538257
234	0xbd2711d4	-0.040788487
235	0x3c9c3fe6	0.019073438
236	0x3dd1bf73	0.10241594
237	0x3ddf7e68	0.10912782
238	0x3df71ad3	0.12065663
239	0x3e6ce6c2	0.23134902
240	0x3dc82266	0.09772186
241	0x3d916ebf	0.07101201
242	0x3d9c474b	0.076307856
243	0xbcaa8aba	-0.020818103
244	0x3d293520	0.04131043
245	0xbc9675b5	-0.018366674
246	0x3c86ace3	0.01643986
247	0x3d8197a3	0.063277505
248	0x3e0f1759	0.1397375
249	0x3dbcf619	0.09226627
250	0x3c37c002	0.011215212
251	0xbd0c1882	-0.03420306
252	0xbdeb3008	-0.114837706
253	0xbe24898c	-0.16068095
254	0xbe0eb52c	-0.13936299
255	0x3d655e46	0.05599811

weight f4 [10]
0	0x3f78ce18	0.97189474
1	0x3f830352	1.0235388
2	0x3f89cec3	1.0766224
3	0x3f762a78	0.9615855
4	0x3f66932c	0.90068316
5	0x3f836c80	1.0267487
6	0x3f7bc035	0.9834016
7	0x3f8cdfc9	1.1005794
8	0x3f704c3d	0.9386633
9	0x3f800c00	1.0003662

bias f4 [10]
0	0xbd357e59	-0.044309948
1	0x3d13b168	0.03605786
2	0xbdb3d218	-0.087803066
3	0x3cd0f7cd	0.025508786
4	0xbc964689	-0.01834418
5	0x3e007e92	0.12548283
6	0xbe70d3b9	-0.23518266
7	0x3df41ca9	0.11919529
8	0xbe02c187	-0.12769137
9	0xbd032e83	-0.03202678

running_mean f4 [10]
0	0x3f244d5c	0.6418054
1	0x3e439ee8	0.19103587
2	0x3f109ac6	0.56486166
3	0x3e6434e9	0.22285809
4	0x3ea72060	0.32641888
5	0xbf10d83b	-0.5657994
6	0x3eda9a53	0.42695865
7	0xbf0e4eb6	-0.55588853
8	0xbd40de28	-0.047086865
9	0xbecca7e3	-0.39971837

running_var f4 [10]
0	0x3f5a0be5	0.851744
1	0x3f920f20	1.1410866
2	0x3f8bba51	1.0916234
3	0x3f401cfb	0.7504422
4	0x3f492204	0.7856753
5	0x3f8e9c0b	1.114137
6	0x3f17cdf0	0.5929861
7	0x3f7797d5	0.9671605
8	0x3f3b6558	0.73201513
9	0x3f5148ad	0.8175152

weight f4 [20, 10, 3, 3]
0	0x3cbcbe23	0.023039883
1	0x3cddaf09	0.027061002
2	0x3d8d4e1d	0.068996646
3	0xbda5fd9b	-0.08105012
4	0x3cc195d9	0.023631023
5	0x3d9682a6	0.07349138
6	0xbcf328b8	-0.029682502
7	0xbdc8a232	-0.09796561
8	0xbdd43e17	-0.10363405
9	0x3be5c388	0.0070118345
10	0x3d288957	0.041146602
11	0xbb96290e	-0.004582531
12	0xbe013ba7	-0.12620412
13	0xbda56dea	-0.08077605
14	0xbc573dc1	-0.013137282
15	0xbd599661	-0.053121928
16	0xbc96c476	-0.018404227
17	0xbd52edf5	-0.051496465
18	0xbc27fc93	-0.0102530895
19	0xbd7525c0	-0.059850454
20	0x3de3e93e	0.11128472
21	0xbdab1d0c	-0.083551496
22	0xbd24c426	-0.040226124
23	0x3dce4204	0.10071185
24	0xbe0c8fe5	-0.13726766
25	0xbd55b5e6	-0.052175425
26	0xbe82856a	-0.25492412
27	0xbc3e41c0	-0.011612356
28	0x3df6a8c9	0.12043912
29	0x3e2e5420	0.17024279
30	0xbe1413a8	-0.14460623
31	0x3bd8b075	0.006612832
32	0xbd9f1202	-0.077671066
33	0xbe72ee11	-0.23723628
34	0xbe0fd44f	-0.14045833
35	0xbe0ff7fd	-0.14059444
36	0x3d968349	0.073492594
37	0x3d65e1c5	0.056123514
38	0x3ca41a0f	0.020031957
39	0xbe3bd1e6	-0.18341789
40	0x3cb0ea37	0.021596057
41	0xbd4022c2	-0.046908148
42	0xbe392016	-0.18078646
43	0xbdc88750	-0.09791434
44	0x3bec80e3	0.007217513
45	0xbca839f0	-0.02053544
46	0x3de6c30a	0.112676695
47	0x3e0858e0	0.13315153
48	0xbc0cd668	-0.00859604
49	0xbd398849	-0.045295987
50	0xbd7f529e	-0.06233465
51	0x3ce64b48	0.028112069
52	0xbd9328bb	-0.07185503
53	0xbde70877	-0.112809114
54	0x3d4db8df	0.050225135
55	0xbc87dac2	-0.016583804
56	0xbcb0ee66	-0.021598052
57	0xbd11e68f	-0.03562027
58	0x3ce1fd9d	0.027586753
59	0x3e094f90	0.13409257
60	0x3cdd89f0	0.027043313
61	0xbce8486c	-0.028354846
62	0x3e2acf2b	0.16680591
63	0xbdbe4db6	-0.09292166
64	0xbdc713c0	-0.09720564
65	0xbdae20dc	-0.08502361
66	0xbdc0e2a0	-0.09418225
67	0xbd080581	-0.033208374
68	0x3dfa0aea	0.12209113
69	0xbd260b8a	-0.04053835
70	0xbc9c9983	-0.019116169
71	0x3df1da46	0.118092105
72	0xbdda66c1	-0.1066413
73	0xbd1697f6	-0.036766015
74	0x3d2d8ae7	0.042368796
75	0x3d159ffd	0.03652953
76	0x3db26462	0.08710553
77	0x3cec6e65	0.028861234
78	0xbb5cdc9a	-0.0033700825
79	0x3dec805b	0.11547919
80	0xbce56ca0	-0.028005898
81	0xbcd0ba46	-0.025479447
82	0x3cf403d4	0.029786982
83	0x3e471266	0.19440612
84	0xbde6d1de	-0.11270498
85	0xbc677bec	-0.014128666
86	0xbccee6c9	-0.025256531
87	0xbd89bc71	-0.067253955
88	0xbde39ea6	-0.11114244
89	0xbe044d8a	-0.12920204
90	0xbde2981f	-0.11064171
91	0xbdbd16b3	-0.09232845
92	0xbcc485e5	-0.023989627
93	0x3ce43659	0.027857946
94	0xbe013668	-0.1261841
95	0x3d932ae4	0.07185915
96	0xbc3afbaa	-0.01141254
97	0xbdf04ad2	-0.11733021
98	0x3d3aa25f	0.045565005
99	0xbdee9569	-0.116495915
100	0x3ae3a3ec	0.0017367578
101	0x3d8e75ad	0.069560386
102	0x3cbceaf9	0.023061262
103	0x3b094981	0.0020948353
104	0x3def6de4	0.11690882
105	0x3e1ccb44	0.15311915
106	0x3d7044ee	0.058659486
107	0x3dce0925	0.10060338
108	0x3d93f463	0.072243474
109	0x3dcddf7f	0.10052394
110	0xbd8e0c8a	-0.069359854
111	0xbca83e5d	-0.02053755
112	0xbc775160	-0.015095085
113	0xbd63d77b	-0.05562542
114	0xbd88b611	-0.066753514
115	0xbd60f2ff	-0.05491924
116	0xbe301cc2	-0.1719847
117	0xbd6ab3b6	-0.057300292
118	0x3cbe2674	0.023211695
119	0x3e477818	0.19479406
120	0xbbadf1c8	-0.0053083636
121	0xbdae63a1	-0.085150965
122	0x3daa8345	0.08325819
123	0xbc5770f0	-0.013149485
124	0xbd17b225	-0.037035126
125	0xbe06f2dc	-0.13178581
126	0xbe093e02	-0.1340256
127	0x3c17f015	0.009273549
128	0xbda812bd	-0.08206699
129	0x3c23864b	0.009980748
130	0x3d5c566c	0.053793356
131	0xbd939f75	-0.072081484
132	0xbd069bbd	-0.032863367
133	0x3c930d53	0.01795069
134	0x3d83c82a	0.06434663
135	0xbd398a40	-0.04529786
136	0x3baf58e2	0.005351172
137	0x3dde02fe	0.108404145
138	0xbd9a6ee8	-0.07540685
139	0x3cdaa3b6	0.026689392
140	0xbd531bba	-0.051540114
141	0xbd835ea6	-0.06414537
142	0xbc5e82d2	-0.013580995
143	0xbdd0f356	-0.10202663
144	0xbdbda761	-0.092604406
145	0xbd96fe69	-0.07372744
146	0xbb2c0ff7	-0.0026254633
147	0x3d4f4f77	0.050612893
148	0xbdc641ac	-0.09680495
149	0xbd2a6a76	-0.041605435
150	0x3d75b16b	0.059983652
151	0x3d910985	0.07081894
152	0x3dddb508	0.108255446
153	0xbcc6ef5c	-0.024284057
154	0x3ba65e9b	0.005077196
155	0xbe1150d8	-0.14190996
156	0xbde12518	-0.10993403
157	0xbd82a511	-0.0637914
158	0x399a8587	0.00029472655
159	0xbd8b778c	-0.06809911
160	0x3cb35581	0.021891357
161	0xbd88ed14	-0.06685844
162	0x3dc1f0c5	0.09469751
163	0x3ddd6429	0.1081012
164	0x3a951305	0.0011373466
165	0xbd776bbb	-0.060405474
166	0x3dca216a	0.098696545
167	0x3ddc3eae	0.10754143
168	0x3d317f80	0.043334484
169	0x3dcbe431	0.099556334
170	0xbd824c1f	-0.06362175
171	0x3c847a83	0.0161717
172	0xbcc70372	-0.024293635
173	0x3d8876f2	0.06663312
174	0xbcc0cdd9	-0.023535656
175	0x3cf6d83d	0.030132407
176	0xbe24139a	-0.16023102
177	0x3d8a9e08	0.06768423
178	0x3d7997b2	0.060935684
179	0xbb0c2a28	-0.0021387432
180	0x3da7891d	0.08180449
181	0xbd8df6b0	-0.069318175
182	0xbd10b482	-0.035328396
183	0x3cad7410	0.021173507
184	0xbdd06449	-0.10175378
185	0x3d6c7f1e	0.057738416
186	0x3d33d141	0.043900732
187	0x3cb9b1de	0.022667821
188	0x3dec8c5e	0.115502104
189	0x3e094031	0.13403393
190	0x3cacc9bf	0.021092294
191	0x3cca42ed	0.024690116
192	0x3e061e43	0.13097481
193	0x3d84b0a5	0.06479005
194	0xbcd01ab3	-0.025403356
195	0x3e3caafa	0.18424597
196	0x3d47ffbd	0.048827875
197	0x3d7cd413	0.061725687
198	0x3e0be402	0.13661197
199	0x3d5d8774	0.054084256
200	0x3dec7eed	0.11547647
201	0x3dc33bcb	0.09532889
202	0x3daa6b17	0.08321207
203	0xbcb3db2d	-0.021955097
204	0x3df90265	0.1215866
205	0xbdaaeace	-0.08345567
206	0x3be09938	0.0068542026
207	0xbd8b4a9f	-0.06801342
208	0xbdd16e79	-0.10226149
209	0x3e02c666	0.12770995
210	0xbd2e692e	-0.042580776
211	0xbcba4f15	-0.022742787
212	0xbc055160	-0.008137077
213	0xbc0403c6	-0.00805754
214	0x3d84416d	0.064577915
215	0xbc2abb6a	-0.01042066
216	0xbd9a775d	-0.07542298
217	0xbc8a11a6	-0.016854119
218	0xbd28b204	-0.041185394
219	0x3d8c77a6	0.06858759
220	0x3dba3e12	0.0909387
221	0x3dbf7e8f	0.09350311
222	0x3cc23406	0.023706447
223	0x3c87d5c1	0.016581418
224	0x3d445317	0.047930803
225	0xbe417012	-0.18890408
226	0x3d07cc71	0.033153955
227	0xbb4336af	-0.0029787233
228	0xbd9c1c43	-0.07622578
229	0x3da3d332	0.07999267
230	0xbd6336a2	-0.055472024
231	0x3d8eba23	0.069690965
232	0x3df98b22	0.121847406
233	0x3b98ab58	0.0046590976
234	0xbd2eb1e3	-0.042650115
235	0xbd2a3d7d	-0.041562546
236	0xbe29c34c	-0.16578406
237	0xbd984f50	-0.07437003
238	0xbdc1d26d	-0.09463964
239	0xbd67f5f8	-0.05663106
240	0xbde4222c	-0.1113933
241	0xbde259e9	-0.11052305
242	0x3daad4d9	0.08341379
243	0xbe3f0be4	-0.1865688
244	0x3cd27f61	0.025695505
245	0xbdb22c59	-0.08699865
246	0x3d40308d	0.0469213
247	0x3d12473e	0.035712473
248	0xbd5ee5b5	-0.054418284
249	0xbd80f839	-0.06297345
250	0xbd9b0df4	-0.07571021
251	0xbe07cf95	-0.1326278
252	0x3d843b53	0.06456628
253	0x3e14993f	0.14511584
254	0x3e38a4dc	0.18031639
255	0x3da821dc	0.08209583

weight f4 [20]
0	0x3f81a4d6	1.0128429
1	0x3f816a54	1.0110574
2	0x3f754207	0.95803875
3	0x3f72236d	0.94585305
4	0x3f7b2f34	0.981189
5	0x3f7e2ffc	0.9929197
6	0x3f802c04	1.0013433
7	0x3f80e902	1.0071108
8	0x3f82b323	1.0210918
9	0x3f776514	0.9663861
10	0x3f821d2d	1.0165154
11	0x3f737896	0.95105875
12	0x3f7dcaca	0.99137557
13	0x3f805cb3	1.002829
14	0x3f72c6a1	0.94834334
15	0x3f77bd20	0.96772957
16	0x3f84a370	1.0362377
17	0x3f7ba351	0.98296076
18	0x3f867688	1.0504923
19	0x3f6f981b	0.9359147

bias f4 [20]
0	0xbe6eccff	-0.23320387
1	0xbe277db0	-0.1635654
2	0xbdf104a8	-0.11768466
3	0xbdcbbded	-0.09948335
4	0xbe48c292	-0.19605473
5	0xbdd385ae	-0.10328232
6	0xbe2f7b69	-0.17136921
7	0xbdd2ee57	-0.10299366
8	0xbdf58a7e	-0.11989306
9	0xbdf0b064	-0.11752394
10	0xbe1d76c6	-0.1537734
11	0xbde329e3	-0.11091974
12	0xbdd06d49	-0.101770945
13	0xbe98cd6a	-0.29844218
14	0xbda26b16	-0.07930581
15	0xbe485a58	-0.19565713
16	0xbe1ac12b	-0.1511275
17	0xbe1c3340	-0.15253925
18	0xbe0dcd1f	-0.13847779
19	0xbde54e57	-0.11196583

running_mean f4 [20]
0	0xbf167f2b	-0.5878779
1	0xbebaa028	-0.36450315
2	0x3eb7c55a	0.35892755
3	0x3eb838c9	0.35980824
4	0x3e52d426	0.2058874
5	0xbeaf7018	-0.34265208
6	0xbe4ecc32	-0.20195082
7	0x3ea1ab35	0.31575933
8	0xbf8b7412	-1.0894797
9	0x3eedf205	0.4647371
10	0xbf48decb	-0.78464955
11	0xbd8a4094	-0.067505985
12	0xbe0fa703	-0.14028554
13	0xbf5b6e51	-0.85715204
14	0x3e1df133	0.15424041
15	0xbe452e6f	-0.19255994
16	0xbe3821a5	-0.17981584
17	0xbca24854	-0.01980988
18	0xbeb7c4e2	-0.35892397
19	0x3f2f364b	0.6844222

running_var f4 [20]
0	0x3ed897c5	0.4230329
1	0x3e8abea2	0.27098566
2	0x3ef510ed	0.47864476
3	0x3edb5bb9	0.42843416
4	0x3f017755	0.5057271
5	0x3ef04820	0.46930027
6	0x3eaa041a	0.33206254
7	0x3e961ce2	0.2931891
8	0x3ea04f70	0.31310606
9	0x3eaa0b96	0.33211964
10	0x3f25c367	0.64751285
11	0x3ef5fc41	0.48044017
12	0x3eb7281e	0.35772794
13	0x3edd7fd5	0.4326159
14	0x3ed42cca	0.4144042
15	0x3ed31997	0.4123046
16	0x3f22445c	0.6338556
17	0x3ea4437c	0.32082736
18	0x3eb32f92	0.3499723
19	0x3ef92652	0.4866205

weight f4 [10, 20, 1, 1]
0	0x3ee613d6	0.4493701
1	0x3d820ee9	0.063505
2	0xbdc602a6	-0.09668474
3	0xbdad9b4b	-0.084768854
4	0x3d69950b	0.057026904
5	0xbdc56663	-0.09638669
6	0x3e820964	0.2539779
7	0xbd9c9e26	-0.07647352
8	0x3e1df186	0.15424165
9	0xbd9c1af2	-0.07622327
10	0xbd222a23	-0.039590966
11	0xbd7e5e47	-0.06210163
12	0x3e1891ca	0.14899364
13	0xbe04d7c8	-0.12972939
14	0x3e1db17d	0.15399738
15	0x3e2eacc8	0.17058098
16	0xbd049697	-0.032370176
17	0xbda96aaa	-0.08272298
18	0x3dc3fbf2	0.09569539
19	0xbe0e918a	-0.13922706
20	0x3e2e7609	0.17037214
21	0x3e812e6c	0.2523073
22	0x3df808ac	0.12111029
23	0xbe3c5289	-0.1839086
24	0xbe497654	-0.19674045
25	0xbd5b616c	-0.053559706
26	0xbe4d4105	-0.20044334
27	0xbe45c89c	-0.19314808
28	0x3e152acd	0.14567108
29	0xbdbdaf12	-0.09261908
30	0xbd64d83c	-0.05587028
31	0x3e9a8f3e	0.3018741
32	0xbdfbce3c	-0.122951955
33	0xbde82b76	-0.113364145
34	0xbe18c194	-0.14917594
35	0xbe07a90c	-0.1324808
36	0x3d995343	0.07486584
37	0xbc5232e9	-0.012829521
38	0xbcb28d1e	-0.021795806
39	0xbe069254	-0.13141757
40	0x3e5eef7d	0.21771045
41	0xbe1b1b37	-0.151471
42	0x3e9bda84	0.30440152
43	0xbd6f5a08	-0.05843547
44	0x3c171af5	0.009222736
45	0x3e023f7a	0.12719527
46	0x3de607f8	0.11231989
47	0x3e850695	0.25981584
48	0xbcde4a03	-0.0271349
49	0x3dabc6df	0.08387541
50	0xbe71b91f	-0.23605774
51	0x3e4a6fbe	0.19769189
52	0xbe538f16	-0.20660052
53	0x3d09db12	0.033656187
54	0xbd17f0d9	-0.037094925
55	0xbe5b4639	-0.21413507
56	0xbe61c00a	-0.22045913
57	0xbdcaa85c	-0.09895393
58	0xbe3f531c	-0.18684047
59	0x3e54526d	0.20734568
60	0x3d035c10	0.03207022
61	0x3e604992	0.21903065
62	0x3e908857	0.2822902
63	0xbe268281	-0.16260721
64	0x3d9e22d7	0.07721489
65	0xbe01264e	-0.12612268
66	0xbe1c1bee	-0.1524503
67	0x3e11928b	0.14216058
68	0xbc33860e	-0.010957254
69	0xbdb38212	-0.08765043
70	0xbe473bc2	-0.1945639
71	0xbc9395c8	-0.018015757
72	0xbd1559c3	-0.036462557
73	0xbd0d0654	-0.034429863
74	0xbdfff06a	-0.12497027
75	0xbd0d865b	-0.03455196
76	0x3d413758	0.04717192
77	0xbdd565cf	-0.10419809
78	0x3e9157bf	0.28387257
79	0x3dc1d360	0.09464145
80	0xbb6ef028	-0.0036459062
81	0xbd178818	-0.036995023
82	0xbd1f935b	-0.03895889
83	0x3eb6ffcb	0.3574203
84	0x3e878541	0.26468852
85	0x3dad34c0	0.08457327
86	0x3e84e77e	0.25957865
87	0xbe37ca65	-0.17948301
88	0xbe00bf6d	-0.12573023
89	0x3c94fae3	0.018186038
90	0xbe421f6e	-0.18957302
91	0x3dba64c5	0.091012515
92	0x3d539832	0.051658817
93	0xba3cda1c	-0.00072041317
94	0x3e44f6b2	0.19234732
95	0xbd74ecef	-0.05979627
96	0xbe7302d3	-0.23731546
97	0xbd39b63a	-0.0453398
98	0xbe7f3e8d	-0.24926205
99	0x3dc6f893	0.097153805
100	0xbcbcd063	-0.023048585
101	0x3d3bac46	0.04581859
102	0xbd7c67a0	-0.061622262
103	0xbd69b8ae	-0.05706089
104	0x3ce0e020	0.027450621
105	0x3e9871b4	0.2977425
106	0xbd327ed3	-0.04357798
107	0x3e4d47da	0.2004694
108	0xbe80a861	-0.25128463
109	0xbc49abdf	-0.012309044
110	0x3d21d0b6	0.039505683
111	0xbd69c6a8	-0.05707422
112	0x3dfa51b8	0.12222618
113	0xbd9466e5	-0.07246188
114	0x3db82f66	0.089934155
115	0x3e6b0ab8	0.22953308
116	0xbd939b3e	-0.072073445
117	0x3e9f9ef2	0.31175953
118	0xbde37658	-0.11106557
119	0xbe00db1b	-0.12583582
120	0x3d9b75a6	0.07590799
121	0x3df1fee4	0.11816195
122	0xbd25be9c	-0.040464982
123	0x3e2eeaae	0.1708171
124	0x3e95093c	0.29108608
125	0xbe1785d4	-0.14797145
126	0xbe33475b	-0.17507689
127	0xbe16bf59	-0.14721431
128	0xbdec2740	-0.11530924
129	0x3eab2e23	0.33433637
130	0xbcd0a563	-0.025469488
131	0xbe19485e	-0.14969012
132	0x3de8b6e2	0.11363007
133	0xbde5c58a	-0.11219318
134	0x3d90207b	0.07037445
135	0xbcac230c	-0.021012805
136	0x3dc4c1c0	0.096072674
137	0x3df16a17	0.11787813
138	0x3e913987	0.28364202
139	0xbdd43169	-0.10360987
140	0xbdf2aa96	-0.11848943
141	0xbdb20c80	-0.086937904
142	0xbdb733d4	-0.08945432
143	0x3d75d12f	0.060013946
144	0xbd887ebf	-0.066648
145	0x3d911057	0.07083195
146	0x3ea1c371	0.31594422
147	0xbc7be38b	-0.015374075
148	0x3c8f969c	0.01752787
149	0xbde48606	-0.111583754
150	0x3e397203	0.18109898
151	0xbdf437c3	-0.11924698
152	0x3e7c578e	0.24642774
153	0x3ec8f891	0.3925214
154	0xbd8414f5	-0.0644931
155	0x3d412a5b	0.047159534
156	0x3d37d9d4	0.04488547
157	0xbe07273d	-0.13198562
158	0xbda7ce0e	-0.08193599
159	0xbd89f6b3	-0.06736507
160	0xbd4a0c61	-0.04932821
161	0xbe3891d6	-0.18024382
162	0xbd707d70	-0.058713377
163	0xbdf7446c	-0.12073597
164	0x3e3f9177	0.18707834
165	0x3d32c3f0	0.04364389
166	0xbd9f2c39	-0.07772107
167	0xbe46ff75	-0.19433387
168	0x3e9fe96b	0.3123277
169	0xbd9c52d2	-0.07632984
170	0x3e27b4d2	0.16377571
171	0x3c0b49b8	0.008501463
172	0xbdbd03c4	-0.09229234
173	0x3e8285c6	0.25492686
174	0xbdc3f287	-0.09567743
175	0x3e40f1dc	0.18842262
176	0xbe5c7680	-0.21529579
177	0xbde78021	-0.113037355
178	0xbe807d63	-0.25095662
179	0x3d839063	0.06424024
180	0xbd34a258	-0.044100136
181	0xbd5e9b7b	-0.054347496
182	0xbcaebb80	-0.021329641
183	0xbdf3823d	-0.11890075
184	0xbdd4bc1d	-0.10387442
185	0xbe091e3f	-0.13390444
186	0xbe399aab	-0.18125407
187	0x3d341f9a	0.04397545
188	0xbe02f567	-0.12788926
189	0xbc938e82	-0.018012289
190	0x3dca1ee8	0.09869176
191	0xbdbe1df0	-0.09283054
192	0x3bd70c68	0.0065627582
193	0xbda8aeee	-0.0823649
194	0xbc501c30	-0.012702033
195	0x3e766b57	0.24064384
196	0x3ed56a08	0.41682458
197	0xbbb3ada0	-0.005483344
198	0xbdd0b19c	-0.10190126
199	0xbe0f694c	-0.14005011

weight f4 [10]
0	0x3fbfe5e6	1.4992034
1	0x3fc36466	1.5265014
2	0x3fc6caf0	1.5530682
3	0x3fbd6c24	1.4798627
4	0x3fb15edc	1.3857074
5	0x3fd7a548	1.6847315
6	0x3fd1e1cd	1.6397034
7	0x3fce029a	1.6094544
8	0x3fc39370	1.5279369
9	0x3fc11377	1.5084065

bias f4 [10]
0	0x3e7f0e1a	0.24907723
1	0x3ead23a5	0.33816257
2	0x3ef1d511	0.4723287
3	0x3eb80a28	0.3594525
4	0x3ec86610	0.39140368
5	0x3eee4601	0.46537784
6	0x3ee6fa11	0.4511266
7	0x3ee63c3f	0.4496784
8	0x3edb28a6	0.4280445
9	0x3e8b51b4	0.27210772

running_mean f4 [10]
0	0x3e3a0acf	0.18168186
1	0xbe490f21	-0.19634677
2	0x3cdc9eeb	0.026931247
3	0x3d064167	0.032777216
4	0x3d859ee8	0.065244496
5	0x3e157632	0.14595869
6	0x3e4b61be	0.19861504
7	0x3e016cb1	0.12639119
8	0xbde8e667	-0.11372071
9	0xbe0ed078	-0.13946712

running_var f4 [10]
0	0x3e950571	0.29105714
1	0x3ed850a2	0.42249018
2	0x3ec50141	0.3847752
3	0x3ebf12b4	0.37318957
4	0x3ed4042a	0.41409427
5	0x3eb1536d	0.3463396
6	0x3ebc08b8	0.36725402
7	0x3ea5e9e5	0.3240501
8	0x3e99ec1f	0.3006296
9	0x3e7c1b1e	0.2461972
